test/dummy-chronos2-lora/adapter_model.safetensors (safetensors, 26784 bytes, 34 tensors)

base_model.model.encoder.block.0.layer.0.self_attention.k.lora_A.weight f4 [8, 6]
0.080354996 -0.33190453 0.29808858 -0.2715089 0.18881084 0.25141957 -0.09989985 -0.3031789
-0.074527316 -0.033357475 -0.052301735 -0.19698003 -0.32859465 0.19224843 -0.09812691 0.013075458
0.14158756 0.32052186 0.3428019 -0.16215672 -0.062969394 -0.11883817 0.39501512 0.25474444
-0.375113 -0.25235775 0.009939698 0.019149244 0.40184313 0.026984824 0.34378946 0.3912646
-0.018330568 -0.1672299 0.1786226 -0.1921416 -0.0012061141 0.07904356 0.075010434 -0.037921466
-0.04100058 -0.3306809 0.4062194 -0.36078796 -0.40263477 0.06473006 -0.386669 -0.17038849
00000000: 2991 a43d 64ef a9be 119f 983e 3703 8bbe
00000010: a157 413e 11ba 803e 4b98 ccbd 443a 9bbe
00000020: c7a1 98bd d9a1 08bd 583a 56bd 22b5 49be
00000030: 8f3d a8be c6dc 443e c3f6 c8bd 723a 563c
00000040: 54fc 103e 711b a43e bb83 af3e 690c 26be
00000050: 19f6 80bd 6d61 f3bd 6c3f ca3e dd6d 823e
00000060: d00e c0be 0935 81be 1dda 223c e0de 9c3c
00000070: 62be cd3e 470f dd3c 2c05 b03e d553 c83e
00000080: fd29 96bc 513e 2bbe d8e8 363e c5c0 44be
00000090: 7916 9eba 97e1 a13d 129f 993d 8a53 1bbd
000000a0: 39f0 27bd 024f a9be fdfb cf3e 33b9 b8be
000000b0: 2526 cebe 3291 843d 7bf9 c5be 527a 2ebe

base_model.model.encoder.block.0.layer.0.self_attention.k.lora_B.weight f4 [16, 8]
4.924914e-07 2.3002436e-07 1.6145918e-07 2.5599414e-07 6.791302e-07 -3.2388368e-07 -9.470555e-08 -3.3006853e-07
-1.7267008e-07 -2.3100273e-09 -1.4961687e-07 -2.9459616e-07 -3.102177e-07 1.512464e-07 1.7413362e-07 1.02399284e-07
2.8534475e-07 5.7801646e-08 1.5154994e-07 5.874727e-07 5.350504e-07 -3.1003572e-07 -3.2136174e-07 3.135893e-08
2.9419137e-08 4.9835656e-09 1.5465059e-08 3.6900392e-08 5.035732e-08 -1.8095271e-08 -1.595939e-08 -2.458659e-08
7.031754e-07 3.021156e-07 1.682664e-08 8.3029056e-07 1.1290291e-06 -2.9862767e-07 -1.6800273e-07 -3.203778e-07
-4.261742e-08 -4.756872e-08 -1.236809e-08 4.2858403e-08 -4.5842935e-08 8.3569354e-08 3.0309908e-09 3.9486188e-09
9.597135e-07 -2.7968247e-07 1.1434532e-06 1.1955669e-06 1.455051e-06 -7.0661525e-07 -8.9835794e-07 -1.2736834e-06
1.196382e-06 8.1749775e-08 9.1833317e-07 7.6556046e-07 1.4640335e-06 -1.0806194e-06 -7.2953986e-07 -1.08993e-06
-2.61244e-07 3.8876018e-07 -5.107627e-07 -4.9906237e-07 -1.9356057e-07 4.764811e-08 4.2111017e-07 5.27056e-07
-2.563384e-07 2.737078e-07 -4.4877422e-07 -4.4420952e-07 -2.2211954e-07 1.8580835e-07 4.190984e-07 3.4620675e-07
4.3000025e-08 1.7202457e-07 -1.1237059e-08 -5.4227648e-08 3.5025022e-07 -1.18596155e-07 9.452815e-08 -1.5653168e-07
1.9767619e-07 -1.9327133e-07 3.3523744e-07 4.0873925e-07 2.1184172e-07 -1.8424976e-07 -3.5877233e-07 -1.9561001e-07
-2.0637302e-07 3.09641e-07 -5.715114e-07 -2.2229952e-07 -2.5476456e-07 2.326523e-07 3.7094767e-07 6.198662e-07
-3.4143758e-07 1.2455773e-07 -4.7520317e-07 -2.8502583e-07 -5.013146e-07 2.717061e-07 2.9018312e-07 6.103637e-07
4.7829445e-07 8.225771e-08 2.7049163e-07 4.8499277e-07 7.1631325e-07 -3.187954e-07 -2.4992195e-07 -3.8225258e-07
3.4002024e-08 1.9965228e-08 1.29591005e-08 1.6424408e-08 4.2678693e-08 -3.7800973e-08 -1.4894812e-08 -3.6144854e-09
00000000: c033 0435 9dfc 7634 905d 2d34 916f 8934
00000010: 794d 3635 3ce2 adb4 ed60 cbb3 4634 b1b4
00000020: 3167 39b4 6ebe 1eb1 5fa6 20b4 fd28 9eb4
00000030: ff8b a6b4 4b66 2234 7cf9 3a34 9ae6 db33
00000040: 7c31 9934 9541 7833 bbb9 2234 d1b2 1d35
00000050: 62a0 0f35 fc72 a6b4 9f87 acb4 82af 0633
00000060: 5eb5 fc32 e83b ab31 06d8 8432 697c 1e33
00000070: 7548 5833 ec6f 9bb2 1217 89b2 7c32 d3b2
00000080: d8c1 3c35 7432 a234 2c8a 9032 22e1 5e35
00000090: 2589 9735 1353 a0b4 3d64 34b4 6400 acb4
000000a0: 590a 37b3 5c4e 4cb3 6f7b 54b2 5013 3833
000000b0: d7e4 44b3 bd76 b333 c149 5031 6bac 8731
000000c0: 81cf 8035 4427 96b4 c178 9935 5e77 a035
000000d0: 2c4b c335 3bae 3db5 b026 71b5 6ef3 aab5
000000e0: 5f93 a035 6a8e af33 6083 7635 ea80 4d35
000000f0: cf7f c435 cd09 91b5 99d5 43b5 b649 92b5
00000100: 1a41 8cb4 cbb6 d034 581b 09b5 4ef7 05b5
00000110: 86d5 4fb4 a7a5 4c33 f114 e234 037b 0d35
00000120: e29e 89b4 1df2 9234 0fef f0b4 b17b eeb4
00000130: c17f 6eb4 9c82 4734 7200 e134 4bde b934
00000140: 07af 3833 c1b5 3834 1c0d 41b2 eee7 68b3
00000150: 060a bc34 edae feb3 66ff ca33 1a13 28b4
00000160: d140 5434 0586 4fb4 affa b334 b270 db34
00000170: 9c76 6334 30d6 45b4 4b9d c0b4 df08 52b4
00000180: 6297 5db4 bc3c a634 f769 19b5 3ab1 6eb4
00000190: 93c6 88b4 face 7934 a926 c734 e264 2635
000001a0: d34e b7b4 2bbe 0534 6d1f ffb4 a705 99b4
000001b0: 1492 06b5 01df 9134 77ca 9b34 e0d7 2335
000001c0: 2564 0035 a8a5 b033 1638 9134 7330 0235
000001d0: ac48 4035 e826 abb4 032d 86b4 6538 cdb4
000001e0: 9f09 1233 0080 ab32 baa2 5e32 a815 8d32
000001f0: b84d 3733 9c5a 22b3 13e4 7fb2 b362 78b1

base_model.model.encoder.block.0.layer.0.self_attention.o.lora_A.weight f4 [8, 16]
-0.10031981 -0.17522873 0.14357448 0.24895814 -0.17616104 -0.17258555 -0.050354082 0.017627466
0.24533823 0.122164756 0.2490543 0.08030243 -0.24470155 -0.11483969 -0.2040338 0.101385385
0.21583422 0.18091357 0.08386307 -0.12145012 -0.08866816 0.19259845 -0.2155468 -0.19677694
0.1807534 -0.18146262 0.10381098 -0.1029412 -0.17118125 -0.19926308 0.105692446 -0.16249377
-0.23248044 -0.10568907 -0.011966467 0.030409014 0.041787736 -0.20826477 -0.074269876 -4.4528857e-05
0.026292419 0.18455344 0.123470254 -0.21234705 0.15154983 0.075015426 0.24087547 0.11993579
0.13963124 0.07455604 -0.048535205 -0.12265345 0.0935716 0.2052199 0.19412181 -0.14272681
0.124470174 0.21403974 -0.11290354 0.064952746 -0.036811586 -0.17076075 0.24547493 -0.03790074
-0.22896972 -0.12083783 -0.05350735 0.16674432 -0.011461324 -0.17212695 0.10411006 0.032824863
-0.21716793 -0.24760489 -0.1378996 -0.015021309 0.0016867536 -0.07341726 -0.21823163 -0.08567861
-0.19938473 0.12688193 -0.14725165 0.05456927 -0.10559073 0.08371417 -0.002718214 0.059119195
0.20314358 -0.14654699 0.07354793 -0.16410476 0.19461708 -0.105685495 0.08825215 0.084724
0.18017648 -0.05335377 -0.189377 -0.1027701 -0.04807685 0.20607607 0.123020746 0.20283356
0.15596052 0.007867813 -0.1567166 -0.08605896 0.056746244 0.006643998 -0.06442817 0.101925544
-0.09354577 0.1597714 -0.13712311 0.057717364 0.08879268 -0.029617386 -0.106068686 -0.09066251
-0.13683066 -0.17028117 0.03247672 -0.12323536 -0.14449187 -0.10319524 -0.10797449 -0.13251193
00000000: 7974 cdbd 296f 33be 3005 133e e2ee 7e3e
00000010: 8f63 34be 44ba 30be 1540 4ebd 7a67 903c
00000020: f239 7b3e 8431 fa3d 1708 7f3e 9a75 a43d
00000030: 0b93 7abe 1231 ebbd 3dee 50be 24a3 cf3d
00000040: a503 5d3e 6841 393e 67c0 ab3d d7ba f8bd
00000050: a797 b5bd 8738 453e 4db8 5cbe e57f 49be
00000060: 6b17 393e 56d1 39be da9a d43d d6d2 d2bd
00000070: 234a 2fbe 9f0b 4cbe 4875 d83d c464 26be
00000080: 5a0f 6ebe 8373 d8bd 000f 44bc 531c f93c
00000090: 9e29 2b3d 5c43 55be ce1a 98bd 7fc4 3ab8
000000a0: 3363 d73c 94fb 3c3e f9dd fc3d 8171 59be
000000b0: e12f 1b3e b0a1 993d 0fa8 763e e5a0 f53d
000000c0: 7efb 0e3e d6b0 983d dacc 46bd bb31 fbbd
000000d0: 78a2 bf3d 2a25 523e dec7 463e fa26 12be
000000e0: 38ea fe3d 3c2d 5b3e f939 e7bd f205 853d
000000f0: bfc7 16bd e8db 2ebe c85d 7b3e ce3d 1bbd
00000100: 0a77 6abe d379 f7bd 862a 5bbd 06bf 2a3e
00000110: 47c8 3bbc 0c42 30be a837 d53d 5d73 063d
00000120: 4561 5ebe 238c 7dbe 8e35 0dbe f01b 76bc
00000130: 0f16 dd3a ca5b 96bd 1d78 5fbe 4478 afbd
00000140: 832b 4cbe 56ed 013e 23c9 16be 0784 5f3d
00000150: f43f d8bd 5672 ab3d 1024 32bb f826 723d
00000160: df04 503e 6a10 16be 4ca0 963d 140b 28be
00000170: b349 473e a371 d8bd 8bbd b43d c783 ad3d
00000180: 2f80 383e 7c89 5abd 0bec 41be 2179 d2bd
00000190: 3bec 44bd 9b05 533e 4df2 fb3d 9ab3 4f3e
000001a0: 1db4 1f3e 00e8 003c 517a 20be ae3f b0bd
000001b0: c06e 683d e5b5 d93b ebf2 83bd 57be d03d
000001c0: ed94 bfbd 1d9b 233e 006a 0cbe 0b69 6c3d
000001d0: f0d8 b53d 29a0 f2bc 8a3a d9bd 44ad b9bd
000001e0: 561d 0cbe 305e 2ebe 4f06 053d d262 fcbd
000001f0: adf5 13be 0758 d3bd bb21 ddbd 35b1 07be

base_model.model.encoder.block.0.layer.0.self_attention.o.lora_B.weight f4 [6, 8]
7.558296e-05 -7.71997e-05 8.452375e-06 -7.835931e-05 7.6771874e-05 1.4897821e-05 -4.144896e-05 2.0398684e-06
5.714625e-05 -6.457192e-05 7.734891e-05 -8.470895e-05 6.4930944e-05 2.762367e-05 -7.338341e-05 -1.4305994e-06
6.1493556e-05 -4.292626e-05 8.523039e-05 -8.15166e-05 1.3829922e-05 8.6292726e-05 -5.976047e-05 -6.963915e-05
5.02271e-05 -9.206718e-05 -2.6881065e-05 -4.6702222e-05 6.0632286e-05 4.583271e-06 9.177038e-05 4.9283815e-05
-8.761763e-05 9.6251926e-05 2.161897e-05 6.1824896e-05 -9.127823e-05 5.6954737e-05 -7.851724e-05 -8.618539e-05
-2.9547231e-05 -5.914259e-05 -5.124345e-05 6.934659e-05 7.471375e-06 -5.8346523e-05 7.7294e-05 4.988201e-05
00000000: 4b82 9e38 46e6 a1b8 adce 0d37 d654 a4b8
00000010: 9600 a138 a7f1 7937 7bd9 2db8 ace4 0836
00000020: 52b0 6f38 c96a 87b8 6136 a238 c5a5 b1b8
00000030: 892b 8838 61b9 e737 6be5 99b8 0503 c0b5
00000040: 1af6 8038 b90b 34b8 b8bd b238 e4f3 aab8
00000050: 1007 6837 0ef8 b438 51a7 7ab8 3c0b 92b8
00000060: f0aa 5238 3114 c1b8 a67e e1b7 21e2 43b8
00000070: 6c4f 7e38 00ca 9936 d974 c038 18b6 4e38
00000080: 5bbf b7b8 dcda c938 625a b537 fda7 8138
00000090: a06c bfb8 afe2 6e38 9fa9 a4b8 6ebe b4b8
000000a0: 32dc f7b7 df0f 78b8 3cee 56b8 2b6e 9138
000000b0: 9fb2 fa36 1ab9 74b8 e618 a238 6738 5138

base_model.model.encoder.block.0.layer.0.self_attention.q.lora_A.weight f4 [8, 6]
0.36213642 0.27768627 -0.019008646 -0.10806525 -0.1347754 -0.22693758 0.05962996 0.39526886
-0.29855564 0.25653413 0.054047953 0.14606608 -0.37866837 -0.1705414 0.28704444 -0.11175367
0.266442 0.070594534 0.3657285 -0.3884937 -0.02605037 0.33677864 -0.08552508 0.13245632
0.22653458 -0.29871804 -0.12955211 0.2742268 0.13206537 0.08306345 -0.3805821 -0.0136136655
0.31397256 -0.026451726 -0.01034996 0.40429038 -0.21775548 0.18236539 -0.29877692 -0.086214304
-0.115310885 -0.35648975 -0.2763842 0.21223295 -0.21456556 0.32079464 -0.36503878 -0.37384138
00000000: f269 b93e e52c 8e3e 05b8 9bbc 5051 ddbd
00000010: 9002 0abe 5362 68be 8c3e 743d ae60 ca3e
00000020: 49dc 98be 7158 833e 6361 5d3d 5992 153e
00000030: d2e0 c1be 68a2 2ebe 7df7 923e 1cdf e4bd
00000040: 166b 883e de93 903d c440 bb3e a5e8 c6be
00000050: 9667 d5bc 406e ac3e c627 afbd a1a2 073e
00000060: aef8 673e 92f1 98be 4fa9 04be 7567 8c3e
00000070: 253c 073e 2c1d aa3d a8db c2be da0b 5fbc
00000080: 03c1 a03e 4ab1 d8bc e192 29bc 26ff ce3e
00000090: 4bfb 5ebe febd 3a3e 4af9 98be 2091 b0bd
000000a0: 1d28 ecbd d385 b6be 3b82 8dbe 9853 593e
000000b0: 13b7 5bbe 323f a43e 5de6 babe 2368 bfbe

base_model.model.encoder.block.0.layer.0.self_attention.q.lora_B.weight f4 [16, 8]
1.7893468e-07 -1.1651337e-06 3.3894787e-07 -4.1626416e-07 -2.7978965e-08 -1.2079993e-06 1.0031004e-06 9.287165e-08
-4.4859442e-07 1.6259548e-06 -1.945224e-07 4.1060076e-07 -1.1195351e-07 2.1576714e-06 -1.6366059e-06 -4.2429954e-07
-4.0039826e-08 2.2432988e-07 -8.7533316e-08 1.3354844e-07 4.77761e-08 2.2277189e-07 -2.334388e-07 -8.744189e-08
-1.6909965e-07 4.7748307e-07 -5.0667385e-08 1.5549023e-07 3.824146e-09 6.294281e-07 -4.7044597e-07 -8.393092e-08
5.0259126e-07 -1.2694975e-06 1.5538741e-07 -6.115164e-07 -7.977085e-08 -1.9003137e-06 1.6086547e-06 6.499967e-07
1.8894123e-06 -5.0219314e-06 5.2523365e-07 -2.156272e-06 -5.437398e-08 -7.3521796e-06 6.0051716e-06 1.8612675e-06
-5.2819854e-07 1.6228269e-06 -1.928206e-07 5.3368024e-07 8.588496e-09 2.1616797e-06 -1.7218381e-06 -5.6758927e-07
-1.8501607e-06 4.9302785e-06 -5.3667077e-07 2.1439535e-06 7.8148716e-08 7.206272e-06 -5.9067556e-06 -1.861277e-06
-1.7858709e-07 5.5720125e-07 -3.829398e-08 9.116091e-08 -3.9445318e-08 7.261585e-07 -5.2902493e-07 -2.0317403e-07
1.6784398e-07 -3.0044478e-07 -1.7839442e-08 -1.441604e-07 -4.2664162e-08 -4.7517253e-07 3.902128e-07 1.4605142e-07
8.465784e-08 1.8748477e-07 -2.1945996e-07 1.9387764e-07 1.1833041e-07 -9.3587644e-08 -5.1540987e-08 1.0598703e-07
-1.623324e-07 1.2146849e-07 1.4406123e-07 2.0129974e-08 -4.6937352e-08 4.7959077e-07 -3.529147e-07 -2.385519e-07
2.499203e-07 -7.0859124e-07 1.123906e-07 -3.402937e-07 -2.5069838e-08 -1.0603662e-06 8.819618e-07 2.8963274e-07
-1.0057956e-06 2.4290441e-06 -1.9799606e-07 1.0471329e-06 1.2854153e-07 3.5540263e-06 -2.890211e-06 -9.81125e-07
2.8057954e-07 -3.6893854e-07 -4.428231e-08 -1.9934419e-07 -5.6525295e-08 -6.8018227e-07 5.179282e-07 2.0729685e-07
-1.205864e-07 3.3081332e-07 -3.263717e-08 1.391967e-07 1.2485455e-08 4.8641954e-07 -4.0465875e-07 -1.4944716e-07
00000000: 3121 4034 b061 9cb5 a4f8 b534 e97a dfb4
00000010: 6556 f0b2 8a22 a2b5 44a2 8635 bb70 c733
00000020: 59d6 f0b4 623b da35 e9dd 50b4 8a70 dc34
00000030: 186b f0b3 83cc 1036 5aa9 dbb5 49cb e3b4
00000040: 41f8 2bb3 54df 7034 f3f9 bbb3 8465 0f34
00000050: 6132 4d33 1233 6f34 2ba7 7ab4 b0c7 bbb3
00000060: c291 35b4 632c 0035 619d 59b3 d4f4 2634
00000070: 8b65 8331 f8f5 2835 9a91 fcb4 833d b4b3
00000080: cfe9 0635 9a63 aab5 91d8 2634 1627 24b5
00000090: 7d4e abb3 480e ffb5 f4e8 d735 6f7b 2e35
000000a0: b697 fd35 1082 a8b6 c8fd 0c35 79b4 10b6
000000b0: d388 69b3 beb2 f6b6 0880 c936 aad0 f935
000000c0: 87c9 0db5 e8cf d935 1f0a 4fb4 3a42 0f35
000000d0: 9b8c 1332 6011 1136 e819 e7b5 705c 18b5
000000e0: 0a53 f8b5 c56e a536 bc0f 10b5 d7e0 0f36
000000f0: b6d2 a733 68cd f136 a532 c6b6 fed0 f9b5
00000100: a5c1 3fb4 9492 1535 ad78 24b3 3ec4 c333
00000110: 966a 29b3 3bed 4235 5102 0eb5 0d28 5ab4
00000120: 9a38 3434 d14c a1b4 593d 99b2 82ca 1ab4
00000130: be3d 37b3 371b ffb4 707e d134 4fd2 1c34
00000140: 24cd b533 6c4f 4934 b2a4 6bb4 ae2c 5034
00000150: d51c fe33 5afa c8b3 ea5d 5db3 fc9a e333
00000160: 974d 2eb4 016d 0234 40af 1a34 48ea ac32
00000170: 2a98 49b3 3abd 0035 3a78 bdb4 5312 80b4
00000180: c92c 8634 0536 3eb5 635b f133 9cb1 b6b4
00000190: 2859 d7b2 e851 8eb5 f4bf 6c35 d27e 9b34
000001a0: e0fe 86b5 a902 2336 be98 54b4 368b 8c35
000001b0: 3a05 0a34 b581 6e36 72f5 41b6 33af 83b5
000001c0: 8fa2 9634 8712 c6b4 ea30 3eb3 500b 56b4
000001d0: 38c6 72b3 c595 36b5 c107 0b35 5395 5e34
000001e0: 8a7a 01b4 a39a b134 f32c 0cb3 1976 1534
000001f0: 9d7f 5632 7f92 0235 e03f d9b4 b977 20b4

base_model.model.encoder.block.0.layer.0.self_attention.v.lora_A.weight f4 [8, 6]
0.36387423 0.24174045 -0.3673537 0.24791679 -0.2033135 0.36123002 0.079055876 -0.09359941
0.0014354187 0.20397304 -0.2371678 0.3341969 -0.28186607 0.3701912 0.34495026 0.37081054
-0.18975727 0.000988266 0.043180898 -0.39557362 0.11629425 -0.07875262 -0.3903847 -0.4020944
-0.26997826 0.40749845 0.078467414 0.23639251 0.3855707 -0.15880993 -0.3085537 0.16326067
-0.05014894 -0.1122537 0.2517213 -0.19979954 0.21726026 -0.2701189 -0.055103164 -0.21774529
-0.2273609 0.16008884 0.15801722 -0.027655594 0.045080826 -0.09961517 0.036620714 -0.12645303
00000000: b94d ba3e cf8a 773e c915 bcbe e6dd 7d3e
00000010: 6a31 50be 24f3 b83e 0ce8 a13d 0cb1 bfbd
00000020: a924 bc3a 4fde 503e 1edc 72be db1b ab3e
00000030: c050 90be b389 bd3e 529d b03e e1da bd3e
00000040: bb4f 42be b488 813a 74de 303d a088 cabe
00000050: ae2b ee3d 0e49 a1bd 81e0 c7be 51df cdbe
00000060: 973a 8abe a3a3 d03e 86b3 a03d e110 723e
00000070: 8669 c53e 129f 22be c0fa 9dbe ce2d 273e
00000080: fa68 4dbd 45e5 e5bd 9de1 803e 4098 4cbe
00000090: 7979 5e3e 064d 8abe dbb3 61bd 9ff8 5ebe
000000a0: 4cd1 68be 54ee 233e 44cf 213e fc8d e2bc
000000b0: aca6 383d 0a03 ccbd 9aff 153d e77c 01be

base_model.model.encoder.block.0.layer.0.self_attention.v.lora_B.weight f4 [16, 8]
-5.7738638e-05 -7.047117e-05 -4.8130518e-05 8.376635e-05 -7.6844786e-05 9.722247e-06 4.2267344e-05 7.8307035e-05
-0.000100537334 -0.00010280961 -9.8557015e-05 3.2385393e-05 3.0010882e-05 6.95878e-05 -2.5980607e-05 4.8576057e-05
9.8513105e-05 9.854074e-05 9.818943e-05 -9.5746764e-05 -2.1698684e-06 -9.099625e-05 2.1404368e-05 -8.71673e-05
6.607648e-05 -5.1575505e-05 -6.1911094e-05 9.664644e-05 -9.011686e-05 -8.720559e-05 5.9637012e-05 9.1995964e-05
-9.6080345e-05 -9.546217e-05 -9.0957794e-05 6.653192e-05 7.808448e-06 9.063841e-05 1.7992896e-05 5.2868396e-05
-2.2376555e-05 5.2917185e-05 6.766699e-05 -8.4852945e-05 8.383621e-05 5.976218e-05 -8.107215e-05 -8.1526385e-05
0.00010235773 0.00010174974 0.00010098359 -9.8041244e-05 -2.517274e-06 -9.421053e-05 2.143993e-05 -9.143794e-05
8.590282e-05 9.486873e-05 9.027364e-05 -0.00010030938 8.113726e-05 -4.3036835e-06 -7.117236e-05 -9.582324e-05
9.768121e-05 0.00010068628 9.388891e-05 -9.403153e-05 5.7501842e-05 -6.1558e-05 -4.5656125e-05 -8.710671e-05
7.491587e-05 -8.392616e-06 -4.0530198e-05 9.804448e-05 -8.9180256e-05 -8.440963e-05 8.256595e-05 9.834586e-05
-4.4143064e-05 -9.557332e-05 -6.0512815e-05 9.665695e-05 -7.7253026e-05 -3.0863215e-05 6.784744e-05 9.466518e-05
-9.995979e-05 -9.513831e-05 -8.083125e-05 -3.990351e-05 8.6414606e-05 0.000100796125 -8.339338e-05 -2.9318071e-05
6.0139322e-05 6.3726795e-05 2.822085e-05 -5.1431813e-05 -4.2390835e-05 -4.1081323e-05 6.143696e-05 -5.4222004e-05
0.00010135346 0.00010294448 0.000100932724 -9.533072e-05 4.8620608e-05 -6.338594e-05 -3.6401752e-06 -9.201375e-05
2.918969e-05 -1.7652246e-05 -2.9971794e-05 7.4933494e-05 -6.6982604e-05 -6.25509e-05 5.5410244e-05 7.558539e-05
0.000103130864 0.000103678314 9.9529956e-05 -8.467555e-05 1.5567774e-05 -6.339284e-05 -4.4795943e-06 -8.464947e-05
00000000: 642c 72b8 ecc9 93b8 c0df 49b8 b7ab af38
00000010: bb27 a1b8 bc1c 2337 3748 3138 c538 a438
00000020: 92d7 d2b8 7d9b d7b8 65b0 ceb8 8dd5 0738
00000030: e1bf fb37 aaef 9138 eef0 d9b7 25be 4b38
00000040: d298 ce38 a8a7 ce38 0deb cd38 a7cb c8b8
00000050: 0e9e 11b6 3dd5 beb8 888d b337 96cd b6b8
00000060: 8a92 8a38 c752 58b8 44d6 81b8 aaae ca38
00000070: 1ffd bcb8 25e2 b6b8 c122 7a38 f5ed c038
00000080: be7e c9b8 dd32 c8b8 98c0 beb8 0d87 8b38
00000090: 0701 0337 2015 be38 73ef 9637 02bf 5d38
000000a0: 49b5 bbb7 65f3 5d38 70e8 8d38 14f3 b1b8
000000b0: 39d1 af38 27a9 7a38 4705 aab8 25f9 aab8
000000c0: e3a8 d638 7a62 d538 27c7 d338 7e9b cdb8
000000d0: 70ee 28b6 e592 c5b8 e6d9 b337 5fc2 bfb8
000000e0: ba26 b438 43f4 c638 4b51 bd38 305d d2b8
000000f0: 3c28 aa38 5c68 90b6 5f42 95b8 b6f4 c8b8
00000100: 33da cc38 8927 d338 3ae6 c438 cb32 c5b8
00000110: 222e 7138 b318 81b8 e47e 3fb8 0fad b6b8
00000120: 271c 9d38 03ce 0cb7 f8fe 29b8 3b9d cd38
00000130: 4906 bbb8 1305 b1b8 4227 ad38 083f ce38
00000140: 4126 39b8 896e c8b8 24cf 7db8 4eb4 ca38
00000150: e702 a2b8 2073 01b8 5149 8e38 fb86 c638
00000160: 81a1 d1b8 fe84 c7b8 f283 a9b8 115e 27b8
00000170: 7d39 b538 8262 d338 7be3 aeb8 14f0 f5b7
00000180: 1b3e 7c38 10a5 8538 d0bb ec37 7db8 57b8
00000190: d0cc 31b8 bc4e 2cb8 b7d7 8038 6f6c 63b8
000001a0: b98d d438 e6e3 d738 d8ab d338 4aec c7b8
000001b0: fbed 4b38 11ee 84b8 bc49 74b6 82f7 c0b8
000001c0: 62dc f437 e913 94b7 f06b fbb7 9d25 9d38
000001d0: 0379 8cb8 c22d 83b8 4c68 6838 9983 9e38
000001e0: f647 d838 df6d d938 bdba d038 d793 b1b8
000001f0: 8a97 8237 c6f1 84b8 6c4f 96b6 d785 b1b8

base_model.model.encoder.block.0.layer.1.self_attention.k.lora_A.weight f4 [8, 6]
0.33025122 -0.08108621 -0.4069595 -0.37499416 -0.13536291 0.15688267 -0.14677317 0.36293003
0.011056313 -0.23893926 0.29981926 -0.356767 -0.04099026 0.16017713 -0.037008666 -0.12298513
0.075576186 0.028523771 0.0433272 0.07811685 -0.045624476 -0.07492434 0.26160502 0.3074752
-5.0175666e-05 0.37351614 -0.061632995 0.11107749 -0.08475288 0.38881174 -0.04455429 0.253373
-0.2303373 0.19313222 -0.0732703 -0.37461215 -0.12690084 0.09906195 -0.34994286 -0.32918465
0.039801326 0.14158732 -0.16250171 0.17124225 -0.020288393 0.3301385 -0.29981646 -0.36119965
00000000: b016 a93e 8710 a6bd ff5c d0be 3cff bfbe
00000010: 939c 0abe daa5 203e b54b 16be f7d1 b93e
00000020: 8a25 353c 7eac 74be e981 993e 2aaa b6be
00000030: 67e5 27bd 7905 243e 6696 17bd a1df fbbd
00000040: b0c7 9a3d afaa e93c dd77 313d bafb 9f3d
00000050: bbe0 3abd ef71 99bd 18f1 853e 646d 9d3e
00000060: b673 52b8 823d bf3e e172 7cbd 987c e33d
00000070: eb92 adbd 5512 c73e 8f7e 36bd 1bba 813e
00000080: 8bdd 6bbe 74c4 453e bd0e 96bd 2acd bfbe
00000090: 4bf2 01be fee0 ca3d b62b b3be e48a a8be
000000a0: b706 233d 44fc 103e d966 26be 215a 2f3e
000000b0: d833 a6bc ea07 a93e 8b81 99be 29ef b8be

base_model.model.encoder.block.0.layer.1.self_attention.k.lora_B.weight f4 [16, 8]
-9.237601e-08 -2.8423948e-08 7.6373986e-08 2.2875197e-07 2.9870455e-07 -2.0454738e-07 9.2929994e-08 -1.9211494e-07
-1.672617e-07 -1.0739785e-07 -9.697101e-08 5.4354246e-08 -3.0446498e-07 -1.5131954e-07 -1.2256496e-07 -1.7201212e-07
-2.7638802e-09 -1.700717e-08 -4.7013113e-08 -5.1710288e-08 -1.7206443e-07 2.6478913e-08 -5.0535295e-08 8.4809635e-09
-8.8372465e-09 -9.738454e-09 -4.692673e-08 -7.5370416e-08 -1.4276029e-07 6.565021e-08 -8.305005e-08 5.8590693e-08
3.0064905e-07 5.3134364e-08 3.3341006e-08 -2.0881889e-07 9.1194174e-08 2.31144e-07 8.38648e-08 2.5494214e-07
-8.530333e-08 -1.3612037e-08 -3.8137873e-08 1.5422193e-08 -1.2241634e-07 -1.0562879e-08 -6.435732e-08 -3.4460115e-08
-3.1226037e-07 -5.5000193e-08 -6.760553e-08 1.4034495e-07 -1.7578606e-07 -1.5106839e-07 -1.601875e-07 -1.7648632e-07
-1.8230983e-07 -7.269852e-08 -6.380467e-08 8.9162484e-08 -2.1365082e-07 -1.8410772e-07 -1.02885174e-07 -1.9322374e-07
-7.5075675e-08 1.4145726e-07 1.4567675e-08 -1.3052426e-08 -8.550082e-08 9.1519446e-08 1.8669615e-08 4.4639844e-08
1.3206356e-07 -9.797289e-08 1.6846203e-08 -9.990295e-09 6.859766e-08 -1.6597036e-07 7.140478e-08 -8.643494e-08
5.4066852e-08 -2.064965e-08 -2.8205864e-08 -8.814923e-08 -1.198053e-07 -1.4246291e-08 -3.4976317e-08 1.769467e-08
-2.061069e-08 -8.9262336e-08 1.2188755e-07 3.3944647e-07 5.2943903e-07 -2.2972281e-07 2.224959e-07 -2.3774012e-07
-4.7228144e-07 1.1852206e-07 -1.5232742e-07 1.9431577e-07 -9.3850707e-07 -3.2062195e-07 -1.3288376e-07 -5.2259895e-07
3.257647e-08 1.1539542e-07 1.0164324e-07 7.541166e-08 2.3350563e-07 4.2289056e-08 2.2767728e-07 2.3864587e-08
2.0626423e-07 -2.6605088e-07 -1.0615713e-07 -2.6630698e-07 5.369985e-08 1.5789844e-07 -2.8379569e-07 2.9012668e-07
-1.3553048e-07 -9.4640306e-08 -1.3746276e-07 -1.8928706e-08 -4.62929e-07 -1.1598865e-07 -2.2342306e-07 -1.5607444e-07
00000000: 4060 c6b3 ec28 f4b2 0b03 a433 dd9e 7534
00000010: a45d a034 8ea1 5bb4 ce90 c733 2748 4eb4
00000020: 8c98 33b4 98a2 e6b3 603e d0b3 2073 6933
00000030: 5975 a3b4 667a 22b4 669a 03b4 55b2 38b4
00000040: b2ee 3db1 2a17 92b2 77eb 49b3 1018 5eb3
00000050: b6c0 38b4 bf73 e332 250c 59b3 acb3 1132
00000060: 9fd2 17b2 2c4e 27b2 7c8c 49b3 53db a1b3
00000070: a649 19b4 96fb 8c33 3f59 b2b3 26a5 7b33
00000080: e468 a134 da35 6433 d332 0f33 b337 60b4
00000090: 87d6 c333 6130 7834 2919 b433 fbde 8834
000000a0: 0030 b7b3 5fda 69b2 09cd 23b3 c379 8432
000000b0: 8c71 03b4 0878 35b2 d034 8ab3 4c01 14b3
000000c0: bda4 a7b4 5a39 6cb3 882e 91b3 bab1 1634
000000d0: b4bf 3cb4 5d35 22b4 0100 2cb4 3180 3db4
000000e0: f2c0 43b4 6f1e 9cb3 fd04 89b3 9879 bf33
000000f0: e467 65b4 25af 45b4 b9f1 dcb3 f078 4fb4
00000100: 4a39 a1b3 7ae3 1734 5045 7a32 2d3d 60b2
00000110: 939c b7b3 5989 c433 eb5e a032 07ba 3f33
00000120: 5bcd 0d34 2a65 d2b3 31b5 9032 c8a1 2bb2
00000130: f64f 9333 9635 32b4 3157 9933 1c9e b9b3
00000140: 2237 6833 1061 b1b2 5a49 f2b2 8d4c bdb3
00000150: d5a3 00b4 dabf 74b2 de38 16b3 fefe 9732
00000160: 630b b1b2 7db0 bfb3 32e0 0234 2b3d b634
00000170: c61e 0e35 baa9 76b4 35e7 6e34 8245 7fb4
00000180: de8d fdb4 3186 fe33 718f 23b4 1da5 5034
00000190: b7ed 7bb5 f221 acb4 cfae 0eb4 ba48 0cb5
000001a0: 35ea 0b33 4ecf f733 f646 da33 00f2 a133
000001b0: 8ab9 7a34 4fa1 3533 7477 7434 c8fe cc32
000001c0: 7b79 5d34 c1d5 8eb4 80f8 e3b3 f4f8 8eb4
000001d0: 9ca3 6633 cb8a 2934 955c 98b4 b5c2 9b34
000001e0: 5686 11b4 0f3d cbb3 7a99 13b4 aa98 a2b2
000001f0: 7a88 f8b4 6f15 f9b3 10e6 6fb4 6a95 27b4

base_model.model.encoder.block.0.layer.1.self_attention.o.lora_A.weight f4 [8, 16]
0.078193516 0.009667568 -0.030455055 0.23345758 -0.09382824 -0.1687158 0.18217614 -0.08282031
0.23549926 -0.05418652 -0.044468228 0.22932975 0.17353347 0.17555653 -0.03213058 -0.12923619
-0.086576134 0.03124173 -0.20013835 0.17313048 0.23835763 -0.23828085 -0.038267802 0.11139382
-0.09464016 -0.22767188 -0.12063678 0.11204184 0.15137656 -0.1752041 -0.18034115 0.052952472
0.14955375 0.12449331 -0.08301763 -0.21993558 -0.1648205 -0.16643822 -0.071067095 0.011887606
0.19405237 0.023812704 -0.13820054 -0.09130875 -0.09571292 0.020326516 -0.12324949 0.024206007
0.104987204 -0.06111936 0.0761408 -0.22507915 -0.031561654 -0.019075839 -0.03782968 -0.22494042
0.08678229 0.21215487 0.23470648 0.04699432 0.104129195 -0.11119699 0.20559086 -0.20163941
0.2278151 0.14287741 -0.23924553 0.18238638 -0.0750369 0.080867015 -0.07399827 -0.124432996
-0.012331082 0.100457475 0.15995389 0.124078564 -0.06779609 0.046721127 0.15801333 0.15876412
-0.18953688 0.20486738 -0.025295148 0.22677717 -0.009255068 0.0038411147 0.033892665 0.0671687
-0.024136323 -0.16111241 -0.13178985 0.23536435 0.09025435 -0.21736668 0.09057411 0.18706095
0.005155671 -0.069431044 0.14194378 -0.030517772 0.16177367 -0.1170387 -0.09691254 -0.16056284
-0.24695347 -0.07526945 0.17935356 -0.2145923 -0.033746626 -0.22179955 -0.18783092 -0.012319894
0.15409976 0.2435507 -0.1892314 0.074633904 0.23911527 -0.21758112 0.08141179 0.11414288
0.18001832 -0.01729713 0.124698505 -0.20231918 -0.061862584 0.04239963 0.16813914 -0.010797443
00000000: ec23 a03d b864 1e3c e17c f9bc 810f 6f3e
00000010: 0529 c0bd d6c3 2cbe 628c 3a3e b29d a9bd
00000020: b826 713e aff2 5dbd 5124 36bd 6bd5 6a3e
00000030: c2b2 313e 17c5 333e 5b9b 03bd 7e56 04be
00000040: d44e b1bd a8ee ff3c 11f1 4cbe 1e49 313e
00000050: 0614 743e e5ff 73be b3be 1cbd 7122 e43d
00000060: b3d2 c1bd d122 69be 6b10 f7bd 3176 e53d
00000070: 7502 1b3e b468 33be 5aab 38be b1e4 583d
00000080: 9e24 193e 59f6 fe3d 2605 aabd cb36 61be
00000090: b5c6 28be c86e 2abe a08b 91bd 3cc4 423c
000000a0: aab5 463e dc12 c33c 7184 0dbe 1500 bbbd
000000b0: 2305 c4bd cb83 a63c 3b6a fcbd ad4b c63c
000000c0: 8803 d73d 4b58 7abd b5ef 9b3d 267b 66be
000000d0: cb46 01bd ef44 9cbc 4bf3 1abd c856 66be
000000e0: eaba b13d 203f 593e e556 703e 1e7d 403d
000000f0: b041 d53d 3fbb e3bd 6986 523e 907a 4ebe
00000100: 5d48 693e 754e 123e c8fc 74be 7fc3 3a3e
00000110: f2ac 99bd 9b9d a53d 688c 97bd bad6 febd
00000120: 4e08 4abc a6bc cd3d f4ca 233e e71c fe3d
00000130: add8 8abd a75e 3f3d 3fce 213e 1093 223e
00000140: f515 42be c1c8 513e c537 cfbc 4638 683e
00000150: 92a2 17bc 36bb 7b3b 09d3 0a3d be8f 893d
00000160: 8ab9 c5bc a7fa 24be ebf3 06be 5a03 713e
00000170: 46d7 b83d 5f95 5ebe eb7e b93d e88c 3f3e
00000180: e7f0 a83b dd31 8ebd b659 113e 6800 fabc
00000190: ffa7 253e fcb1 efbd 157a c6bd 966a 24be
000001a0: 5fe1 7cbe df26 9abd 76a8 373e 15be 5bbe
000001b0: e739 0abd 6c1f 63be c056 40be 61d9 49bc
000001c0: 54cc 1d3e 5b65 793e e0c5 41be a9d9 983d
000001d0: a2da 743e 96cd 5ebe 39bb a63d bec3 e93d
000001e0: b956 383e b6b2 8dbc ee61 ff3d c22c 4fbe
000001f0: 9f63 7dbd 3cab 2d3d ab2c 2c3e c2e7 30bc

base_model.model.encoder.block.0.layer.1.self_attention.o.lora_B.weight f4 [6, 8]
4.6655765e-05 -3.96498e-06 7.959562e-05 -5.2579828e-05 7.691282e-05 6.955433e-05 -7.455153e-05 -8.2649116e-05
6.660509e-05 -8.8406036e-05 0.00010181218 -9.384971e-05 9.699152e-05 -2.0739864e-05 -8.816545e-05 -6.1697574e-05
7.951096e-05 -9.065795e-05 0.00010147742 -0.00010174673 9.7556e-05 -4.6076915e-05 -9.4410614e-05 -8.2310566e-05
-9.163981e-05 2.8790615e-05 -5.4384538e-05 7.709047e-05 -1.8836836e-05 8.115576e-05 8.728953e-05 4.7379476e-06
9.95331e-05 -3.1939406e-05 6.157968e-05 -9.504524e-05 3.8870665e-05 -6.387169e-05 -9.4471514e-05 6.451079e-06
-9.9242236e-05 4.7192232e-05 -9.975489e-05 9.85997e-05 -9.618277e-05 4.233376e-05 9.972111e-05 8.244766e-05
00000000: 3fb0 4338 eb0a 85b6 93ec a638 2989 5cb8
00000010: 414c a138 b2dd 9138 8c58 9cb8 e853 adb8
00000020: 56ae 8b38 a166 b9b8 ff83 d538 2ed1 c4b8
00000030: ed67 cb38 85fa adb7 77e5 b8b8 a263 81b8
00000040: 1fbf a638 9e1f beb8 46d0 d438 dc60 d5b8
00000050: fb96 cc38 b642 41b8 50fe c5b8 269e acb8
00000060: c02e c0b8 6083 f137 f41a 64b8 a2ab a138
00000070: cc03 9eb7 2b32 aa38 360f b738 a9fa 9e36
00000080: 6dbc d038 adf6 05b8 5724 8138 0653 c7b8
00000090: 0f09 2338 daf2 85b8 021f c6b8 5976 d836
000000a0: 4520 d0b8 46f0 4538 8033 d1b8 50c7 ce38
000000b0: bbb5 c9b8 878f 3138 5d21 d138 c0e7 ac38

base_model.model.encoder.block.0.layer.1.self_attention.q.lora_A.weight f4 [8, 6]
-0.2324355 -0.10581941 0.18401621 -0.07235044 -0.12640987 -0.06388166 0.34085894 -0.09353494
-0.22723995 0.27403763 0.17821959 0.23371987 -0.062529586 0.29786885 0.32373244 -0.23361212
-0.38700497 0.2980327 -0.0022877865 0.17155689 -0.17761013 0.193022 0.34790495 0.3136423
0.15795903 0.10636579 0.045303613 -0.24014722 0.04407346 0.16810697 -0.050170507 0.218094
-0.06797392 -0.307885 0.05197615 -0.15239032 0.0045836517 -0.052539032 0.39657125 -0.24144614
-0.038895145 -0.070645876 -0.0835202 0.3479027 0.34668165 0.026599966 0.0040350286 -0.16099595
00000000: 9203 6ebe d9b7 d8bd bf6e 3c3e 782c 94bd
00000010: 9771 01be 63d4 82bd 1085 ae3e 3f8f bfbd
00000020: 97b1 68be a94e 8c3e 327f 363e 4354 6f3e
00000030: 830f 80bd 4482 983e 42c0 a53e 0438 6fbe
00000040: 8425 c6be be97 983e b0ee 15bb 9cac 2f3e
00000050: 6edf 35be 8fa7 453e 9920 b23e b995 a03e
00000060: 03c0 213e 4fd6 d93d 4890 393d 27e9 75be
00000070: 5f86 343d 3c24 2c3e 977f 4dbd 0954 5f3e
00000080: e935 8bbd 1aa3 9dbe f2e4 543d 350c 1cbe
00000090: 7532 963b 2b33 57bd 630b cb3e a83d 77be
000000a0: 8450 1fbd c9ae 90bd a30c abbd 4d20 b23e
000000b0: 4280 b13e 2ce8 d93c 4638 843b 1fdc 24be

base_model.model.encoder.block.0.layer.1.self_attention.q.lora_B.weight f4 [16, 8]
1.3113515e-07 -8.229116e-07 -8.797646e-07 -9.017741e-07 -3.679654e-07 7.9018986e-07 1.0830182e-07 3.4599384e-07
3.7652418e-07 -8.7949144e-07 -5.9397547e-07 -9.93624e-07 -3.6629933e-07 4.863809e-07 3.5623933e-07 2.462262e-07
4.7907157e-08 -1.9235449e-08 3.2531023e-08 1.5195647e-08 1.1803808e-11 -4.097591e-08 3.6903558e-08 -2.140657e-08
3.3716648e-07 -8.049668e-07 -4.1471353e-07 -8.81327e-07 -2.970239e-07 4.395118e-07 3.4454928e-07 2.8670868e-07
-1.5047662e-07 1.6756046e-07 1.5177257e-07 3.590332e-07 1.0488192e-07 3.985204e-08 -2.2730183e-07 -3.4865796e-08
9.032922e-08 -1.4499058e-07 -4.9505473e-08 -2.3492926e-07 -6.367509e-08 1.5776463e-08 1.3860488e-07 8.201968e-08
-6.80102e-09 -1.3417724e-07 -1.7399408e-08 -4.6621658e-08 -1.04034035e-08 1.6496152e-07 -1.4878624e-08 1.1151759e-07
-2.1927471e-08 -1.03638236e-07 2.3812914e-08 -4.5123456e-09 1.2915894e-08 1.512877e-07 -2.2980975e-08 1.0956028e-07
4.023337e-07 -8.3238416e-07 -5.8937525e-07 -1.0855636e-06 -4.180754e-07 3.3792807e-07 4.5852315e-07 3.4547912e-07
4.2000698e-07 -4.891008e-07 -9.910749e-08 -6.776851e-07 -2.811965e-07 -1.1996421e-07 4.6020403e-07 2.0793479e-07
1.5875239e-07 -2.8034154e-07 -1.259744e-07 -4.6331425e-07 -1.5132183e-07 3.5983806e-08 2.547333e-07 2.1590836e-07
4.4038035e-07 -2.4284626e-07 1.8908965e-07 -4.223545e-07 -2.0745173e-07 -4.3911214e-07 4.127859e-07 1.8738606e-09
6.4919516e-07 -1.3604326e-06 -8.655322e-07 -1.4633509e-06 -7.2190676e-07 5.685899e-07 5.246479e-07 5.627441e-07
1.8865117e-07 -7.558173e-07 -9.815351e-07 -6.8960526e-07 -3.3352867e-07 7.22523e-07 6.41409e-08 5.953003e-08
5.498148e-07 -1.8775852e-06 -2.1982137e-06 -1.7483703e-06 -8.180885e-07 1.6398337e-06 3.120284e-07 2.6540718e-07
4.844373e-07 -1.13327e-06 -7.753482e-07 -1.1614346e-06 -5.566951e-07 5.9114427e-07 3.685759e-07 4.23185e-07
00000000: 28ce 0c34 0ee6 5cb5 f728 6cb5 7211 72b5
00000010: c88c c5b4 6f1d 5435 8e93 e833 08c1 b934
00000020: 1725 ca34 3116 6cb5 af71 1fb5 a95c 85b5
00000030: cca7 c4b4 d78f 0235 2941 bf34 1231 8434
00000040: 7ac2 4d33 333b a5b2 3db8 0b33 9587 8232
00000050: a0a7 4f2d 7dfd 2fb3 e47f 1e33 8ce1 b7b2
00000060: cf03 b534 e614 58b5 cba5 deb4 5594 6cb5
00000070: a776 9fb4 0bf6 eb34 7efa b834 f1ec 9934
00000080: b392 21b4 abea 3334 edf6 2234 26c1 c034
00000090: 723b e133 c829 2b33 4010 74b4 59bf 15b3
000000a0: 04fb c133 b5ae 1bb4 d89f 54b3 dd40 7cb4
000000b0: c0bd 88b3 cf84 8732 6bd3 1434 cc22 b033
000000c0: 68ae e9b1 5c12 10b4 b475 95b2 0e3d 48b3
000000d0: a7ba 32b2 4720 3134 e19c 7fb2 727b ef33
000000e0: 055b bcb2 b98f deb3 278d cc32 030b 9bb1
000000f0: b4e4 5d32 a571 2234 b367 c5b2 6747 eb33
00000100: 5300 d834 0171 5fb5 8f35 1eb5 aeb3 91b5
00000110: d873 e0b4 7b6c b534 f12a f634 4a7a b934
00000120: 527d e134 c04a 03b5 ebd4 d4b3 2aea 35b5
00000130: 5af7 96b4 83cf 00b4 f611 f734 ae44 5f34
00000140: 8675 2a34 d981 96b4 9443 07b4 6dbd f8b4
00000150: 077b 22b4 9d8c 1a33 47c2 8834 70d4 6734
00000160: 6a6d ec34 8960 82b4 9108 4b34 f6bf e2b4
00000170: e6bf 5eb4 1dbf ebb4 dd9c dd34 4ec5 0031
00000180: 5a44 2e35 1c98 b6b5 eb56 68b5 5b68 c4b5
00000190: 0ec9 41b5 33a1 1835 87d5 0c35 7b0f 1735
000001a0: 0a90 4a34 5fe3 4ab5 4abd 83b5 501d 39b5
000001b0: d50f b3b4 67f3 4135 d5bd 8933 f6ad 7f33
000001c0: fc96 1335 5601 fcb5 0685 13b6 8ca9 eab5
000001d0: 9d9a 5bb5 4218 dc35 db84 a734 497d 8e34
000001e0: 470a 0235 dc1a 98b5 8621 50b5 97e2 9bb5
000001f0: cc6f 15b5 20af 1e35 b0e0 c534 1b32 e334

base_model.model.encoder.block.0.layer.1.self_attention.v.lora_A.weight f4 [8, 6]
-0.30892634 0.08724432 -0.016307315 -0.17073205 0.35731444 0.3627921 0.16186094 -0.3066706
-0.24564306 -0.14772071 0.1035206 0.111020066 -0.3041221 0.11625812 0.23083176 0.33598348
-0.26284376 -0.008303981 0.22630768 -0.22847283 0.09003197 0.07819205 0.13097252 0.33044577
0.07367516 -0.093301475 0.3098522 -0.113711745 -0.40588024 -0.37941486 0.26138517 -0.2106205
-0.18666865 -0.08031158 -0.3199498 0.3155087 0.3611889 -0.11125931 -0.23853515 -0.09889469
0.14828996 0.23927028 -0.16798787 0.064491905 0.3834828 -0.3471568 0.23227988 -0.2223254
00000000: 982b 9ebe 26ad b23d eb96 85bc 62d4 2ebe
00000010: ebf1 b63e e3bf b93e e0be 253e ee03 9dbe
00000020: db89 7bbe 1944 17be 9c02 d43d 7d5e e33d
00000030: e4b5 9bbe bd18 ee3d 295f 6c3e 0706 ac3e
00000040: 7593 86be 6c0d 08bc 33bd 673e c8f4 69be
00000050: ae62 b83d 2723 a03d a91d 063e 3030 a93e
00000060: 01e3 963d d814 bfbd f3a4 9e3e b4e1 e8bd
00000070: 89cf cfbe aa42 c2be 47d4 853e e6ac 57be
00000080: 1126 3fbe 667a a4bd 76d0 a3be 5b8a a13e
00000090: c0ed b83e ecdb e3bd 8f42 74be 4d89 cabd
000000a0: 53d9 173e 4503 753e 0305 2cbe 5514 843d
000000b0: dc57 c43e 89be b1be c7da 6d3e 45a9 63be

base_model.model.encoder.block.0.layer.1.self_attention.v.lora_B.weight f4 [16, 8]
-0.00010522735 -3.307422e-05 -6.707134e-05 -9.493226e-05 0.000104252096 -1.4599927e-05 -3.389844e-05 -6.538779e-05
8.18467e-05 -2.2274917e-05 7.9322075e-05 8.635957e-05 -6.840192e-05 4.7323014e-05 -7.4875375e-06 3.1132528e-05
-3.6868292e-05 -4.8090526e-05 3.2443048e-05 -5.1455638e-05 4.691036e-05 1.2044811e-05 -4.52921e-05 -1.5571062e-05
8.6840875e-05 3.7011796e-05 -5.2244e-05 3.8885893e-05 -9.0451766e-05 8.179184e-07 3.494002e-05 1.6299242e-05
-8.749821e-05 8.501265e-05 -8.823029e-05 -2.1218279e-05 6.664616e-05 1.8464982e-05 8.570336e-05 -7.075536e-05
5.3000138e-05 -2.8138023e-05 -1.660609e-05 -7.917765e-05 -3.6391524e-05 -3.692479e-06 -1.6371776e-05 4.292513e-05
-7.398415e-07 -8.733362e-05 8.442823e-05 -3.894327e-05 7.977652e-05 2.8694605e-05 -9.075505e-05 7.437637e-05
-9.194977e-05 -8.6492466e-05 8.20813e-05 -9.0851e-05 9.5976444e-05 3.1395637e-05 -8.962822e-05 -1.7615369e-06
-8.720442e-05 -1.566104e-05 -2.1430183e-06 -4.671262e-05 8.6045504e-05 3.7996635e-06 -2.3672976e-05 -3.0627998e-05
-9.672017e-05 9.3953626e-05 -0.000100467994 -5.021863e-05 8.769826e-05 -6.6219127e-07 9.0679605e-05 -7.234589e-05
9.075093e-05 8.47497e-05 -5.382905e-05 8.466395e-05 -9.591862e-05 -1.6515136e-05 8.667922e-05 1.4978857e-05
0.00010198265 -9.004073e-06 9.245764e-05 0.000100233876 -0.000101929676 1.5317739e-05 6.895246e-06 6.6056076e-05
-9.67102e-05 -6.0862898e-05 -5.2725823e-06 -9.505665e-05 9.612485e-05 -1.1702085e-05 -9.308756e-05 -1.2355263e-05
-0.00010143377 -8.4239e-05 5.5695586e-05 -9.730805e-05 0.00010048497 1.6080936e-05 -9.015232e-05 -1.9358353e-05
-9.860693e-05 -7.821899e-05 1.654416e-05 -8.746466e-05 9.858707e-05 -1.7923716e-05 -7.5063705e-05 -8.021945e-06
-0.0001017777 -8.571116e-05 4.0836443e-05 -0.00010023828 0.00010225582 -7.567552e-06 -9.2741495e-05 4.2312763e-08
00000000: 81ad dcb8 2cb9 0ab8 a7a8 8cb8 5e16 c7b8
00000010: eba1 da38 36f2 74b7 2c2e 0eb8 cd20 89b8
00000020: 1da5 ab38 05db bab7 b759 a638 f11b b538
00000030: 0073 8fb8 b37c 4638 753d fbb6 4c94 0238
00000040: 07a3 1ab8 cfb4 49b8 7513 0838 12d2 57b8
00000050: 9ec1 4438 1214 4a37 06f8 3db8 9a9e 82b7
00000060: 571e b638 1d3d 1b38 9120 5bb8 6919 2338
00000070: ecb0 bdb8 ed8e 5b35 908c 1238 5bba 8837
00000080: 3e7f b7b8 d248 b238 4708 b9b8 e8fd b1b7
00000090: 62c4 8b38 3fe5 9a37 a4bb b338 7f62 94b8
000000a0: 774c 5e38 f209 ecb7 4f4d 8bb7 2d0c a6b8
000000b0: 1aa3 18b8 4ecc 77b6 1f56 89b7 820a 3438
000000c0: 8599 46b5 e126 b7b8 100f b138 0557 23b8
000000d0: b14d a738 32b5 f037 bf53 beb8 82fa 9b38
000000e0: 28d5 c0b8 4a63 b5b8 1023 ac38 4287 beb8
000000f0: f646 c938 cfae 0338 c9f6 bbb8 f26d ecb5
00000100: 84e1 b6b8 d45f 83b7 c6d0 0fb6 4bed 43b8
00000110: 5473 b438 b9fd 7e36 5495 c6b7 9076 00b8
00000120: 3fd6 cab8 f808 c538 58b2 d2b8 d8a1 52b8
00000130: a5ea b738 70c1 31b5 3e2b be38 67b8 97b8
00000140: 8951 be38 a6bb b138 81c6 61b8 9d8d b138
00000150: eb27 c9b8 fc89 8ab7 8dc7 b538 b34d 7b37
00000160: 85df d538 3310 17b7 d1e5 c138 a734 d238
00000170: 14c3 d5b8 987e 8037 b65d e736 9687 8a38
00000180: e5d0 cab8 0a47 7fb8 23eb b0b6 2659 c7b8
00000190: a396 c938 1354 44b7 0138 c3b8 7349 4fb7
000001a0: d7b8 d4b8 78a9 b0b8 ae9a 6938 dd11 ccb8
000001b0: 75bb d238 8ce5 8637 2910 bdb8 bf63 a2b7
000001c0: 31cb ceb8 8009 a4b8 50c8 8a37 3b6d b7b8
000001d0: 88c0 ce38 e35a 96b7 856b 9db8 fe95 06b7
000001e0: 7d71 d5b8 d4bf b3b8 cc47 2b38 0437 d2b8
000001f0: 2d72 d638 c7ec fdb6 367e c2b8 60bb 3533

base_model.model.encoder.block.1.layer.0.self_attention.k.lora_A.weight f4 [8, 6]
-0.09658149 -0.11552483 -0.12523773 -0.07467015 -0.34978738 -0.3775575 -0.35114938 -0.25422448
0.24264553 -0.13431706 0.33782303 -0.032084588 -0.19016485 -0.050577316 -0.38001016 -0.2977826
-0.29536083 -0.11994831 -0.20213217 -0.18733764 0.091345266 -0.14902602 0.3455257 0.06691682
0.15325002 -0.33740753 -0.07884914 -0.23385432 -0.0952723 0.05120658 -0.088883005 -0.047827777
-0.047091007 0.33407772 -0.22433259 0.19803995 0.02773965 -0.37989366 0.09477152 0.1190999
-0.014882852 0.027731473 0.035126813 -0.2870437 0.39617854 -0.11188152 0.044259075 -0.101310804
00000000: 84cc c5bd 4898 ecbd 523e 00be aaec 98bd
00000010: 5517 b3be 374f c1be dac9 b3be b629 82be
00000020: 1278 783e 698a 09be 24f7 ac3e 216b 03bd
00000030: 93ba 42be 292a 4fbd b190 c2be f676 98be
00000040: 8939 97be 76a7 f5bd bcfb 4ebe 70d5 3fbe
00000050: 3a13 bb3d 479a 18be bfe8 b03e b00b 893d
00000060: 93ed 1c3e aec0 acbe a87b a1bd 8277 6fbe
00000070: 201e c3bd febd 513d 4b08 b6bd 0fe7 43bd
00000080: 80e2 40bd 3c0c ab3e 71b7 65be fcca 4a3e
00000090: 433e e33c 6c81 c2be 9217 c23d a6ea f33d
000000a0: 35d7 73bc 1d2d e33c 22e1 0f3d 64f7 92be
000000b0: ead7 ca3e 2322 e5bd 0149 353d 0a7c cfbd

base_model.model.encoder.block.1.layer.0.self_attention.k.lora_B.weight f4 [16, 8]
-1.3154647e-07 1.3317121e-07 -2.6248492e-07 7.996658e-08 1.1387323e-07 2.5525128e-07 3.3997551e-07 2.1641283e-07
2.1186314e-07 -2.3332449e-07 2.459476e-07 -2.1399813e-07 -3.2904175e-08 -1.1689632e-07 -2.4053728e-07 -8.55352e-08
7.0505143e-07 -6.4924643e-07 3.8298955e-07 -6.126238e-07 -1.7805372e-07 -4.529536e-07 -4.995646e-07 -1.6498136e-07
1.225083e-07 -3.0107276e-07 2.5524133e-07 -2.2626624e-07 -5.3944262e-08 -1.1786522e-07 -3.1464634e-07 -1.9059493e-07
-3.0706505e-07 5.400606e-07 -1.9984509e-07 5.093767e-07 1.5228214e-07 -1.8106931e-08 3.1568467e-07 1.526431e-07
-2.3297638e-07 1.3840487e-07 -1.5429963e-07 1.5388477e-07 -1.9680376e-08 -2.6466019e-08 1.1513949e-08 2.0842496e-08
-2.531297e-07 6.0869627e-07 -9.4052254e-08 5.1951673e-07 1.0676079e-07 -1.1046053e-07 1.7673229e-07 2.1489161e-07
-3.5167764e-07 1.7630649e-07 -2.4758063e-07 1.7457994e-07 -3.7977035e-09 5.0554256e-08 4.6789843e-08 1.04826924e-07
-2.187576e-07 3.1654974e-07 -1.0607194e-07 2.951131e-07 4.7144695e-08 4.1583426e-09 1.257634e-07 6.509627e-08
-6.071087e-08 4.419674e-07 1.936182e-08 3.5170038e-07 5.3801937e-08 -9.860492e-08 1.0862138e-07 1.3763909e-07
-2.972326e-07 4.840798e-07 -1.8454196e-07 4.1847687e-07 2.9464188e-08 1.9831338e-08 1.8403269e-07 1.3619939e-07
-3.6689872e-07 4.3343957e-07 -2.4604046e-07 3.9922594e-07 2.922127e-08 -7.036372e-09 1.5785427e-07 1.3063388e-07
4.0302615e-07 -5.2446376e-07 5.4824863e-08 -3.8700944e-07 2.2323063e-07 2.4908513e-09 2.1681672e-07 -8.262283e-08
-1.5588853e-07 -1.491008e-07 -2.2438033e-07 4.444522e-08 2.1576075e-07 1.1368897e-07 3.5961884e-07 -1.5784394e-07
2.4545095e-08 -4.9154426e-07 1.657684e-07 -4.0911135e-07 -1.8275756e-07 2.5528337e-07 -2.973159e-07 -3.1566114e-07
8.552191e-07 -9.242243e-07 3.1859122e-07 -7.646978e-07 1.9153207e-07 -1.6517622e-07 1.6623023e-08 -1.712218e-07
00000000: 383f 0db4 d3fd 0e34 a7eb 8cb4 18ba ab33
00000010: 788a f433 7809 8934 e185 b634 1b5f 6834
00000020: 7f7c 6334 bf87 7ab4 c80a 8434 5cc7 65b4
00000030: 8652 0db3 6e08 fbb3 3123 81b4 79af b7b3
00000040: c442 3d35 e047 2eb5 af9d cd34 3073 24b5
00000050: 092f 3fb4 782d f3b4 d119 06b5 bb25 31b4
00000060: d38a 0334 20a3 a1b4 1a08 8934 97f3 72b4
00000070: 58b0 67b3 171d fdb3 aaec a8b4 56a6 4cb4
00000080: b3da a4b4 aff8 1035 0095 56b4 1abc 0835
00000090: ff82 2334 9089 9bb2 5f7b a934 37e6 2334
000000a0: 0f28 7ab4 719c 1434 8fad 25b4 863b 2534
000000b0: 9b0d a9b2 6457 e3b2 e2ce 4532 2209 b332
000000c0: e2e5 87b4 4a65 2335 c6f9 c9b3 eb74 0b35
000000d0: 5d44 e533 5236 edb3 cdc3 3d34 f5bc 6634
000000e0: 35ce bcb4 c24e 3d34 39eb 84b4 2b74 3b34
000000f0: f47c 82b1 fe20 5933 faf5 4833 361d e133
00000100: a2e3 6ab4 44f2 a934 aac9 e3b3 0970 9e34
00000110: 247c 4a33 2be1 8e31 9509 0734 0ecb 8b33
00000120: 2760 82b3 8947 ed34 1851 a632 55d1 bc34
00000130: db13 6733 a1c0 d3b3 3c43 e933 f2c9 1334
00000140: 5693 9fb4 b6f1 0135 8226 46b4 06ab e034
00000150: 6f18 fd32 9359 aa32 859a 4534 343e 1234
00000160: 2dfa c4b4 7bb3 e834 8b17 84b4 3255 d634
00000170: 4102 fb32 95c4 f1b1 a77e 2934 5e44 0c34
00000180: 7e5f d834 e0c8 0cb5 9378 6b33 2cc6 cfb4
00000190: 2bb1 6f34 852b 2b31 20ce 6834 626e b1b3
000001a0: 5062 27b4 8418 20b4 32ed 70b4 09e4 3e33
000001b0: ddab 6734 2c25 f433 a311 c134 d07b 29b4
000001c0: 3cd7 d232 aaf2 03b5 12fe 3134 d6a3 dbb4
000001d0: 043c 44b4 e10d 8934 c99e 9fb4 2378 a9b4
000001e0: 3692 6535 3618 78b5 d80a ab34 a245 4db5
000001f0: efa7 4d34 4b5b 31b4 6aca 8e32 17d9 37b4

base_model.model.encoder.block.1.layer.0.self_attention.o.lora_A.weight f4 [8, 16]
-0.14669378 0.0016903266 0.043158744 -0.14891993 0.18065488 0.14160077 0.13581268 -0.14940627
-0.034663875 -0.14964549 -0.1326181 0.07946308 0.05657077 0.19996285 0.24760075 -0.016652424
0.043752316 0.0932677 0.080897875 0.18287484 0.09753654 -0.15793312 -0.029531978 -0.14606483
-0.10520644 -0.19291295 0.14181496 0.055602223 -0.1639955 0.05134151 0.16953826 0.060648352
0.041063983 0.049708016 -0.13780671 -0.093600556 0.20474643 0.1064314 0.089898765 0.1825019
0.02389711 -0.23102568 -0.087797135 -0.19915353 0.22417758 -0.09116945 -0.08396639 -0.15918943
-0.14367361 0.2132207 -0.035979815 0.08460637 -0.023543816 -0.16840726 -0.2416299 -0.19412649
-0.18719953 -0.118486345 -0.13138463 -0.15178505 0.2386838 -0.06250183 -0.2355856 -0.10810182
-0.23381291 0.14356615 0.21211834 0.046794936 -0.21737242 -0.11381636 -0.10629296 0.032357458
0.010739876 -0.09701879 -0.1293671 -0.009831479 0.153425 -0.20286311 -0.16659343 0.143144
0.11857121 0.039888535 0.1886926 -0.19821206 0.12278886 0.09610119 0.18178281 -0.015251381
-0.13632064 0.068397135 0.2131503 -0.008948647 -0.13467701 -0.16371267 -0.13492143 0.15977144
-0.12334818 0.11483934 0.23392756 0.042481948 -0.17730452 -0.0010832574 0.11632575 0.13213576
-0.05178882 -0.019931134 -0.17496896 -0.16651434 -0.23568748 0.045049038 0.079596125 -0.16624397
0.22761329 0.23640509 -0.05299326 -0.17188403 -0.09839593 -0.11919929 0.12486912 -0.02472108
-0.007199603 -0.18578833 0.056430493 -0.05480729 -0.2346602 -0.0110918535 -0.24523851 -0.034316547
00000000: e536 16be f38d dd3a 39c7 303d 777e 18be
00000010: 98fd 383e cbff 103e 7b12 0b3e f5fd 18be
00000020: b5fb 0dbd ab3c 19be 0acd 07be 8abd a23d
00000030: c0b6 673d 10c3 4c3e 0d8b 7d3e aa6a 88bc
00000040: a135 333d 2303 bf3d c9ad a53d 8b43 3b3e
00000050: 3dc1 c73d 38b9 21be 0ced f1bc 0592 15be
00000060: 7976 d7bd f98a 45be f137 113e 28bf 633d
00000070: 70ee 27be 7a4b 523d 709b 2d3e 686a 783d
00000080: b532 283d a29a 4b3d 341d 0dbe a6b1 bfbd
00000090: 0ca9 513e b5f8 d93d d81c b83d c7e1 3a3e
000000a0: dfc3 c33c ff91 6cbe fcce b3bd e7ee 4bbe
000000b0: cf8e 653e 0cb7 babd 92f6 abbd 8e02 23be
000000c0: 2d1f 13be 8756 5a3e 925f 13bd 1b46 ad3d
000000d0: f6de c0bc f472 2cbe d46d 77be 18c9 46be
000000e0: 3cb1 3fbe f8a8 f2bd b189 06be 8a6d 1bbe
000000f0: 8769 743e f600 80bd 5a3d 71be 7d64 ddbd
00000100: a76c 6fbe 0103 133e 8d35 593e 0cac 3f3d
00000110: e096 5ebe 8d18 e9bd 20b0 d9bd 4189 043d
00000120: 4ef6 2f3c cab1 c6bd cf78 04be 3614 21bc
00000130: 711b 1d3e 59bb 4fbe 7897 2abe 5794 123e
00000140: 76d5 f23d 2962 233d a238 413e 1af8 4abe
00000150: ba78 fb3d b3d0 c43d 4625 3a3e eee0 79bc
00000160: a397 0bbe cc13 8c3d 1244 5a3e 599d 12bc
00000170: c5e8 09be 4ba4 27be d828 0abe 209b 233e
00000180: f89d fcbd e330 eb3d b58a 6f3e 8d01 2e3d
00000190: 518f 35be 16fc 8dba 323c ee3d 994e 073e
000001a0: 8420 54bd 9e46 a3bc 102b 33be bc82 2abe
000001b0: 0f58 71be 5785 383d 4b03 a33d dc3b 2abe
000001c0: 7513 693e 2d14 723e 760f 59bd 5e02 30be
000001d0: ce83 c9bd c21e f4bd 62bb ff3d dd83 cabc
000001e0: a6ea ebbb 4c3f 3ebe a923 673d 9c7d 60bd
000001f0: c34a 70be 9bba 35bc ce1f 7bbe 828f 0cbd

base_model.model.encoder.block.1.layer.0.self_attention.o.lora_B.weight f4 [6, 8]
-7.380792e-05 -8.489406e-05 -2.7465734e-05 -2.2675693e-05 -5.8635414e-06 6.287091e-05 5.3600415e-05 5.0051356e-05
-7.0189264e-05 -6.916337e-05 -5.0036735e-05 7.928641e-05 4.5060344e-05 -1.2188978e-05 7.928314e-05 8.158751e-05
-4.6110832e-05 -4.8577564e-05 -7.5287564e-05 8.717527e-05 8.742619e-05 -4.5251014e-05 0.00010043562 9.756819e-05
-3.5379685e-06 -9.471729e-05 9.776197e-05 -8.95416e-05 -9.4783114e-05 8.5877684e-05 -9.579116e-05 -9.684373e-05
-1.5318552e-05 9.570137e-05 -9.986354e-05 9.340842e-05 9.324813e-05 -6.826389e-05 9.596853e-05 9.909103e-05
6.7374094e-05 -7.113387e-05 0.000105410014 -9.9800294e-05 -0.00010297825 6.3745494e-05 -0.00010287195 -0.000104940904
00000000: 53c9 9ab8 2709 b2b8 3766 e6b7 ae37 beb7
00000010: 70bf c4b6 90d9 8338 02d1 6038 3cee 5138
00000020: 9332 93b8 cd0b 91b8 89de 51b8 9146 a638
00000030: 2dff 3c38 437f 4cb7 d044 a638 f619 ab38
00000040: 2167 41b8 c3bf 4bb8 b4e3 9db8 ded1 b638
00000050: 9458 b738 e8cb 3db8 f7a0 d238 869d cc38
00000060: d66d 6db6 f5a2 c6b8 8f05 cd38 48c8 bbb8
00000070: 4cc6 c6b8 3b19 b438 7de3 c8b8 9518 cbb8
00000080: 5780 80b7 48b3 c838 d46d d1b8 43e4 c338
00000090: 358e c338 e628 8fb8 b642 c938 17cf cf38
000000a0: 314b 8d38 b52d 95b8 920f dd38 e04b d1b8
000000b0: 07f6 d7b8 1aaf 8538 f5bc d7b8 b813 dcb8

base_model.model.encoder.block.1.layer.0.self_attention.q.lora_A.weight f4 [8, 6]
-0.07711509 0.07415 0.27552214 -0.038932618 -0.39063936 0.20869978 -0.38601354 0.01781387
0.33315617 -0.27894124 -0.31792927 -0.32197466 -0.32825997 -0.07997339 0.4042727 -0.29313555
-0.11688385 -0.39081448 -0.39460227 0.1139942 0.16917118 0.33854437 0.082386546 0.08758832
0.06177369 0.057783242 -0.24710372 0.008426008 -0.20452337 0.36119184 -0.13897876 0.19001633
0.27853355 0.0793527 -0.01612094 -0.33232507 -0.0025445535 0.25607076 -0.26092935 -0.06677894
0.17963599 -0.10898627 0.048298825 -0.269614 -0.29455516 -0.08732814 -0.39450055 -0.35374385
00000000: 84ee 9dbd f5db 973d 3d11 8d3e cf77 1fbd
00000010: e201 c8be 65b5 553e 91a3 c5be 65ee 913c
00000020: 7293 aa3e 63d1 8ebe a0c7 a2be ddd9 a4be
00000030: b111 a8be 17c9 a3bd d5fc ce3e dd15 96be
00000040: cd60 efbd d618 c8be 4f09 cabe cb75 e93d
00000050: 363b 2d3e b055 ad3e 47ba a83d 8161 b33d
00000060: 6906 7d3d 1fae 6c3d c208 7dbe 3d0d 0a3c
00000070: 936e 51be 23ee b83e 7350 0ebe a493 423e
00000080: f39b 8e3e ab83 a23d 1010 84bc 8326 aabe
00000090: 86c2 26bb b51b 833e 8898 85be 66c3 88bd
000000a0: 7ff2 373e 3234 dfbd fdd4 453d d90a 8abe
000000b0: efcf 96be 19d9 b2bd fafb c9be ea1d b5be

base_model.model.encoder.block.1.layer.0.self_attention.q.lora_B.weight f4 [16, 8]
-1.8190245e-07 -4.8494724e-07 -8.647891e-08 -1.519024e-07 -3.1300223e-07 -3.1333184e-07 -7.596127e-07 8.834895e-08
3.66302e-07 9.54965e-07 8.269923e-07 -5.4229762e-08 -3.3504824e-07 6.6670486e-07 -3.522969e-08 4.195599e-07
4.992203e-07 1.3697194e-06 1.0719988e-06 1.108607e-07 -3.7703617e-07 1.0731791e-06 2.8247962e-07 4.1970333e-07
1.4853197e-07 3.3565792e-07 1.730267e-07 1.6421843e-09 5.3856137e-08 2.0191018e-07 1.661708e-07 1.927615e-07
4.4335798e-07 -6.4731057e-07 -4.7298153e-07 4.9068635e-08 2.6001874e-07 -6.3852815e-07 -1.0409923e-06 -3.3575463e-07
2.7997575e-07 -6.0845434e-07 -2.420784e-07 -8.158596e-08 -8.60156e-08 -5.412516e-07 -1.2737634e-06 -1.08758854e-07
1.823128e-07 -3.4232346e-07 -1.14572906e-07 -1.3411581e-07 -7.1647264e-08 -3.2861755e-07 -8.309694e-07 6.659996e-08
-1.0475129e-06 2.6118593e-07 -6.872076e-07 1.9656998e-08 8.507193e-07 6.315485e-07 3.5103487e-06 -1.8213552e-07
-8.0776266e-07 1.8442843e-06 1.7687107e-06 -2.593308e-07 -1.2759201e-06 1.7946406e-06 1.4825472e-06 1.1318702e-06
9.2498894e-08 8.739776e-08 -4.0804835e-09 4.337745e-08 8.070768e-08 8.0568434e-08 1.370474e-07 -7.9342016e-08
1.04093694e-07 1.16458445e-07 1.4660552e-07 -3.0319946e-08 -7.5887364e-08 6.5386516e-08 -1.0235447e-07 -6.4421734e-08
-5.649148e-07 5.759116e-07 5.5956673e-07 -1.2088898e-07 -4.7643834e-07 6.4246143e-07 8.4274836e-07 4.0609106e-07
5.2167155e-07 -8.611263e-07 -9.112757e-07 1.4492575e-07 7.7689464e-07 -8.871241e-07 -5.4458894e-07 -8.323763e-07
-2.3261498e-06 4.817049e-07 1.3374058e-07 -2.7931645e-07 -5.528652e-07 1.449663e-06 3.944038e-06 3.3736458e-07
-1.1412965e-06 1.2690542e-07 3.6528255e-07 -2.6098405e-07 -7.2588557e-07 4.85718e-07 8.461911e-07 6.1730697e-07
2.3683442e-07 1.7633006e-07 4.7329738e-07 -1.2387271e-07 -4.4001555e-07 -6.0147536e-09 -1.03059e-06 3.9042038e-07
00000000: f750 43b4 522d 02b5 49b6 b9b3 9d1a 23b4
00000010: b30a a8b4 0038 a8b4 30e8 4bb5 59ba bd33
00000020: 2aa8 c434 592c 8035 7afe 5d35 41ea 68b3
00000030: aee0 b3b4 9cf7 3235 744f 17b3 e03f e134
00000040: 2802 0635 33d7 b735 99e1 8f35 5012 ee33
00000050: 756b cab4 270a 9035 b4a7 9734 9653 e134
00000060: 287c 1f34 7934 b434 38c9 3934 39b3 e130
00000070: 734f 6733 a6cc 5834 af6c 3234 e1f9 4e34
00000080: a806 ee34 d8c2 2db5 16ee fdb4 89bf 5233
00000090: b498 8b34 5267 2bb5 39b8 8bb5 c441 b4b4
000000a0: 934f 9634 aa54 23b5 01f7 81b4 5b34 afb3
000000b0: 94b7 b8b3 874a 11b5 2df6 aab5 d08e e9b3
000000c0: c3c1 4334 94c8 b7b4 1f0b f6b3 7901 10b4
000000d0: 80dc 99b3 da6c b0b4 c80f 5fb5 b705 8f33
000000e0: 4598 8cb5 1f39 8c34 8c78 38b5 32da a832
000000f0: fc5c 6435 af87 2935 5593 6b36 0891 43b4
00000100: 07d5 58b5 2089 f735 7064 ed35 273a 8bb4
00000110: 4840 abb5 62df f035 effb c635 c4ea 9735
00000120: cea3 c633 6daf bb33 5034 8cb1 034e 3a33
00000130: 8451 ad33 f704 ad33 4d27 1334 bc62 aab3
00000140: 1d8a df33 b517 fa33 9e6a 1d34 2239 02b3
00000150: 85f7 a2b3 9e6a 8c33 f7cd dbb3 3958 8ab3
00000160: a6a4 17b5 5898 1a35 2235 1635 b6cd 01b4
00000170: 30c9 ffb4 9d75 2c35 3a39 6235 bb04 da34
00000180: ff08 0c35 2628 67b5 649e 74b5 e39c 1b34
00000190: cb8b 5035 b422 6eb5 de2f 12b5 7770 5fb5
000001a0: f31a 1cb6 824e 0135 559a 0f34 f6f4 95b4
000001b0: 9b68 14b5 0b92 c235 0757 8436 091f b534
000001c0: a62e 99b5 7f43 0834 0d1c c434 601d 8cb4
000001d0: 7ada 42b5 4962 0235 cf25 6335 03b5 2535
000001e0: 8d4c 7e34 3d55 3d34 7f19 fe34 df01 05b4
000001f0: 473b ecb4 55aa ceb1 ce52 8ab5 f89a d134
