test/dummy-chronos-model/model.safetensors (safetensors, 111576 bytes, 28 tensors)

decoder.block.0.layer.0.SelfAttention.k.weight f4 [16, 64]
0.007232666 -0.0034637451 -0.009887695 0.0040893555 0.0020446777 0.005126953 0.003967285 0.016235352
0.0039978027 -0.01373291 -0.007171631 -0.0069274902 0.014770508 -0.0045166016 -0.0018005371 -0.0021514893
0.011047363 -0.0034484863 -0.0030822754 -0.0026855469 0.0030059814 -0.0018157959 0.0008659363 0.0037994385
0.0024108887 0.013061523 -0.0014648438 -0.008972168 0.001121521 0.0073547363 0.00491333 -0.0017471313
0.0018997192 0.006713867 -0.0036010742 -0.007171631 -0.0019683838 0.015136719 0.0027160645 0.0022888184
0.0057678223 0.003189087 -0.0056152344 -0.0065612793 0.0016098022 -0.0043945312 -0.007873535 -0.014343262
0.00970459 -0.000705719 0.013549805 0.00045585632 -0.0032806396 -0.00970459 0.0006790161 -0.0032806396
-0.0026397705 0.0036621094 -0.006134033 -0.0087890625 -0.000667572 -0.0024261475 0.00017642975 0.0012741089
0.0027770996 -0.0012512207 0.0012054443 0.006500244 -0.003189087 -0.0015258789 0.009643555 -0.008544922
-0.0035705566 -0.0025024414 0.0017166138 0.0078125 0.0061950684 0.00046157837 -0.0038146973 -0.0038452148
0.0053710938 0.00680542 -0.0061035156 0.0056152344 -0.0042419434 0.0019683838 0.005584717 -0.0009536743
0.002670288 0.0077819824 -0.0011520386 -0.0010223389 -0.0024719238 0.010070801 -0.0016403198 -0.0031433105
-0.002532959 0.0009841919 -0.011169434 0.0002708435 0.002822876 0.004547119 -0.004760742 -0.0068969727
0.005279541 -0.007659912 -0.00019454956 -0.0015716553 0.0056152344 -0.0025482178 0.007019043 0.0011825562
0.0047302246 0.009643555 0.001121521 0.000415802 -0.0010223389 -0.0033111572 -0.009216309 -0.0058288574
0.0009498596 -0.0073242188 0.0013656616 -0.00061035156 -0.0024108887 0.0015792847 -0.0024719238 0.004119873
0.0048217773 0.0070495605 0.0019683838 0.0069885254 -0.0064697266 0.015625 -0.004119873 -0.0028076172
0.0017929077 5.221367e-05 0.004852295 -0.011474609 -0.007232666 -0.0024719238 -0.0073547363 0.009216309
-0.00045776367 0.008972168 0.0031433105 0.00049972534 0.00017166138 0.0019302368 -0.002105713 -0.006134033
0.00023174286 -0.0044555664 -0.004211426 -0.014892578 -0.0015563965 -0.000831604 -0.0019378662 -0.014038086
0.0033416748 0.0060424805 -0.010803223 0.0059814453 -0.0012359619 -0.0025939941 0.0025787354 -0.012207031
-0.0021209717 -0.008117676 0.005645752 -0.00019645691 0.0030975342 0.007537842 -0.010986328 -0.0011138916
-0.008911133 -0.006286621 -0.011779785 -0.0038909912 0.0030059814 -0.0036468506 0.016113281 0.008056641
-0.004333496 0.006164551 0.0059509277 -0.00064468384 -0.009033203 0.0017700195 -0.002822876 0.005584717
-0.010498047 0.0008468628 -0.0033874512 -0.00047302246 0.00037574768 0.006225586 0.011108398 0.008239746
0.005340576 -0.004058838 -0.008728027 -0.012145996 -0.0009613037 -0.0038146973 0.00579834 0.004852295
0.008178711 0.00028419495 -0.0046691895 -0.007598877 -0.0017700195 -0.0040893555 -0.0018692017 -0.003189087
0.008056641 -0.010009766 0.0012207031 -0.00018596649 -0.0074157715 -0.0013198853 0.006072998 -0.008117676
-0.0045166016 0.008911133 -0.0016860962 -0.005126953 0.0021209717 0.0074157715 0.004852295 -0.0065307617
0.008239746 -0.002609253 0.009765625 0.000116825104 -0.005340576 -0.001914978 0.00048446655 0.0069274902
-0.0009384155 0.011108398 0.004272461 -0.0013885498 -0.0049438477 0.010864258 0.0031738281 -0.005493164
0.000114917755 -0.010803223 -0.010803223 -0.014221191 -0.010681152 0.0014724731 0.01184082 0.0036621094
00000000: 0000 ed3b 0000 63bb 0000 22bc 0000 863b
00000010: 0000 063b 0000 a83b 0000 823b 0000 853c
00000020: 0000 833b 0000 61bc 0000 ebbb 0000 e3bb
00000030: 0000 723c 0000 94bb 0000 ecba 0000 0dbb
00000040: 0000 353c 0000 62bb 0000 4abb 0000 30bb
00000050: 0000 453b 0000 eeba 0000 633a 0000 793b
00000060: 0000 1e3b 0000 563c 0000 c0ba 0000 13bc
00000070: 0000 933a 0000 f13b 0000 a13b 0000 e5ba
00000080: 0000 f93a 0000 dc3b 0000 6cbb 0000 ebbb
00000090: 0000 01bb 0000 783c 0000 323b 0000 163b
000000a0: 0000 bd3b 0000 513b 0000 b8bb 0000 d7bb
000000b0: 0000 d33a 0000 90bb 0000 01bc 0000 6bbc
000000c0: 0000 1f3c 0000 39ba 0000 5e3c 0000 ef39
000000d0: 0000 57bb 0000 1fbc 0000 323a 0000 57bb
000000e0: 0000 2dbb 0000 703b 0000 c9bb 0000 10bc
000000f0: 0000 2fba 0000 1fbb 0000 3939 0000 a73a
00000100: 0000 363b 0000 a4ba 0000 9e3a 0000 d53b
00000110: 0000 51bb 0000 c8ba 0000 1e3c 0000 0cbc
00000120: 0000 6abb 0000 24bb 0000 e13a 0000 003c
00000130: 0000 cb3b 0000 f239 0000 7abb 0000 7cbb
00000140: 0000 b03b 0000 df3b 0000 c8bb 0000 b83b
00000150: 0000 8bbb 0000 013b 0000 b73b 0000 7aba
00000160: 0000 2f3b 0000 ff3b 0000 97ba 0000 86ba
00000170: 0000 22bb 0000 253c 0000 d7ba 0000 4ebb
00000180: 0000 26bb 0000 813a 0000 37bc 0000 8e39
00000190: 0000 393b 0000 953b 0000 9cbb 0000 e2bb
000001a0: 0000 ad3b 0000 fbbb 0000 4cb9 0000 ceba
000001b0: 0000 b83b 0000 27bb 0000 e63b 0000 9b3a
000001c0: 0000 9b3b 0000 1e3c 0000 933a 0000 da39
000001d0: 0000 86ba 0000 59bb 0000 17bc 0000 bfbb
000001e0: 0000 793a 0000 f0bb 0000 b33a 0000 20ba
000001f0: 0000 1ebb 0000 cf3a 0000 22bb 0000 873b
00000200: 0000 9e3b 0000 e73b 0000 013b 0000 e53b
00000210: 0000 d4bb 0000 803c 0000 87bb 0000 38bb
00000220: 0000 eb3a 0000 5b38 0000 9f3b 0000 3cbc
00000230: 0000 edbb 0000 22bb 0000 f1bb 0000 173c
00000240: 0000 f0b9 0000 133c 0000 4e3b 0000 033a
00000250: 0000 3439 0000 fd3a 0000 0abb 0000 c9bb
00000260: 0000 7339 0000 92bb 0000 8abb 0000 74bc
00000270: 0000 ccba 0000 5aba 0000 feba 0000 66bc
00000280: 0000 5b3b 0000 c63b 0000 31bc 0000 c43b
00000290: 0000 a2ba 0000 2abb 0000 293b 0000 48bc
000002a0: 0000 0bbb 0000 05bc 0000 b93b 0000 4eb9
000002b0: 0000 4b3b 0000 f73b 0000 34bc 0000 92ba
000002c0: 0000 12bc 0000 cebb 0000 41bc 0000 7fbb
000002d0: 0000 453b 0000 6fbb 0000 843c 0000 043c
000002e0: 0000 8ebb 0000 ca3b 0000 c33b 0000 29ba
000002f0: 0000 14bc 0000 e83a 0000 39bb 0000 b73b
00000300: 0000 2cbc 0000 5e3a 0000 5ebb 0000 f8b9
00000310: 0000 c539 0000 cc3b 0000 363c 0000 073c
00000320: 0000 af3b 0000 85bb 0000 0fbc 0000 47bc
00000330: 0000 7cba 0000 7abb 0000 be3b 0000 9f3b
00000340: 0000 063c 0000 9539 0000 99bb 0000 f9bb
00000350: 0000 e8ba 0000 86bb 0000 f5ba 0000 51bb
00000360: 0000 043c 0000 24bc 0000 a03a 0000 43b9
00000370: 0000 f3bb 0000 adba 0000 c73b 0000 05bc
00000380: 0000 94bb 0000 123c 0000 ddba 0000 a8bb
00000390: 0000 0b3b 0000 f33b 0000 9f3b 0000 d6bb
000003a0: 0000 073c 0000 2bbb 0000 203c 0000 f538
000003b0: 0000 afbb 0000 fbba 0000 fe39 0000 e33b
000003c0: 0000 76ba 0000 363c 0000 8c3b 0000 b6ba
000003d0: 0000 a2bb 0000 323c 0000 503b 0000 b4bb
000003e0: 0000 f138 0000 31bc 0000 31bc 0000 69bc
000003f0: 0000 2fbc 0000 c13a 0000 423c 0000 703b

decoder.block.0.layer.0.SelfAttention.o.weight f4 [64, 16]
0.0034637451 0.016235352 0.010253906 0.0025634766 -0.00011062622 -0.007873535 -0.021362305 0.016113281
0.029663086 0.004486084 0.027709961 0.009643555 -0.002670288 -0.006134033 -0.00039672852 0.016357422
0.02331543 0.008605957 -0.00579834 -0.0034942627 0.017700195 -0.009399414 0.016601562 -0.024414062
-0.018798828 -0.0035552979 -0.010375977 0.0078125 0.0007972717 0.0027313232 -0.02734375 -0.0015106201
0.005493164 -0.0040283203 0.011657715 0.0011520386 -0.032958984 0.006500244 0.008056641 -0.00034332275
0.0119018555 0.013549805 0.012390137 0.004272461 0.011108398 -0.018310547 -0.010681152 0.0011138916
0.004119873 0.0126953125 0.01171875 -0.00060272217 0.00062942505 -0.00015544891 -0.0065612793 -0.0018386841
-0.017578125 -0.0068359375 0.014160156 -0.013916016 -0.010498047 0.015075684 0.006378174 0.0119018555
0.0047302246 -0.013244629 -0.013977051 -0.010681152 0.007873535 -0.024169922 0.01184082 -0.0040893555
-0.01928711 0.014587402 -0.013977051 0.0050354004 -0.017578125 -0.0018081665 0.021606445 0.012145996
0.013549805 0.008239746 -0.01586914 0.009399414 0.0044555664 0.015563965 -0.006958008 -0.02368164
-0.001953125 0.0028076172 0.025146484 0.006500244 -0.0087890625 -0.01361084 -0.0002632141 -0.018554688
-0.018676758 -0.0087890625 0.017211914 -0.015014648 -0.012084961 -0.0023651123 0.0054016113 0.015319824
0.0029907227 0.00046730042 -0.022216797 -0.012390137 -0.0030212402 -0.01159668 0.005340576 0.0012817383
0.01184082 0.003540039 -0.0036010742 -0.02319336 -0.0067749023 -0.0115356445 0.0037841797 -0.02709961
-0.0072631836 0.002609253 0.009521484 -0.013305664 0.015380859 0.014892578 0.00013446808 -0.008544922
-0.005004883 -0.020019531 -0.0119018555 0.0019683838 0.021972656 -0.0020446777 -0.0069274902 -0.016113281
-0.0038909912 0.010131836 -0.011352539 0.004699707 0.011169434 -0.026855469 -0.0052490234 0.0077819824
-0.0032043457 0.013061523 0.009887695 -0.025146484 0.009460449 0.026611328 -0.0015335083 0.00049591064
0.0017242432 0.0061035156 0.0054626465 -0.00040245056 -0.0070495605 0.006072998 -0.016845703 -0.014892578
0.010803223 0.006134033 -0.017578125 0.0010757446 0.010925293 -0.010375977 0.010925293 -0.008483887
-0.021972656 0.0126953125 0.0064086914 0.0005722046 -0.005004883 -0.028442383 -0.02734375 -0.012878418
0.00091171265 0.008483887 -0.00982666 0.016723633 0.016113281 -0.0027923584 0.016113281 -0.0033569336
0.019897461 -0.012573242 0.005645752 0.017456055 -0.0010299683 -0.0062561035 0.028198242 0.0045776367
-0.01159668 -0.00038337708 -0.00012683868 0.0051574707 0.017944336 -0.026611328 -0.0027313232 -0.008056641
-0.0059509277 0.0040893555 -0.010864258 0.014221191 -0.009155273 0.0138549805 -0.0004711151 -0.020019531
0.011657715 0.014099121 -0.008239746 -0.00022411346 -0.012634277 0.02355957 -0.00793457 -0.0025177002
0.00025558472 0.0016479492 -0.013305664 -0.01574707 -0.010192871 0.0016326904 -0.0020141602 0.007446289
-0.015258789 0.005004883 -0.010314941 -0.014709473 -0.007080078 -0.0051574707 0.013671875 0.016479492
0.012512207 -0.0073547363 -0.025268555 0.005493164 -0.008056641 -0.008666992 -0.008422852 -0.003540039
0.027954102 -0.013122559 -0.018066406 0.0068359375 0.010437012 -0.016235352 -0.0009384155 0.011962891
0.022705078 -0.028564453 -0.012023926 -0.0038452148 -0.008361816 0.003829956 -0.022216797 -0.0063171387
00000000: 0000 633b 0000 853c 0000 283c 0000 283b
00000010: 0000 e8b8 0000 01bc 0000 afbc 0000 843c
00000020: 0000 f33c 0000 933b 0000 e33c 0000 1e3c
00000030: 0000 2fbb 0000 c9bb 0000 d0b9 0000 863c
00000040: 0000 bf3c 0000 0d3c 0000 bebb 0000 65bb
00000050: 0000 913c 0000 1abc 0000 883c 0000 c8bc
00000060: 0000 9abc 0000 69bb 0000 2abc 0000 003c
00000070: 0000 513a 0000 333b 0000 e0bc 0000 c6ba
00000080: 0000 b43b 0000 84bb 0000 3f3c 0000 973a
00000090: 0000 07bd 0000 d53b 0000 043c 0000 b4b9
000000a0: 0000 433c 0000 5e3c 0000 4b3c 0000 8c3b
000000b0: 0000 363c 0000 96bc 0000 2fbc 0000 923a
000000c0: 0000 873b 0000 503c 0000 403c 0000 1eba
000000d0: 0000 253a 0000 23b9 0000 d7bb 0000 f1ba
000000e0: 0000 90bc 0000 e0bb 0000 683c 0000 64bc
000000f0: 0000 2cbc 0000 773c 0000 d13b 0000 433c
00000100: 0000 9b3b 0000 59bc 0000 65bc 0000 2fbc
00000110: 0000 013c 0000 c6bc 0000 423c 0000 86bb
00000120: 0000 9ebc 0000 6f3c 0000 65bc 0000 a53b
00000130: 0000 90bc 0000 edba 0000 b13c 0000 473c
00000140: 0000 5e3c 0000 073c 0000 82bc 0000 1a3c
00000150: 0000 923b 0000 7f3c 0000 e4bb 0000 c2bc
00000160: 0000 00bb 0000 383b 0000 ce3c 0000 d53b
00000170: 0000 10bc 0000 5fbc 0000 8ab9 0000 98bc
00000180: 0000 99bc 0000 10bc 0000 8d3c 0000 76bc
00000190: 0000 46bc 0000 1bbb 0000 b13b 0000 7b3c
000001a0: 0000 443b 0000 f539 0000 b6bc 0000 4bbc
000001b0: 0000 46bb 0000 3ebc 0000 af3b 0000 a83a
000001c0: 0000 423c 0000 683b 0000 6cbb 0000 bebc
000001d0: 0000 debb 0000 3dbc 0000 783b 0000 debc
000001e0: 0000 eebb 0000 2b3b 0000 1c3c 0000 5abc
000001f0: 0000 7c3c 0000 743c 0000 0d39 0000 0cbc
00000200: 0000 a4bb 0000 a4bc 0000 43bc 0000 013b
00000210: 0000 b43c 0000 06bb 0000 e3bb 0000 84bc
00000220: 0000 7fbb 0000 263c 0000 3abc 0000 9a3b
00000230: 0000 373c 0000 dcbc 0000 acbb 0000 ff3b
00000240: 0000 52bb 0000 563c 0000 223c 0000 cebc
00000250: 0000 1b3c 0000 da3c 0000 c9ba 0000 023a
00000260: 0000 e23a 0000 c83b 0000 b33b 0000 d3b9
00000270: 0000 e7bb 0000 c73b 0000 8abc 0000 74bc
00000280: 0000 313c 0000 c93b 0000 90bc 0000 8d3a
00000290: 0000 333c 0000 2abc 0000 333c 0000 0bbc
000002a0: 0000 b4bc 0000 503c 0000 d23b 0000 163a
000002b0: 0000 a4bb 0000 e9bc 0000 e0bc 0000 53bc
000002c0: 0000 6f3a 0000 0b3c 0000 21bc 0000 893c
000002d0: 0000 843c 0000 37bb 0000 843c 0000 5cbb
000002e0: 0000 a33c 0000 4ebc 0000 b93b 0000 8f3c
000002f0: 0000 87ba 0000 cdbb 0000 e73c 0000 963b
00000300: 0000 3ebc 0000 c9b9 0000 05b9 0000 a93b
00000310: 0000 933c 0000 dabc 0000 33bb 0000 04bc
00000320: 0000 c3bb 0000 863b 0000 32bc 0000 693c
00000330: 0000 16bc 0000 633c 0000 f7b9 0000 a4bc
00000340: 0000 3f3c 0000 673c 0000 07bc 0000 6bb9
00000350: 0000 4fbc 0000 c13c 0000 02bc 0000 25bb
00000360: 0000 8639 0000 d83a 0000 5abc 0000 81bc
00000370: 0000 27bc 0000 d63a 0000 04bb 0000 f43b
00000380: 0000 7abc 0000 a43b 0000 29bc 0000 71bc
00000390: 0000 e8bb 0000 a9bb 0000 603c 0000 873c
000003a0: 0000 4d3c 0000 f1bb 0000 cfbc 0000 b43b
000003b0: 0000 04bc 0000 0ebc 0000 0abc 0000 68bb
000003c0: 0000 e53c 0000 57bc 0000 94bc 0000 e03b
000003d0: 0000 2b3c 0000 85bc 0000 76ba 0000 443c
000003e0: 0000 ba3c 0000 eabc 0000 45bc 0000 7cbb
000003f0: 0000 09bc 0000 7b3b 0000 b6bc 0000 cfbb

decoder.block.0.layer.0.SelfAttention.q.weight f4 [16, 64]
0.0011291504 -0.0025787354 0.00075149536 0.00049972534 -0.0015335083 0.0001206398 0.0014038086 -0.0012741089
-0.0008163452 0.0013275146 -0.0010375977 0.0012664795 0.0022125244 0.0008583069 -0.0017547607 -3.552437e-05
0.0012283325 0.0014038086 0.00041770935 0.0017166138 0.00093460083 -0.00074386597 -0.0002193451 -0.00340271
0.0012283325 -0.00027656555 0.0008201599 -0.00051498413 -0.0004749298 0.00021266937 0.0023651123 0.0015487671
-0.0015640259 -0.0012283325 -0.0016098022 -0.0008239746 0.0014419556 -0.0018920898 -0.0030822754 0.0010604858
0.0009765625 0.00019645691 -0.00093078613 -0.00074768066 0.00031089783 0.0036621094 -0.0021820068 -0.001914978
0.0005569458 -0.0016098022 -0.00030708313 -0.0010528564 -0.0009384155 0.0018539429 -0.0012664795 0.0012130737
-0.00059890747 -0.0024108887 0.0018081665 0.00044631958 -0.00026130676 0.00062942505 -0.00023937225 -0.0008163452
0.00038146973 0.0018234253 0.000869751 0.0004272461 -0.0026245117 -0.0025482178 0.0004272461 0.0030059814
-0.00021362305 0.0029754639 -0.0010147095 0.0009689331 -0.00042152405 -0.0022583008 0.0014877319 -0.0009651184
-0.0011062622 0.0005264282 -0.00049209595 -0.0005569458 -0.00017356873 0.000831604 -0.00019550323 0.0005912781
-0.0012664795 0.0023040771 0.00026130676 -0.0012130737 -0.0011138916 -0.00049209595 -0.00016880035 -0.00060653687
0.0036621094 0.0015640259 0.00013923645 -0.00074768066 -0.001739502 0.0013809204 -4.2676926e-05 0.0005264282
-0.0016784668 0.00031280518 -0.0003681183 -0.0007247925 -0.00044822693 0.0027008057 0.001083374 0.0021362305
0.0034179688 0.00022697449 0.0001001358 0.0015182495 -0.00028800964 -0.0019378662 -0.0028381348 0.0033416748
-0.00090408325 0.0011138916 -0.0017166138 2.6583672e-05 0.0015411377 -0.00031280518 0.0002040863 0.0018157959
-0.0008010864 0.0024414062 0.00064849854 -0.0016937256 -8.583069e-05 -0.0011520386 0.00031661987 -0.001876831
0.0021972656 0.0006942749 -0.0028839111 0.0014648438 0.0034332275 9.8228455e-05 0.000541687 -0.001625061
-0.0019073486 -0.0014572144 0.00031471252 -0.001449585 0.0011978149 0.0027618408 -0.0036010742 -0.0016860962
0.0017623901 0.0020446777 -0.000831604 -0.0028533936 0.00026893616 0.00025749207 0.0016403198 0.0012435913
-0.0016174316 -0.00074386597 -0.0022583008 0.00063323975 -0.0013504028 -0.00064849854 0.00041007996 0.0013809204
-0.0006713867 0.00025367737 -0.0023040771 -0.001449585 -0.00026130676 -0.0027770996 -0.00020980835 0.0009918213
0.0012435913 -0.0029296875 -0.0036773682 0.0027160645 0.00033950806 -0.0010681152 -0.00060272217 0.001663208
-0.00036239624 0.0007362366 -0.001335144 -0.0012130737 0.0028381348 -0.0015029907 -0.0013046265 0.0010528564
0.0021972656 -0.0021514893 6.914139e-05 0.0038604736 0.00032234192 -0.0018539429 0.0005760193 0.00031280518
0.0018997192 0.0011138916 -0.0013122559 0.0024719238 -0.00024604797 -0.0038604736 0.0015563965 0.0012512207
0.0002861023 0.001335144 0.0014572144 -0.0014266968 -0.0018005371 0.0008506775 -0.0021362305 0.0017089844
-0.0030670166 0.00062561035 -0.00091934204 0.0023345947 -0.00092315674 -1.6331673e-05 -0.005126953 -0.0013809204
-0.0019836426 -0.0056762695 0.0004272461 0.0014572144 -0.00093460083 -4.2438507e-05 -7.9631805e-05 0.0011901855
0.00089645386 0.00013065338 -0.0014724731 -0.00063705444 0.0007171631 0.00043296814 -0.0024414062 0.0010299683
-0.0014190674 0.0006828308 -0.0006599426 0.001625061 -0.00020122528 0.00091552734 -0.0018081665 -0.0027008057
0.00064849854 -0.00048065186 -0.0030822754 0.001914978 0.00062942505 -0.0012207031 -0.0029296875 -0.0004348755
00000000: 0000 943a 0000 29bb 0000 453a 0000 033a
00000010: 0000 c9ba 0000 fd38 0000 b83a 0000 a7ba
00000020: 0000 56ba 0000 ae3a 0000 88ba 0000 a63a
00000030: 0000 113b 0000 613a 0000 e6ba 0000 15b8
00000040: 0000 a13a 0000 b83a 0000 db39 0000 e13a
00000050: 0000 753a 0000 43ba 0000 66b9 0000 5fbb
00000060: 0000 a13a 0000 91b9 0000 573a 0000 07ba
00000070: 0000 f9b9 0000 5f39 0000 1b3b 0000 cb3a
00000080: 0000 cdba 0000 a1ba 0000 d3ba 0000 58ba
00000090: 0000 bd3a 0000 f8ba 0000 4abb 0000 8b3a
000000a0: 0000 803a 0000 4e39 0000 74ba 0000 44ba
000000b0: 0000 a339 0000 703b 0000 0fbb 0000 fbba
000000c0: 0000 123a 0000 d3ba 0000 a1b9 0000 8aba
000000d0: 0000 76ba 0000 f33a 0000 a6ba 0000 9f3a
000000e0: 0000 1dba 0000 1ebb 0000 ed3a 0000 ea39
000000f0: 0000 89b9 0000 253a 0000 7bb9 0000 56ba
00000100: 0000 c839 0000 ef3a 0000 643a 0000 e039
00000110: 0000 2cbb 0000 27bb 0000 e039 0000 453b
00000120: 0000 60b9 0000 433b 0000 85ba 0000 7e3a
00000130: 0000 ddb9 0000 14bb 0000 c33a 0000 7dba
00000140: 0000 91ba 0000 0a3a 0000 01ba 0000 12ba
00000150: 0000 36b9 0000 5a3a 0000 4db9 0000 1b3a
00000160: 0000 a6ba 0000 173b 0000 8939 0000 9fba
00000170: 0000 92ba 0000 01ba 0000 31b9 0000 1fba
00000180: 0000 703b 0000 cd3a 0000 1239 0000 44ba
00000190: 0000 e4ba 0000 b53a 0000 33b8 0000 0a3a
000001a0: 0000 dcba 0000 a439 0000 c1b9 0000 3eba
000001b0: 0000 ebb9 0000 313b 0000 8e3a 0000 0c3b
000001c0: 0000 603b 0000 6e39 0000 d238 0000 c73a
000001d0: 0000 97b9 0000 feba 0000 3abb 0000 5b3b
000001e0: 0000 6dba 0000 923a 0000 e1ba 0000 df37
000001f0: 0000 ca3a 0000 a4b9 0000 5639 0000 ee3a
00000200: 0000 52ba 0000 203b 0000 2a3a 0000 deba
00000210: 0000 b4b8 0000 97ba 0000 a639 0000 f6ba
00000220: 0000 103b 0000 363a 0000 3dbb 0000 c03a
00000230: 0000 613b 0000 ce38 0000 0e3a 0000 d5ba
00000240: 0000 faba 0000 bfba 0000 a539 0000 beba
00000250: 0000 9d3a 0000 353b 0000 6cbb 0000 ddba
00000260: 0000 e73a 0000 063b 0000 5aba 0000 3bbb
00000270: 0000 8d39 0000 8739 0000 d73a 0000 a33a
00000280: 0000 d4ba 0000 43ba 0000 14bb 0000 263a
00000290: 0000 b1ba 0000 2aba 0000 d739 0000 b53a
000002a0: 0000 30ba 0000 8539 0000 17bb 0000 beba
000002b0: 0000 89b9 0000 36bb 0000 5cb9 0000 823a
000002c0: 0000 a33a 0000 40bb 0000 71bb 0000 323b
000002d0: 0000 b239 0000 8cba 0000 1eba 0000 da3a
000002e0: 0000 beb9 0000 413a 0000 afba 0000 9fba
000002f0: 0000 3a3b 0000 c5ba 0000 abba 0000 8a3a
00000300: 0000 103b 0000 0dbb 0000 9138 0000 7d3b
00000310: 0000 a939 0000 f3ba 0000 173a 0000 a439
00000320: 0000 f93a 0000 923a 0000 acba 0000 223b
00000330: 0000 81b9 0000 7dbb 0000 cc3a 0000 a43a
00000340: 0000 9639 0000 af3a 0000 bf3a 0000 bbba
00000350: 0000 ecba 0000 5f3a 0000 0cbb 0000 e03a
00000360: 0000 49bb 0000 243a 0000 71ba 0000 193b
00000370: 0000 72ba 0000 89b7 0000 a8bb 0000 b5ba
00000380: 0000 02bb 0000 babb 0000 e039 0000 bf3a
00000390: 0000 75ba 0000 32b8 0000 a7b8 0000 9c3a
000003a0: 0000 6b3a 0000 0939 0000 c1ba 0000 27ba
000003b0: 0000 3c3a 0000 e339 0000 20bb 0000 873a
000003c0: 0000 baba 0000 333a 0000 2dba 0000 d53a
000003d0: 0000 53b9 0000 703a 0000 edba 0000 31bb
000003e0: 0000 2a3a 0000 fcb9 0000 4abb 0000 fb3a
000003f0: 0000 253a 0000 a0ba 0000 40bb 0000 e4b9

decoder.block.0.layer.0.SelfAttention.relative_attention_bias.weight f4 [32, 1]
-0.0058288574 -0.0005912781 -0.00012683868 -0.00793457 0.0057678223 0.006164551 -0.003967285 0.0027923584
0.011352539 -0.0035552979 -0.0074157715 0.0049743652 -0.007598877 -0.0032958984 0.0033569336 0.01550293
0.0020751953 -0.0028839111 0.0048828125 0.00970459 0.003616333 -0.009277344 0.0030670166 0.012023926
0.013000488 -0.006378174 -0.0033111572 -0.009521484 4.2915344e-05 -0.0095825195 0.0043945312 0.0035858154
00000000: 0000 bfbb 0000 1bba 0000 05b9 0000 02bc
00000010: 0000 bd3b 0000 ca3b 0000 82bb 0000 373b
00000020: 0000 3a3c 0000 69bb 0000 f3bb 0000 a33b
00000030: 0000 f9bb 0000 58bb 0000 5c3b 0000 7e3c
00000040: 0000 083b 0000 3dbb 0000 a03b 0000 1f3c
00000050: 0000 6d3b 0000 18bc 0000 493b 0000 453c
00000060: 0000 553c 0000 d1bb 0000 59bb 0000 1cbc
00000070: 0000 3438 0000 1dbc 0000 903b 0000 6b3b

decoder.block.0.layer.0.SelfAttention.v.weight f4 [16, 64]
-0.0014648438 -0.0017547607 0.005584717 -0.0060424805 -0.0005836487 -0.005706787 -0.008605957 0.014465332
0.0028686523 -0.008544922 -0.0064697266 -0.001083374 -0.010437012 -0.016967773 0.00063705444 0.0028381348
0.0065307617 0.0067443848 0.0008735657 -0.0029754639 -0.004425049 -0.0007247925 0.002105713 -0.0058288574
-0.0010528564 -0.0023956299 0.0053710938 4.6014786e-05 0.0056762695 0.017700195 0.00046157837 -0.009765625
0.0028533936 -0.010131836 0.0012741089 0.007537842 0.0028381348 0.0043640137 -0.0021362305 0.016235352
0.010437012 -0.0077819824 -0.0065612793 5.340576e-05 0.0037994385 -0.01159668 0.00027656555 -0.009521484
-0.014709473 0.0087890625 0.005706787 -0.010559082 0.0009994507 -0.0045776367 -0.0013427734 0.0068969727
-0.009033203 0.0038757324 -0.003829956 -0.00793457 -0.003479004 -0.0066833496 -0.0050964355 0.008056641
-0.004486084 0.0048828125 0.003829956 0.00032234192 0.0047912598 0.003967285 0.009887695 0.0052490234
-0.0024719238 -0.0069885254 -0.009338379 0.0046691895 0.008544922 0.0055236816 -0.009155273 -0.009338379
-0.007873535 0.010986328 0.008605957 0.0024719238 -0.0017929077 -0.0017242432 0.0008430481 -0.0050354004
-0.0001707077 -0.006378174 0.0015945435 -0.0064086914 0.005706787 -0.0025787354 -0.0047302246 -0.006164551
-0.004486084 -0.0028076172 0.018310547 -0.009033203 0.0070495605 -0.0016937256 -0.007446289 -0.0016784668
0.004547119 0.0038452148 -0.0063476562 0.0035095215 0.0014877319 0.0050354004 -0.0045166016 -0.005279541
-0.010803223 4.1484833e-05 -0.0029907227 0.00042533875 0.001411438 -0.0107421875 -0.0107421875 -0.0066833496
-0.0069274902 -0.0051574707 0.004638672 -0.0040283203 -0.0012817383 -0.008300781 0.011352539 -0.0039978027
0.0134887695 -0.013916016 -0.010925293 0.008117676 -0.010803223 -0.0034484863 0.008300781 -0.009216309
-0.006011963 0.0052490234 0.010681152 0.0005569458 0.01159668 0.0032653809 0.0006637573 0.0024108887
-0.004760742 0.001083374 -0.008972168 -0.0034942627 0.0035095215 -0.0017547607 0.012512207 -0.011779785
-0.0071411133 0.006958008 -0.0071411133 -0.012451172 -0.0028839111 0.0047912598 0.011291504 -0.0056152344
-0.0034942627 0.016357422 -0.006164551 -0.0011672974 0.010803223 0.005645752 -0.0043640137 -0.0040893555
-0.007232666 0.008850098 -0.0054626465 0.008117676 0.0027618408 -0.002243042 0.003479004 0.013183594
-7.343292e-05 -0.0044555664 -0.004058838 -0.0009422302 0.0027160645 -0.0011749268 4.1246414e-05 0.0027160645
0.006439209 -0.002166748 -0.008422852 0.0023498535 -0.0024871826 0.009643555 0.006286621 -0.0052490234
-0.004333496 0.0056762695 0.0048217773 -0.006439209 -0.0054016113 0.0023498535 0.0014266968 0.01953125
0.0030212402 0.001159668 0.004272461 0.007537842 0.0025177002 -0.008483887 -0.012451172 0.0069274902
-0.0014801025 0.018676758 0.018188477 -0.008056641 -0.017944336 0.011413574 -0.013244629 -0.01171875
0.0026245117 -0.008300781 0.008361816 0.00289917 0.002380371 0.009277344 0.01361084 -0.001449585
0.004058838 -0.004760742 -0.003112793 0.0032348633 -0.0009994507 -0.009643555 0.0030517578 -0.015136719
-0.004425049 -0.014587402 -0.008483887 -0.004852295 0.0017852783 -0.0072021484 -0.004486084 -0.009094238
0.009155273 0.018432617 -0.0067443848 -0.008422852 0.01373291 0.0038909912 0.008850098 -0.0018920898
-0.00018119812 0.008483887 -0.0044555664 -0.006378174 0.005432129 0.003692627 -0.002029419 0.0051879883
00000000: 0000 c0ba 0000 e6ba 0000 b73b 0000 c6bb
00000010: 0000 19ba 0000 bbbb 0000 0dbc 0000 6d3c
00000020: 0000 3c3b 0000 0cbc 0000 d4bb 0000 8eba
00000030: 0000 2bbc 0000 8bbc 0000 273a 0000 3a3b
00000040: 0000 d63b 0000 dd3b 0000 653a 0000 43bb
00000050: 0000 91bb 0000 3eba 0000 0a3b 0000 bfbb
00000060: 0000 8aba 0000 1dbb 0000 b03b 0000 4138
00000070: 0000 ba3b 0000 913c 0000 f239 0000 20bc
00000080: 0000 3b3b 0000 26bc 0000 a73a 0000 f73b
00000090: 0000 3a3b 0000 8f3b 0000 0cbb 0000 853c
000000a0: 0000 2b3c 0000 ffbb 0000 d7bb 0000 6038
000000b0: 0000 793b 0000 3ebc 0000 9139 0000 1cbc
000000c0: 0000 71bc 0000 103c 0000 bb3b 0000 2dbc
000000d0: 0000 833a 0000 96bb 0000 b0ba 0000 e23b
000000e0: 0000 14bc 0000 7e3b 0000 7bbb 0000 02bc
000000f0: 0000 64bb 0000 dbbb 0000 a7bb 0000 043c
00000100: 0000 93bb 0000 a03b 0000 7b3b 0000 a939
00000110: 0000 9d3b 0000 823b 0000 223c 0000 ac3b
00000120: 0000 22bb 0000 e5bb 0000 19bc 0000 993b
00000130: 0000 0c3c 0000 b53b 0000 16bc 0000 19bc
00000140: 0000 01bc 0000 343c 0000 0d3c 0000 223b
00000150: 0000 ebba 0000 e2ba 0000 5d3a 0000 a5bb
00000160: 0000 33b9 0000 d1bb 0000 d13a 0000 d2bb
00000170: 0000 bb3b 0000 29bb 0000 9bbb 0000 cabb
00000180: 0000 93bb 0000 38bb 0000 963c 0000 14bc
00000190: 0000 e73b 0000 deba 0000 f4bb 0000 dcba
000001a0: 0000 953b 0000 7c3b 0000 d0bb 0000 663b
000001b0: 0000 c33a 0000 a53b 0000 94bb 0000 adbb
000001c0: 0000 31bc 0000 2e38 0000 44bb 0000 df39
000001d0: 0000 b93a 0000 30bc 0000 30bc 0000 dbbb
000001e0: 0000 e3bb 0000 a9bb 0000 983b 0000 84bb
000001f0: 0000 a8ba 0000 08bc 0000 3a3c 0000 83bb
00000200: 0000 5d3c 0000 64bc 0000 33bc 0000 053c
00000210: 0000 31bc 0000 62bb 0000 083c 0000 17bc
00000220: 0000 c5bb 0000 ac3b 0000 2f3c 0000 123a
00000230: 0000 3e3c 0000 563b 0000 2e3a 0000 1e3b
00000240: 0000 9cbb 0000 8e3a 0000 13bc 0000 65bb
00000250: 0000 663b 0000 e6ba 0000 4d3c 0000 41bc
00000260: 0000 eabb 0000 e43b 0000 eabb 0000 4cbc
00000270: 0000 3dbb 0000 9d3b 0000 393c 0000 b8bb
00000280: 0000 65bb 0000 863c 0000 cabb 0000 99ba
00000290: 0000 313c 0000 b93b 0000 8fbb 0000 86bb
000002a0: 0000 edbb 0000 113c 0000 b3bb 0000 053c
000002b0: 0000 353b 0000 13bb 0000 643b 0000 583c
000002c0: 0000 9ab8 0000 92bb 0000 85bb 0000 77ba
000002d0: 0000 323b 0000 9aba 0000 2d38 0000 323b
000002e0: 0000 d33b 0000 0ebb 0000 0abc 0000 1a3b
000002f0: 0000 23bb 0000 1e3c 0000 ce3b 0000 acbb
00000300: 0000 8ebb 0000 ba3b 0000 9e3b 0000 d3bb
00000310: 0000 b1bb 0000 1a3b 0000 bb3a 0000 a03c
00000320: 0000 463b 0000 983a 0000 8c3b 0000 f73b
00000330: 0000 253b 0000 0bbc 0000 4cbc 0000 e33b
00000340: 0000 c2ba 0000 993c 0000 953c 0000 04bc
00000350: 0000 93bc 0000 3b3c 0000 59bc 0000 40bc
00000360: 0000 2c3b 0000 08bc 0000 093c 0000 3e3b
00000370: 0000 1c3b 0000 183c 0000 5f3c 0000 beba
00000380: 0000 853b 0000 9cbb 0000 4cbb 0000 543b
00000390: 0000 83ba 0000 1ebc 0000 483b 0000 78bc
000003a0: 0000 91bb 0000 6fbc 0000 0bbc 0000 9fbb
000003b0: 0000 ea3a 0000 ecbb 0000 93bb 0000 15bc
000003c0: 0000 163c 0000 973c 0000 ddbb 0000 0abc
000003d0: 0000 613c 0000 7f3b 0000 113c 0000 f8ba
000003e0: 0000 3eb9 0000 0b3c 0000 92bb 0000 d1bb
000003f0: 0000 b23b 0000 723b 0000 05bb 0000 aa3b

decoder.block.0.layer.0.layer_norm.weight f4 [64]
0.052978516 0.051513672 0.05444336 0.049560547 0.052490234 0.0546875 0.055419922 0.055419922
0.05029297 0.049072266 0.05078125 0.050048828 0.047607422 0.055419922 0.05517578 0.04736328
0.05493164 0.051757812 0.052490234 0.049316406 0.052246094 0.05493164 0.05053711 0.05517578
0.05493164 0.05444336 0.052001953 0.05493164 0.05517578 0.055419922 0.055419922 0.05517578
0.055419922 0.05517578 0.048583984 0.048828125 0.05517578 0.045410156 0.044433594 0.04638672
0.052246094 0.05493164 0.052734375 0.055419922 0.04638672 0.055419922 0.05053711 0.05078125
0.05517578 0.05517578 0.047607422 0.055419922 0.047851562 0.05517578 0.05102539 0.052490234
0.055419922 0.055419922 0.05493164 0.047607422 0.046142578 0.052734375 0.045410156 0.05444336
00000000: 0000 593d 0000 533d 0000 5f3d 0000 4b3d
00000010: 0000 573d 0000 603d 0000 633d 0000 633d
00000020: 0000 4e3d 0000 493d 0000 503d 0000 4d3d
00000030: 0000 433d 0000 633d 0000 623d 0000 423d
00000040: 0000 613d 0000 543d 0000 573d 0000 4a3d
00000050: 0000 563d 0000 613d 0000 4f3d 0000 623d
00000060: 0000 613d 0000 5f3d 0000 553d 0000 613d
00000070: 0000 623d 0000 633d 0000 633d 0000 623d
00000080: 0000 633d 0000 623d 0000 473d 0000 483d
00000090: 0000 623d 0000 3a3d 0000 363d 0000 3e3d
000000a0: 0000 563d 0000 613d 0000 583d 0000 633d
000000b0: 0000 3e3d 0000 633d 0000 4f3d 0000 503d
000000c0: 0000 623d 0000 623d 0000 433d 0000 633d
000000d0: 0000 443d 0000 623d 0000 513d 0000 573d
000000e0: 0000 633d 0000 633d 0000 613d 0000 433d
000000f0: 0000 3d3d 0000 583d 0000 3a3d 0000 5f3d

decoder.block.0.layer.1.EncDecAttention.k.weight f4 [16, 64]
0.008422852 -0.011779785 -0.00030136108 0.0023040771 -0.006652832 0.0007019043 0.0012512207 -0.0043945312
-0.008422852 -0.0014266968 0.0033569336 -0.0017623901 -0.0027770996 0.0031280518 0.002822876 0.005126953
-0.002319336 -0.0017700195 0.00090408325 -0.0115356445 0.0019378662 -0.006286621 -0.013427734 0.008728027
-0.00970459 0.0068969727 0.0026855469 -0.0071105957 -0.0015335083 -0.0059509277 -0.004119873 -0.00018024445
-0.00075149536 -0.0025177002 -0.005584717 0.004699707 -0.0030975342 0.0057373047 -0.01361084 0.012084961
0.0012130737 -0.0069274902 0.0022583008 0.002090454 0.008300781 -0.00031852722 -0.005493164 0.009033203
-0.005584717 -0.0018615723 -0.0058898926 -0.0025787354 0.005584717 0.0018157959 -0.00045776367 0.0046691895
0.005554199 0.008178711 0.009155273 -0.00023937225 -0.007873535 -0.018066406 0.0017089844 -0.0026397705
-0.0008621216 0.007659912 0.012084961 -0.0042419434 -0.00064849854 -0.0054016113 0.0069274902 -0.002105713
0.0014724731 0.0019454956 -0.00793457 0.0016784668 -0.00061416626 0.0064086914 0.0043945312 0.0039978027
0.007293701 0.00048828125 -0.010620117 -0.0068359375 0.004425049 0.0018386841 -0.0033721924 -0.008117676
-0.0063476562 -0.0049743652 0.0025939941 0.005279541 0.004486084 -0.0027008057 0.0029144287 0.001663208
-0.0038909912 -0.0069274902 -0.004760742 0.012207031 -0.008666992 0.001663208 -0.008972168 0.0014266968
0.00340271 -0.0051879883 0.004119873 0.0045166016 0.0021972656 -0.004699707 -0.0054626465 0.00793457
0.0010681152 -0.0023956299 0.007019043 -0.008483887 -0.0027770996 -0.00035858154 -0.00074005127 -0.0013198853
0.0011672974 0.015075684 -0.0011367798 0.0070495605 0.0060424805 -0.008300781 -0.006500244 0.006011963
0.0063171387 -0.0068969727 -0.0023345947 0.0058288574 -0.00043296814 -0.005004883 0.004638672 -0.0030517578
0.0040893555 0.00049591064 -0.00032806396 -0.0016174316 0.0002155304 0.006591797 0.007598877 0.006591797
-0.002456665 0.0047302246 -0.0043640137 -0.0070495605 -0.005645752 0.0062561035 -0.002456665 0.0058288574
-0.008728027 0.0051574707 0.0025177002 -0.00026893616 -0.00030136108 0.0010223389 0.00029563904 -0.0069274902
0.011352539 0.013061523 -0.0015258789 -0.008850098 -0.0021514893 -0.0035858154 -0.0024108887 -0.0059814453
0.0027160645 0.003540039 0.007385254 -0.008728027 -0.0065307617 -0.0066223145 0.009399414 0.002380371
-0.00038146973 0.008178711 -0.0005493164 -0.00046157837 0.016479492 0.0015563965 -0.007232666 -0.0062561035
-0.003967285 -0.0074768066 -0.0011825562 -0.008544922 0.0043640137 -0.00340271 -0.0012283325 0.0047302246
0.010375977 -0.0033721924 -0.00048828125 -0.0071105957 -0.008361816 0.0028381348 0.009765625 0.0075683594
-0.0016708374 0.0027160645 0.0069885254 -0.0052490234 0.017456055 -0.00045013428 -0.0087890625 0.001411438
-0.0064086914 2.8967857e-05 -0.0009422302 0.012145996 -0.004058838 -0.0021209717 -0.003753662 0.005065918
0.0033111572 -0.008300781 -0.001701355 -0.0022277832 -0.0030670166 0.007537842 -0.0034637451 -0.0043029785
0.0056152344 0.0087890625 -0.0023651123 0.008666992 -0.0047912598 -0.0036621094 0.008117676 -0.0015258789
0.0021820068 -0.00390625 0.002456665 0.004547119 -0.008544922 -0.0058288574 -0.012329102 0.00079345703
-0.003967285 -0.007080078 -0.010925293 -0.0057373047 -0.0013961792 0.0065307617 -0.0014953613 -0.0018081665
2.9325485e-05 0.0027618408 0.0073242188 -0.003692627 -0.006011963 0.005340576 0.003250122 0.0033874512
00000000: 0000 0a3c 0000 41bc 0000 9eb9 0000 173b
00000010: 0000 dabb 0000 383a 0000 a43a 0000 90bb
00000020: 0000 0abc 0000 bbba 0000 5c3b 0000 e7ba
00000030: 0000 36bb 0000 4d3b 0000 393b 0000 a83b
00000040: 0000 18bb 0000 e8ba 0000 6d3a 0000 3dbc
00000050: 0000 fe3a 0000 cebb 0000 5cbc 0000 0f3c
00000060: 0000 1fbc 0000 e23b 0000 303b 0000 e9bb
00000070: 0000 c9ba 0000 c3bb 0000 87bb 0000 3db9
00000080: 0000 45ba 0000 25bb 0000 b7bb 0000 9a3b
00000090: 0000 4bbb 0000 bc3b 0000 5fbc 0000 463c
000000a0: 0000 9f3a 0000 e3bb 0000 143b 0000 093b
000000b0: 0000 083c 0000 a7b9 0000 b4bb 0000 143c
000000c0: 0000 b7bb 0000 f4ba 0000 c1bb 0000 29bb
000000d0: 0000 b73b 0000 ee3a 0000 f0b9 0000 993b
000000e0: 0000 b63b 0000 063c 0000 163c 0000 7bb9
000000f0: 0000 01bc 0000 94bc 0000 e03a 0000 2dbb
00000100: 0000 62ba 0000 fb3b 0000 463c 0000 8bbb
00000110: 0000 2aba 0000 b1bb 0000 e33b 0000 0abb
00000120: 0000 c13a 0000 ff3a 0000 02bc 0000 dc3a
00000130: 0000 21ba 0000 d23b 0000 903b 0000 833b
00000140: 0000 ef3b 0000 003a 0000 2ebc 0000 e0bb
00000150: 0000 913b 0000 f13a 0000 5dbb 0000 05bc
00000160: 0000 d0bb 0000 a3bb 0000 2a3b 0000 ad3b
00000170: 0000 933b 0000 31bb 0000 3f3b 0000 da3a
00000180: 0000 7fbb 0000 e3bb 0000 9cbb 0000 483c
00000190: 0000 0ebc 0000 da3a 0000 13bc 0000 bb3a
000001a0: 0000 5f3b 0000 aabb 0000 873b 0000 943b
000001b0: 0000 103b 0000 9abb 0000 b3bb 0000 023c
000001c0: 0000 8c3a 0000 1dbb 0000 e63b 0000 0bbc
000001d0: 0000 36bb 0000 bcb9 0000 42ba 0000 adba
000001e0: 0000 993a 0000 773c 0000 95ba 0000 e73b
000001f0: 0000 c63b 0000 08bc 0000 d5bb 0000 c53b
00000200: 0000 cf3b 0000 e2bb 0000 19bb 0000 bf3b
00000210: 0000 e3b9 0000 a4bb 0000 983b 0000 48bb
00000220: 0000 863b 0000 023a 0000 acb9 0000 d4ba
00000230: 0000 6239 0000 d83b 0000 f93b 0000 d83b
00000240: 0000 21bb 0000 9b3b 0000 8fbb 0000 e7bb
00000250: 0000 b9bb 0000 cd3b 0000 21bb 0000 bf3b
00000260: 0000 0fbc 0000 a93b 0000 253b 0000 8db9
00000270: 0000 9eb9 0000 863a 0000 9b39 0000 e3bb
00000280: 0000 3a3c 0000 563c 0000 c8ba 0000 11bc
00000290: 0000 0dbb 0000 6bbb 0000 1ebb 0000 c4bb
000002a0: 0000 323b 0000 683b 0000 f23b 0000 0fbc
000002b0: 0000 d6bb 0000 d9bb 0000 1a3c 0000 1c3b
000002c0: 0000 c8b9 0000 063c 0000 10ba 0000 f2b9
000002d0: 0000 873c 0000 cc3a 0000 edbb 0000 cdbb
000002e0: 0000 82bb 0000 f5bb 0000 9bba 0000 0cbc
000002f0: 0000 8f3b 0000 5fbb 0000 a1ba 0000 9b3b
00000300: 0000 2a3c 0000 5dbb 0000 00ba 0000 e9bb
00000310: 0000 09bc 0000 3a3b 0000 203c 0000 f83b
00000320: 0000 dbba 0000 323b 0000 e53b 0000 acbb
00000330: 0000 8f3c 0000 ecb9 0000 10bc 0000 b93a
00000340: 0000 d2bb 0000 f337 0000 77ba 0000 473c
00000350: 0000 85bb 0000 0bbb 0000 76bb 0000 a63b
00000360: 0000 593b 0000 08bc 0000 dfba 0000 12bb
00000370: 0000 49bb 0000 f73b 0000 63bb 0000 8dbb
00000380: 0000 b83b 0000 103c 0000 1bbb 0000 0e3c
00000390: 0000 9dbb 0000 70bb 0000 053c 0000 c8ba
000003a0: 0000 0f3b 0000 80bb 0000 213b 0000 953b
000003b0: 0000 0cbc 0000 bfbb 0000 4abc 0000 503a
000003c0: 0000 82bb 0000 e8bb 0000 33bc 0000 bcbb
000003d0: 0000 b7ba 0000 d63b 0000 c4ba 0000 edba
000003e0: 0000 f637 0000 353b 0000 f03b 0000 72bb
000003f0: 0000 c5bb 0000 af3b 0000 553b 0000 5e3b

decoder.block.0.layer.1.EncDecAttention.o.weight f4 [64, 16]
0.022460938 0.00029945374 0.00491333 0.0031585693 -0.012329102 0.007080078 -0.011474609 -0.024536133
-0.012878418 -0.021850586 -0.0012207031 0.0027923584 0.014892578 0.0019454956 -0.01977539 0.03857422
0.011474609 -0.009094238 -0.004486084 -0.0074768066 0.022583008 -0.014770508 -0.0065307617 0.012512207
-0.00088500977 0.00340271 0.0056762695 -0.02722168 -0.01928711 -0.026611328 -0.0107421875 0.00491333
0.0051574707 -0.004760742 -0.0064697266 0.032470703 0.019897461 -0.0074768066 0.032714844 0.0034637451
-0.00022697449 0.0013885498 -0.0052490234 -0.016845703 0.024536133 -0.0046691895 -0.0048217773 0.004211426
-0.005432129 0.007232666 -0.01977539 0.0010604858 0.00025749207 0.020996094 0.0068359375 -0.0074157715
-0.0033111572 0.0058288574 -0.006164551 0.0037384033 0.0069885254 0.014221191 0.017089844 0.021728516
0.014526367 -0.011108398 -0.022216797 -0.0087890625 -0.030517578 -0.010864258 0.0034179688 0.008178711
0.0019683838 -0.012084961 0.018432617 0.012023926 0.003829956 -0.003479004 0.014587402 0.008911133
0.013793945 -0.0075683594 0.011108398 0.030761719 0.0077819824 -0.022949219 -0.007293701 -0.0015106201
0.019897461 0.025024414 -0.00045394897 0.0026245117 -0.025512695 -0.0007209778 0.01586914 -0.0027923584
-0.007232666 0.0039367676 -0.004425049 0.0022125244 -0.013977051 0.004058838 -0.009399414 -0.009521484
-0.028686523 -0.016845703 0.01550293 0.009521484 0.024291992 -0.0018005371 0.029663086 0.010375977
0.015197754 -0.0079956055 -0.010192871 0.0024414062 -0.011413574 -0.0047302246 -0.017700195 -0.014404297
0.009338379 0.03540039 -0.003753662 -0.01361084 0.012145996 -0.021850586 0.001701355 -0.0037384033
0.022949219 -0.0008277893 0.008361816 0.01965332 0.011657715 -0.0119018555 0.015136719 -0.022216797
0.014587402 0.0024108887 -0.028198242 -0.016723633 -0.007873535 -0.015319824 -0.013427734 -0.0051574707
0.022827148 0.012939453 -0.007171631 -0.0043640137 -0.026489258 0.02368164 -0.00970459 0.022460938
-0.012939453 -0.026000977 0.005554199 0.0024108887 -0.0024261475 -0.0041503906 0.004425049 0.03173828
0.021972656 -0.0012588501 -0.00970459 0.0234375 -0.007446289 -0.014282227 0.018066406 -0.012634277
-0.008972168 0.016601562 0.01171875 -0.014221191 0.003036499 -0.020751953 0.0021972656 -0.009277344
-0.0063171387 0.008239746 0.010192871 0.0052490234 -0.007873535 0.0015563965 0.004119873 -0.0071411133
-0.011474609 0.012145996 -0.008422852 -0.0034637451 0.0038604736 -0.0050964355 0.0032196045 0.0040893555
-0.0025787354 0.008117676 0.0054016113 0.003768921 0.0099487305 0.004058838 -0.015625 0.0074157715
-0.0032196045 -0.007507324 0.0074157715 0.00051498413 -0.0005760193 0.0076904297 -0.012023926 -0.022216797
0.0008621216 0.004272461 0.0011825562 0.0074157715 -0.010375977 0.0073242188 -0.00680542 0.022216797
0.008544922 0.00090026855 -0.0027160645 0.0063476562 -0.008544922 0.010620117 0.015563965 0.011169434
0.014038086 -0.0019836426 0.008300781 -0.007080078 0.017089844 0.0023498535 0.0045776367 0.0058288574
-0.010314941 0.00076675415 0.005218506 -0.018432617 -0.00579834 -0.011291504 0.010620117 -0.0063476562
0.008544922 -0.008361816 -0.00680542 0.012207031 -0.009216309 0.005584717 0.00680542 -0.021728516
-0.022338867 -0.0052490234 -0.005493164 0.003768921 -0.0002670288 0.00027656555 0.010803223 0.0047912598
00000000: 0000 b83c 0000 9d39 0000 a13b 0000 4f3b
00000010: 0000 4abc 0000 e83b 0000 3cbc 0000 c9bc
00000020: 0000 53bc 0000 b3bc 0000 a0ba 0000 373b
00000030: 0000 743c 0000 ff3a 0000 a2bc 0000 1e3d
00000040: 0000 3c3c 0000 15bc 0000 93bb 0000 f5bb
00000050: 0000 b93c 0000 72bc 0000 d6bb 0000 4d3c
00000060: 0000 68ba 0000 5f3b 0000 ba3b 0000 dfbc
00000070: 0000 9ebc 0000 dabc 0000 30bc 0000 a13b
00000080: 0000 a93b 0000 9cbb 0000 d4bb 0000 053d
00000090: 0000 a33c 0000 f5bb 0000 063d 0000 633b
000000a0: 0000 6eb9 0000 b63a 0000 acbb 0000 8abc
000000b0: 0000 c93c 0000 99bb 0000 9ebb 0000 8a3b
000000c0: 0000 b2bb 0000 ed3b 0000 a2bc 0000 8b3a
000000d0: 0000 8739 0000 ac3c 0000 e03b 0000 f3bb
000000e0: 0000 59bb 0000 bf3b 0000 cabb 0000 753b
000000f0: 0000 e53b 0000 693c 0000 8c3c 0000 b23c
00000100: 0000 6e3c 0000 36bc 0000 b6bc 0000 10bc
00000110: 0000 fabc 0000 32bc 0000 603b 0000 063c
00000120: 0000 013b 0000 46bc 0000 973c 0000 453c
00000130: 0000 7b3b 0000 64bb 0000 6f3c 0000 123c
00000140: 0000 623c 0000 f8bb 0000 363c 0000 fc3c
00000150: 0000 ff3b 0000 bcbc 0000 efbb 0000 c6ba
00000160: 0000 a33c 0000 cd3c 0000 eeb9 0000 2c3b
00000170: 0000 d1bc 0000 3dba 0000 823c 0000 37bb
00000180: 0000 edbb 0000 813b 0000 91bb 0000 113b
00000190: 0000 65bc 0000 853b 0000 1abc 0000 1cbc
000001a0: 0000 ebbc 0000 8abc 0000 7e3c 0000 1c3c
000001b0: 0000 c73c 0000 ecba 0000 f33c 0000 2a3c
000001c0: 0000 793c 0000 03bc 0000 27bc 0000 203b
000001d0: 0000 3bbc 0000 9bbb 0000 91bc 0000 6cbc
000001e0: 0000 193c 0000 113d 0000 76bb 0000 5fbc
000001f0: 0000 473c 0000 b3bc 0000 df3a 0000 75bb
00000200: 0000 bc3c 0000 59ba 0000 093c 0000 a13c
00000210: 0000 3f3c 0000 43bc 0000 783c 0000 b6bc
00000220: 0000 6f3c 0000 1e3b 0000 e7bc 0000 89bc
00000230: 0000 01bc 0000 7bbc 0000 5cbc 0000 a9bb
00000240: 0000 bb3c 0000 543c 0000 ebbb 0000 8fbb
00000250: 0000 d9bc 0000 c23c 0000 1fbc 0000 b83c
00000260: 0000 54bc 0000 d5bc 0000 b63b 0000 1e3b
00000270: 0000 1fbb 0000 88bb 0000 913b 0000 023d
00000280: 0000 b43c 0000 a5ba 0000 1fbc 0000 c03c
00000290: 0000 f4bb 0000 6abc 0000 943c 0000 4fbc
000002a0: 0000 13bc 0000 883c 0000 403c 0000 69bc
000002b0: 0000 473b 0000 aabc 0000 103b 0000 18bc
000002c0: 0000 cfbb 0000 073c 0000 273c 0000 ac3b
000002d0: 0000 01bc 0000 cc3a 0000 873b 0000 eabb
000002e0: 0000 3cbc 0000 473c 0000 0abc 0000 63bb
000002f0: 0000 7d3b 0000 a7bb 0000 533b 0000 863b
00000300: 0000 29bb 0000 053c 0000 b13b 0000 773b
00000310: 0000 233c 0000 853b 0000 80bc 0000 f33b
00000320: 0000 53bb 0000 f6bb 0000 f33b 0000 073a
00000330: 0000 17ba 0000 fc3b 0000 45bc 0000 b6bc
00000340: 0000 623a 0000 8c3b 0000 9b3a 0000 f33b
00000350: 0000 2abc 0000 f03b 0000 dfbb 0000 b63c
00000360: 0000 0c3c 0000 6c3a 0000 32bb 0000 d03b
00000370: 0000 0cbc 0000 2e3c 0000 7f3c 0000 373c
00000380: 0000 663c 0000 02bb 0000 083c 0000 e8bb
00000390: 0000 8c3c 0000 1a3b 0000 963b 0000 bf3b
000003a0: 0000 29bc 0000 493a 0000 ab3b 0000 97bc
000003b0: 0000 bebb 0000 39bc 0000 2e3c 0000 d0bb
000003c0: 0000 0c3c 0000 09bc 0000 dfbb 0000 483c
000003d0: 0000 17bc 0000 b73b 0000 df3b 0000 b2bc
000003e0: 0000 b7bc 0000 acbb 0000 b4bb 0000 773b
000003f0: 0000 8cb9 0000 9139 0000 313c 0000 9d3b

decoder.block.0.layer.1.EncDecAttention.q.weight f4 [16, 64]
0.0011901855 -0.00021362305 0.0017623901 0.0010147095 0.00062179565 0.000415802 -0.0002975464 0.0017700195
-0.0012893677 -0.0012969971 -0.0005187988 -0.00060272217 -0.0024414062 -0.003967285 -0.0018310547 -0.0020599365
0.00078582764 -0.0024719238 -0.0020751953 0.0015106201 0.00031661987 -0.0033721924 -0.00013828278 -0.002090454
-0.0011138916 -0.00038909912 -0.0038146973 0.0010681152 -0.0005722046 0.0015640259 -0.002960205 0.0013580322
-0.00022983551 0.001083374 -0.0023498535 0.00044441223 0.0025634766 -0.0038909912 -0.00060653687 0.00025177002
-0.0002708435 -0.00041389465 -0.0010681152 5.3167343e-05 -0.0023498535 0.0015487671 0.0013656616 -0.00048828125
0.0015869141 -0.0022277832 0.00031280518 -0.0035705566 -0.00061035156 0.002029419 0.0016784668 0.0022125244
0.0021362305 4.053116e-05 0.0025939941 0.0015029907 0.0013427734 -0.0016479492 -0.0027160645 0.0010147095
-0.0016479492 -0.0019989014 -0.0033416748 0.0015182495 0.0005836487 -8.010864e-05 -2.8371811e-05 -0.0012817383
-0.00015926361 -0.0002784729 -0.0014724731 -0.00064849854 -0.00016307831 -0.0022125244 0.00045013428 -0.0020599365
-0.0023345947 -0.00075531006 0.000104904175 -0.0021362305 0.0024261475 -9.4890594e-05 -0.000111579895 0.0008239746
-0.00016498566 0.0011749268 -0.00088882446 -0.0005722046 0.0016174316 0.00025749207 0.00078964233 -0.002319336
-0.003768921 0.00060653687 0.0018920898 -0.0014572144 0.0017776489 0.0005187988 0.0011367798 -0.0018920898
-0.0015869141 -5.4359436e-05 -0.0012588501 0.004180908 0.0005607605 0.0003566742 0.00050354004 0.0022583008
-0.0013046265 -0.0006790161 -0.00030708313 0.0005187988 -0.0019302368 -0.0023040771 -0.0018005371 0.0011825562
-0.00064849854 0.000121593475 -0.0026855469 0.0016937256 -0.0018615723 -0.00014972687 0.0023498535 -0.001914978
0.0033721924 -0.00016117096 0.0018997192 -0.00063323975 -0.0009918213 -8.249283e-05 0.0010986328 0.0034637451
-0.00019359589 0.00019836426 -0.000166893 0.00024604797 -0.00026130676 0.00042915344 -5.4359436e-05 -0.00038146973
0.001159668 0.0013275146 -0.0009994507 0.0004825592 -0.00042533875 0.0005874634 -0.0025482178 -0.0032806396
-0.0029754639 0.00060653687 -0.00064468384 -0.0016937256 0.0003681183 0.0017700195 -0.00032615662 0.00012588501
0.0013656616 -0.00035476685 0.00064849854 0.0005645752 -0.0017318726 -0.0004005432 -0.0006828308 -0.00013256073
0.0029754639 -0.0010681152 0.0011291504 -0.0021820068 0.0013809204 -0.0053710938 0.0008049011 -0.0016174316
-0.00074768066 -0.00078201294 -0.0023498535 -0.00090789795 -0.00020599365 -0.0013885498 0.0033111572 0.003616333
0.0022735596 0.0008010864 0.0022583008 -0.002029419 0.0023498535 0.0022277832 -0.0027618408 -0.0014801025
-0.002670288 0.0019378662 0.00015830994 0.0023956299 0.001045227 -0.00091934204 -0.00065612793 -0.0031280518
5.811453e-07 -0.0015640259 -0.0020751953 -0.00061798096 0.0007972717 0.001701355 0.001335144 -0.00016593933
-0.0027313232 -0.0015182495 0.00078964233 -0.0028381348 -0.00061035156 0.001663208 0.00038146973 -0.0025939941
-5.8412552e-05 0.0008163452 -0.0005950928 0.00062179565 0.0008621216 -0.0026245117 -0.0020446777 -0.0009536743
-0.0010223389 -0.0012969971 -0.00062561035 0.0019454956 0.00016307831 0.000102996826 0.0011367798 -0.0017471313
-0.0010910034 0.00061416626 -0.0002412796 0.0009727478 -0.0021972656 -2.924353e-07 0.0006713867 -0.000705719
-0.0012817383 -0.00062561035 0.00030708313 0.0015869141 0.00031280518 0.001701355 -0.0021514893 -0.0015869141
0.0007095337 -0.0012512207 -0.00032043457 -0.0020751953 -0.00026512146 -0.0004348755 -0.00037956238 0.0015029907
00000000: 0000 9c3a 0000 60b9 0000 e73a 0000 853a
00000010: 0000 233a 0000 da39 0000 9cb9 0000 e83a
00000020: 0000 a9ba 0000 aaba 0000 08ba 0000 1eba
00000030: 0000 20bb 0000 82bb 0000 f0ba 0000 07bb
00000040: 0000 4e3a 0000 22bb 0000 08bb 0000 c63a
00000050: 0000 a639 0000 5dbb 0000 11b9 0000 09bb
00000060: 0000 92ba 0000 ccb9 0000 7abb 0000 8c3a
00000070: 0000 16ba 0000 cd3a 0000 42bb 0000 b23a
00000080: 0000 71b9 0000 8e3a 0000 1abb 0000 e939
00000090: 0000 283b 0000 7fbb 0000 1fba 0000 8439
000000a0: 0000 8eb9 0000 d9b9 0000 8cba 0000 5f38
000000b0: 0000 1abb 0000 cb3a 0000 b33a 0000 00ba
000000c0: 0000 d03a 0000 12bb 0000 a439 0000 6abb
000000d0: 0000 20ba 0000 053b 0000 dc3a 0000 113b
000000e0: 0000 0c3b 0000 2a38 0000 2a3b 0000 c53a
000000f0: 0000 b03a 0000 d8ba 0000 32bb 0000 853a
00000100: 0000 d8ba 0000 03bb 0000 5bbb 0000 c73a
00000110: 0000 193a 0000 a8b8 0000 eeb7 0000 a8ba
00000120: 0000 27b9 0000 92b9 0000 c1ba 0000 2aba
00000130: 0000 2bb9 0000 11bb 0000 ec39 0000 07bb
00000140: 0000 19bb 0000 46ba 0000 dc38 0000 0cbb
00000150: 0000 1f3b 0000 c7b8 0000 eab8 0000 583a
00000160: 0000 2db9 0000 9a3a 0000 69ba 0000 16ba
00000170: 0000 d43a 0000 8739 0000 4f3a 0000 18bb
00000180: 0000 77bb 0000 1f3a 0000 f83a 0000 bfba
00000190: 0000 e93a 0000 083a 0000 953a 0000 f8ba
000001a0: 0000 d0ba 0000 64b8 0000 a5ba 0000 893b
000001b0: 0000 133a 0000 bb39 0000 043a 0000 143b
000001c0: 0000 abba 0000 32ba 0000 a1b9 0000 083a
000001d0: 0000 fdba 0000 17bb 0000 ecba 0000 9b3a
000001e0: 0000 2aba 0000 ff38 0000 30bb 0000 de3a
000001f0: 0000 f4ba 0000 1db9 0000 1a3b 0000 fbba
00000200: 0000 5d3b 0000 29b9 0000 f93a 0000 26ba
00000210: 0000 82ba 0000 adb8 0000 903a 0000 633b
00000220: 0000 4bb9 0000 5039 0000 2fb9 0000 8139
00000230: 0000 89b9 0000 e139 0000 64b8 0000 c8b9
00000240: 0000 983a 0000 ae3a 0000 83ba 0000 fd39
00000250: 0000 dfb9 0000 1a3a 0000 27bb 0000 57bb
00000260: 0000 43bb 0000 1f3a 0000 29ba 0000 deba
00000270: 0000 c139 0000 e83a 0000 abb9 0000 0439
00000280: 0000 b33a 0000 bab9 0000 2a3a 0000 143a
00000290: 0000 e3ba 0000 d2b9 0000 33ba 0000 0bb9
000002a0: 0000 433b 0000 8cba 0000 943a 0000 0fbb
000002b0: 0000 b53a 0000 b0bb 0000 533a 0000 d4ba
000002c0: 0000 44ba 0000 4dba 0000 1abb 0000 6eba
000002d0: 0000 58b9 0000 b6ba 0000 593b 0000 6d3b
000002e0: 0000 153b 0000 523a 0000 143b 0000 05bb
000002f0: 0000 1a3b 0000 123b 0000 35bb 0000 c2ba
00000300: 0000 2fbb 0000 fe3a 0000 2639 0000 1d3b
00000310: 0000 893a 0000 71ba 0000 2cba 0000 4dbb
00000320: 0000 1c35 0000 cdba 0000 08bb 0000 22ba
00000330: 0000 513a 0000 df3a 0000 af3a 0000 2eb9
00000340: 0000 33bb 0000 c7ba 0000 4f3a 0000 3abb
00000350: 0000 20ba 0000 da3a 0000 c839 0000 2abb
00000360: 0000 75b8 0000 563a 0000 1cba 0000 233a
00000370: 0000 623a 0000 2cbb 0000 06bb 0000 7aba
00000380: 0000 86ba 0000 aaba 0000 24ba 0000 ff3a
00000390: 0000 2b39 0000 d838 0000 953a 0000 e5ba
000003a0: 0000 8fba 0000 213a 0000 7db9 0000 7f3a
000003b0: 0000 10bb 0000 9db4 0000 303a 0000 39ba
000003c0: 0000 a8ba 0000 24ba 0000 a139 0000 d03a
000003d0: 0000 a439 0000 df3a 0000 0dbb 0000 d0ba
000003e0: 0000 3a3a 0000 a4ba 0000 a8b9 0000 08bb
000003f0: 0000 8bb9 0000 e4b9 0000 c7b9 0000 c53a
