test/dummy-chronos-model/pytorch_model.bin (torch, 54975 bytes, 29 tensors)

shared.weight bf16 [32, 64]
000000 71 3d 15 bd 08 3c 5d bd c4 bd 04 3c 11 3d 7c 38
       0.05883789 -0.036376953 0.008300781 -0.053955078 -0.095703125 0.008056641 0.03540039 6.0081482e-05
000010 49 3d 24 3d 32 3d e5 bb 49 3d 0e 3d 1b 3c 55 bd
       0.049072266 0.040039062 0.04345703 -0.0069885254 0.049072266 0.03466797 0.009460449 -0.052001953
000020 de bd 31 bd 02 be 2f 3d 2c 3d 3b bc be 3d 01 3d
       -0.10839844 -0.04321289 -0.12695312 0.04272461 0.041992188 -0.011413574 0.09277344 0.03149414
000030 47 b9 49 bd cf 3b 8f 3c a4 bd 24 bd 80 bd 98 bd
       -0.00018978119 -0.049072266 0.0063171387 0.017456055 -0.080078125 -0.040039062 -0.0625 -0.07421875
000040 2f bd 07 3d d0 bc ba bd 2f 3d e9 bc 9a 3c d2 3b
       -0.04272461 0.032958984 -0.025390625 -0.09082031 0.04272461 -0.028442383 0.018798828 0.0064086914
000050 ba bc 65 bd 6c 3d 65 3d 78 bd fd 3a 3b bd 4f 3b
       -0.022705078 -0.055908203 0.057617188 0.055908203 -0.060546875 0.0019302368 -0.045654297 0.0031585693
000060 ac 3c 79 bc a4 3d 83 3d ab bc 59 3d 7c bd cb 3d
       0.020996094 -0.015197754 0.080078125 0.063964844 -0.020874023 0.052978516 -0.061523438 0.099121094
000070 af 3b 9a bb 35 3d d1 3c 7b 3d ee 3d 03 3d 44 3c
       0.005340576 -0.004699707 0.044189453 0.025512695 0.061279297 0.11621094 0.031982422 0.011962891
000080 05 3d 97 3d c0 bc 80 bb bf 3c 18 bc 8f bc 01 bc
       0.032470703 0.07373047 -0.0234375 -0.00390625 0.02331543 -0.009277344 -0.017456055 -0.007873535
000090 15 3d 8e bd cf bc 0d 3a a9 3b b7 3d 18 3d 59 3c
       0.036376953 -0.06933594 -0.025268555 0.0005378723 0.0051574707 0.08935547 0.037109375 0.013244629
0000a0 5f 3d 12 3d 6a bd 69 bd e5 bc 7d 3d 8e 3b 84 bc
       0.05444336 0.03564453 -0.057128906 -0.056884766 -0.027954102 0.061767578 0.004333496 -0.016113281
0000b0 2f 3c 71 bd fd 3c a9 bc a7 bb 70 bd 32 ba 17 bc
       0.010681152 -0.05883789 0.030883789 -0.020629883 -0.0050964355 -0.05859375 -0.0006790161 -0.009216309
0000c0 bf bc d0 3c 28 bd 9e bc 32 3c 5e bd 67 bb 27 bd
       -0.02331543 0.025390625 -0.041015625 -0.01928711 0.010864258 -0.05419922 -0.0035247803 -0.040771484
0000d0 50 3d 3a bd b8 bc b8 3d 2a bc 3f 3d e5 bc 1c bc
       0.05078125 -0.045410156 -0.022460938 0.08984375 -0.010375977 0.04663086 -0.027954102 -0.009521484
0000e0 c5 3c 8b bc 99 bd 58 bc da 3c 42 bd 48 bd 4a 3c
       0.024047852 -0.016967773 -0.07470703 -0.013183594 0.026611328 -0.04736328 -0.048828125 0.012329102
0000f0 92 bb 71 bc b3 bc f0 3b a4 bd 3b 3d 2b bd 6a 3c
       -0.0044555664 -0.014709473 -0.021850586 0.0073242188 -0.080078125 0.045654297 -0.041748047 0.014282227
000100 05 bc 87 3d 8c bc 29 bd e4 bd 75 3d 75 bc fe bb
       -0.008117676 0.06591797 -0.017089844 -0.041259766 -0.111328125 0.059814453 -0.014953613 -0.007751465
000110 60 3c 0d 3d 56 3c b8 bc a7 3c 4d 3b 69 bc 8c 3b
       0.013671875 0.034423828 0.013061523 -0.022460938 0.020385742 0.0031280518 -0.014221191 0.004272461
000120 3e bd 99 3c aa 3d 45 bb dc bc c6 3c 52 3c 58 3d
       -0.04638672 0.018676758 0.08300781 -0.0030059814 -0.026855469 0.024169922 0.012817383 0.052734375
000130 05 bd cc 3d 67 bb 05 3c d8 bc 52 bd b4 bc 23 bc
       -0.032470703 0.099609375 -0.0035247803 0.008117676 -0.026367188 -0.05126953 -0.021972656 -0.0099487305
000140 88 bd 12 bd 37 3c 20 bc c4 3b c2 39 8b bd a4 bd
       -0.06640625 -0.03564453 0.011169434 -0.009765625 0.0059814453 0.00037002563 -0.067871094 -0.080078125
000150 de bc 40 3d 23 3b c2 3b 89 bb 67 bb bf 3b 25 bd
       -0.02709961 0.046875 0.0024871826 0.00592041 -0.004180908 -0.0035247803 0.0058288574 -0.040283203
000160 12 3c 82 bd f4 bb 35 bd 27 bc c1 bd c2 3c 61 bd
       0.008911133 -0.06347656 -0.007446289 -0.044189453 -0.010192871 -0.09423828 0.02368164 -0.05493164
000170 1d bd ce bc 15 bc ff bc df bb 3e 3d 70 3c 4c bc
       -0.038330078 -0.025146484 -0.009094238 -0.03112793 -0.00680542 0.04638672 0.0146484375 -0.012451172
000180 15 bd 4c 3d e3 3c a0 bd 2c 3a 83 bd 2b bd c7 3c
       -0.036376953 0.049804688 0.027709961 -0.078125 0.00065612793 -0.063964844 -0.041748047 0.024291992
000190 1b 3d dd b9 31 bd b1 3d 66 3d 47 3b 1c bc 60 3d
       0.037841797 -0.00042152405 -0.04321289 0.08642578 0.056152344 0.003036499 -0.009521484 0.0546875
0001a0 14 bc c9 bc 47 3d 87 3d 75 bd f2 3b 9d bd d1 bc
       -0.009033203 -0.024536133 0.048583984 0.06591797 -0.059814453 0.007385254 -0.076660156 -0.025512695
0001b0 2a 3d a6 bd d8 3d ea 3c 35 3b 50 3c 62 3d a4 bd
       0.041503906 -0.08105469 0.10546875 0.028564453 0.0027618408 0.0126953125 0.05517578 -0.080078125
0001c0 65 bd b8 3c 7b bd a1 3c a2 3d 07 3e 90 3c e8 3c
       -0.055908203 0.022460938 -0.061279297 0.01965332 0.07910156 0.13183594 0.017578125 0.028320312
0001d0 db bc 90 bd 91 3c a8 bd ec 3b 0d bb 91 bd c5 bb
       -0.026733398 -0.0703125 0.017700195 -0.08203125 0.0072021484 -0.0021514893 -0.07080078 -0.006011963
0001e0 a3 bd af 3c 19 3b 9b 3b 0d bd 8c 3c de 3c b6 3a
       -0.079589844 0.021362305 0.0023345947 0.0047302246 -0.034423828 0.017089844 0.02709961 0.0013885498
0001f0 d5 bc 92 bc fb ba 08 3d 2f 3d bf 3b 48 3d b8 bc
       -0.026000977 -0.017822266 -0.001914978 0.033203125 0.04272461 0.0058288574 0.048828125 -0.022460938

encoder.embed_tokens.weight bf16 [32, 64]
000000 71 3d 15 bd 08 3c 5d bd c4 bd 04 3c 11 3d 7c 38
       0.05883789 -0.036376953 0.008300781 -0.053955078 -0.095703125 0.008056641 0.03540039 6.0081482e-05
000010 49 3d 24 3d 32 3d e5 bb 49 3d 0e 3d 1b 3c 55 bd
       0.049072266 0.040039062 0.04345703 -0.0069885254 0.049072266 0.03466797 0.009460449 -0.052001953
000020 de bd 31 bd 02 be 2f 3d 2c 3d 3b bc be 3d 01 3d
       -0.10839844 -0.04321289 -0.12695312 0.04272461 0.041992188 -0.011413574 0.09277344 0.03149414
000030 47 b9 49 bd cf 3b 8f 3c a4 bd 24 bd 80 bd 98 bd
       -0.00018978119 -0.049072266 0.0063171387 0.017456055 -0.080078125 -0.040039062 -0.0625 -0.07421875
000040 2f bd 07 3d d0 bc ba bd 2f 3d e9 bc 9a 3c d2 3b
       -0.04272461 0.032958984 -0.025390625 -0.09082031 0.04272461 -0.028442383 0.018798828 0.0064086914
000050 ba bc 65 bd 6c 3d 65 3d 78 bd fd 3a 3b bd 4f 3b
       -0.022705078 -0.055908203 0.057617188 0.055908203 -0.060546875 0.0019302368 -0.045654297 0.0031585693
000060 ac 3c 79 bc a4 3d 83 3d ab bc 59 3d 7c bd cb 3d
       0.020996094 -0.015197754 0.080078125 0.063964844 -0.020874023 0.052978516 -0.061523438 0.099121094
000070 af 3b 9a bb 35 3d d1 3c 7b 3d ee 3d 03 3d 44 3c
       0.005340576 -0.004699707 0.044189453 0.025512695 0.061279297 0.11621094 0.031982422 0.011962891
000080 05 3d 97 3d c0 bc 80 bb bf 3c 18 bc 8f bc 01 bc
       0.032470703 0.07373047 -0.0234375 -0.00390625 0.02331543 -0.009277344 -0.017456055 -0.007873535
000090 15 3d 8e bd cf bc 0d 3a a9 3b b7 3d 18 3d 59 3c
       0.036376953 -0.06933594 -0.025268555 0.0005378723 0.0051574707 0.08935547 0.037109375 0.013244629
0000a0 5f 3d 12 3d 6a bd 69 bd e5 bc 7d 3d 8e 3b 84 bc
       0.05444336 0.03564453 -0.057128906 -0.056884766 -0.027954102 0.061767578 0.004333496 -0.016113281
0000b0 2f 3c 71 bd fd 3c a9 bc a7 bb 70 bd 32 ba 17 bc
       0.010681152 -0.05883789 0.030883789 -0.020629883 -0.0050964355 -0.05859375 -0.0006790161 -0.009216309
0000c0 bf bc d0 3c 28 bd 9e bc 32 3c 5e bd 67 bb 27 bd
       -0.02331543 0.025390625 -0.041015625 -0.01928711 0.010864258 -0.05419922 -0.0035247803 -0.040771484
0000d0 50 3d 3a bd b8 bc b8 3d 2a bc 3f 3d e5 bc 1c bc
       0.05078125 -0.045410156 -0.022460938 0.08984375 -0.010375977 0.04663086 -0.027954102 -0.009521484
0000e0 c5 3c 8b bc 99 bd 58 bc da 3c 42 bd 48 bd 4a 3c
       0.024047852 -0.016967773 -0.07470703 -0.013183594 0.026611328 -0.04736328 -0.048828125 0.012329102
0000f0 92 bb 71 bc b3 bc f0 3b a4 bd 3b 3d 2b bd 6a 3c
       -0.0044555664 -0.014709473 -0.021850586 0.0073242188 -0.080078125 0.045654297 -0.041748047 0.014282227
000100 05 bc 87 3d 8c bc 29 bd e4 bd 75 3d 75 bc fe bb
       -0.008117676 0.06591797 -0.017089844 -0.041259766 -0.111328125 0.059814453 -0.014953613 -0.007751465
000110 60 3c 0d 3d 56 3c b8 bc a7 3c 4d 3b 69 bc 8c 3b
       0.013671875 0.034423828 0.013061523 -0.022460938 0.020385742 0.0031280518 -0.014221191 0.004272461
000120 3e bd 99 3c aa 3d 45 bb dc bc c6 3c 52 3c 58 3d
       -0.04638672 0.018676758 0.08300781 -0.0030059814 -0.026855469 0.024169922 0.012817383 0.052734375
000130 05 bd cc 3d 67 bb 05 3c d8 bc 52 bd b4 bc 23 bc
       -0.032470703 0.099609375 -0.0035247803 0.008117676 -0.026367188 -0.05126953 -0.021972656 -0.0099487305
000140 88 bd 12 bd 37 3c 20 bc c4 3b c2 39 8b bd a4 bd
       -0.06640625 -0.03564453 0.011169434 -0.009765625 0.0059814453 0.00037002563 -0.067871094 -0.080078125
000150 de bc 40 3d 23 3b c2 3b 89 bb 67 bb bf 3b 25 bd
       -0.02709961 0.046875 0.0024871826 0.00592041 -0.004180908 -0.0035247803 0.0058288574 -0.040283203
000160 12 3c 82 bd f4 bb 35 bd 27 bc c1 bd c2 3c 61 bd
       0.008911133 -0.06347656 -0.007446289 -0.044189453 -0.010192871 -0.09423828 0.02368164 -0.05493164
000170 1d bd ce bc 15 bc ff bc df bb 3e 3d 70 3c 4c bc
       -0.038330078 -0.025146484 -0.009094238 -0.03112793 -0.00680542 0.04638672 0.0146484375 -0.012451172
000180 15 bd 4c 3d e3 3c a0 bd 2c 3a 83 bd 2b bd c7 3c
       -0.036376953 0.049804688 0.027709961 -0.078125 0.00065612793 -0.063964844 -0.041748047 0.024291992
000190 1b 3d dd b9 31 bd b1 3d 66 3d 47 3b 1c bc 60 3d
       0.037841797 -0.00042152405 -0.04321289 0.08642578 0.056152344 0.003036499 -0.009521484 0.0546875
0001a0 14 bc c9 bc 47 3d 87 3d 75 bd f2 3b 9d bd d1 bc
       -0.009033203 -0.024536133 0.048583984 0.06591797 -0.059814453 0.007385254 -0.076660156 -0.025512695
0001b0 2a 3d a6 bd d8 3d ea 3c 35 3b 50 3c 62 3d a4 bd
       0.041503906 -0.08105469 0.10546875 0.028564453 0.0027618408 0.0126953125 0.05517578 -0.080078125
0001c0 65 bd b8 3c 7b bd a1 3c a2 3d 07 3e 90 3c e8 3c
       -0.055908203 0.022460938 -0.061279297 0.01965332 0.07910156 0.13183594 0.017578125 0.028320312
0001d0 db bc 90 bd 91 3c a8 bd ec 3b 0d bb 91 bd c5 bb
       -0.026733398 -0.0703125 0.017700195 -0.08203125 0.0072021484 -0.0021514893 -0.07080078 -0.006011963
0001e0 a3 bd af 3c 19 3b 9b 3b 0d bd 8c 3c de 3c b6 3a
       -0.079589844 0.021362305 0.0023345947 0.0047302246 -0.034423828 0.017089844 0.02709961 0.0013885498
0001f0 d5 bc 92 bc fb ba 08 3d 2f 3d bf 3b 48 3d b8 bc
       -0.026000977 -0.017822266 -0.001914978 0.033203125 0.04272461 0.0058288574 0.048828125 -0.022460938

encoder.block.0.layer.0.SelfAttention.q.weight bf16 [16, 64]
000000 84 ba 90 3a 46 bb 46 3a 77 ba 17 3b a7 ba c4 b9
       -0.0010070801 0.0010986328 -0.0030212402 0.00075531006 -0.0009422302 0.0023040771 -0.0012741089 -0.00037384033
000010 a0 3a 2c 3b 34 bb 51 3b 70 3a 4e 3a 96 3a b0 3a
       0.0012207031 0.0026245117 -0.002746582 0.003189087 0.00091552734 0.00078582764 0.0011444092 0.0013427734
000020 1d 3b c9 ba 7f ba a2 ba f7 37 96 3a d7 ba 9d ba
       0.0023956299 -0.0015335083 -0.0009727478 -0.0012359619 2.9444695e-05 0.0011444092 -0.0016403198 -0.0011978149
000030 b2 39 0c bb a7 b9 71 ba a7 ba c0 b9 b4 3a b7 ba
       0.00033950806 -0.0021362305 -0.00031852722 -0.00091934204 -0.0012741089 -0.00036621094 0.001373291 -0.0013961792
000040 0f 3b 2e bb 2d 3b 57 bb 07 3a 2b bb 2f ba 8a ba
       0.0021820068 -0.0026550293 0.0026397705 -0.0032806396 0.00051498413 -0.002609253 -0.000667572 -0.0010528564
000050 a6 ba bf ba 3d 3a e8 39 29 3a 69 b9 c0 b9 66 3b
       -0.0012664795 -0.0014572144 0.0007209778 0.00044250488 0.00064468384 -0.00022220612 -0.00036621094 0.0035095215
000060 a5 b9 38 ba 21 3a 09 3b 85 b9 f3 ba fe 3a 95 ba
       -0.00031471252 -0.0007019043 0.00061416626 0.002090454 -0.00025367737 -0.0018539429 0.0019378662 -0.0011367798
000070 be ba 0b 3a b8 3a e0 39 bb 39 92 b8 39 39 93 b9
       -0.001449585 0.0005302429 0.0014038086 0.0004272461 0.0003566742 -6.9618225e-05 0.00017642975 -0.00028038025
000080 85 ba ce 38 df ba a1 ba 10 bb be 39 bb ba 9c ba
       -0.0010147095 9.8228455e-05 -0.001701355 -0.0012283325 -0.0021972656 0.00036239624 -0.0014266968 -0.0011901855
000090 b4 ba 08 ba 4c 3b 1f b9 76 3b 15 3a bc ba e7 ba
       -0.001373291 -0.0005187988 0.003112793 -0.00015163422 0.003753662 0.0005683899 -0.0014343262 -0.0017623901
0000a0 25 3b 5e 3b 3a 3b 0f 3a b7 ba e7 ba 59 3a 0e bb
       0.0025177002 0.0033874512 0.0028381348 0.0005455017 -0.0013961792 -0.0017623901 0.0008277893 -0.002166748
0000b0 75 ba 0e 3a 28 3a ff ba 63 3a 3a ba 63 3a 26 38
       -0.00093460083 0.000541687 0.00064086914 -0.0019454956 0.0008659363 -0.0007095337 0.0008659363 3.9577484e-05
0000c0 13 bb b1 3a ac ba 3c 3a 32 3a 95 3a a2 ba 94 ba
       -0.002243042 0.0013504028 -0.0013122559 0.0007171631 0.0006790161 0.0011367798 -0.0012359619 -0.0011291504
0000d0 2c 3a 34 ba 15 3a fd 3a 5b b9 e9 3a 03 bb 20 b9
       0.00065612793 -0.0006866455 0.0005683899 0.0019302368 -0.00020885468 0.0017776489 -0.0019989014 -0.00015258789
0000e0 d8 b9 f7 b8 82 3b 75 3a 35 bb fa 3a 0a 3b 22 bb
       -0.0004119873 -0.00011777878 0.003967285 0.00093460083 -0.0027618408 0.0019073486 0.002105713 -0.0024719238
0000f0 c4 3a 44 3a 73 ba ba b9 87 ba e2 3a 41 ba d5 3a
       0.0014953613 0.00074768066 -0.00092697144 -0.00035476685 -0.0010299683 0.0017242432 -0.0007362366 0.001625061
000100 0b ba 1d bb 0f 3b 6f 3a 54 3a 17 3b 52 3a c6 b9
       -0.0005302429 -0.0023956299 0.0021820068 0.00091171265 0.0008087158 0.0023040771 0.0008010864 -0.00037765503
000110 14 3b e6 b8 df ba de b9 4d 3a fc 3a fa b8 8f 3a
       0.0022583008 -0.00010967255 -0.001701355 -0.0004234314 0.00078201294 0.0019226074 -0.00011920929 0.0010910034
000120 1d 3a 0b bb ca 39 8f 39 64 3a 90 b9 0d 39 19 ba
       0.00059890747 -0.0021209717 0.00038528442 0.00027275085 0.000869751 -0.0002746582 0.00013446808 -0.0005836487
000130 37 3b a3 ba e2 b9 78 ba 59 bb e0 ba fd 39 77 b9
       0.0027923584 -0.0012435913 -0.0004310608 -0.0009460449 -0.0033111572 -0.0017089844 0.0004825592 -0.00023555756
000140 48 b9 0f bb 07 3b 60 b9 84 3a 25 3b f2 ba 79 3b
       -0.00019073486 -0.0021820068 0.0020599365 -0.00021362305 0.0010070801 0.0025177002 -0.0018463135 0.0037994385
000150 18 ba 7f 3b 2c 3b 28 ba e6 b9 60 ba fa 3a 39 b9
       -0.000579834 0.0038909912 0.0026245117 -0.00064086914 -0.0004386902 -0.0008544922 0.0019073486 -0.00017642975
000160 c9 ba c1 ba 14 b8 2d b9 49 b9 68 b9 9a 3a 23 ba
       -0.0015335083 -0.0014724731 -3.528595e-05 -0.00016498566 -0.00019168854 -0.00022125244 0.0011749268 -0.00062179565
000170 57 3b 11 3b f9 b9 31 3a 06 ba 02 3b 0e bb d0 3a
       0.0032806396 0.0022125244 -0.0004749298 0.0006752014 -0.00051116943 0.0019836426 -0.002166748 0.0015869141
000180 e6 b9 97 39 93 b9 11 3a 0e 3b 51 ba c7 ba 01 3a
       -0.0004386902 0.00028800964 -0.00028038025 0.0005531311 0.002166748 -0.0007972717 -0.0015182495 0.00049209595
000190 5d bb c1 3a 90 ba c4 ba 9b 39 f4 3a 1c ba 15 ba
       -0.0033721924 0.0014724731 -0.0010986328 -0.0014953613 0.00029563904 0.0018615723 -0.0005950928 -0.0005683899
0001a0 fc 38 4b 3b 23 3b 5d 3a c3 3a aa 39 2f bb 24 bb
       0.000120162964 0.0030975342 0.0024871826 0.0008430481 0.0014877319 0.00032424927 -0.002670288 -0.0025024414
0001b0 b1 3a b1 ba 6b ba 0b 3a f4 b9 72 39 07 bb b8 39
       0.0013504028 -0.0013504028 -0.00089645386 0.0005302429 -0.00046539307 0.00023078918 -0.0020599365 0.00035095215
0001c0 1e 3a 3c 3b b1 3a 8a ba b7 3a 4b bb 1f bb 11 3a
       0.00060272217 0.0028686523 0.0013504028 -0.0010528564 0.0013961792 -0.0030975342 -0.0024261475 0.0005531311
0001d0 27 3a 11 3a b8 ba a2 ba 13 3a a7 39 f0 39 23 3a
       0.00063705444 0.0005531311 -0.0014038086 -0.0012359619 0.0005607605 0.00031852722 0.00045776367 0.00062179565
0001e0 06 3b fd 3a 03 b9 ab ba 25 3a a7 3a bb 3a 03 bb
       0.0020446777 0.0019302368 -0.00012493134 -0.0013046265 0.00062942505 0.0012741089 0.0014266968 -0.0019989014
0001f0 14 39 4e ba df 3a a0 ba e1 ba db 3a 15 ba 8a b9
       0.0001411438 -0.00078582764 0.001701355 -0.0012207031 -0.0017166138 0.0016708374 -0.0005683899 -0.0002632141

encoder.block.0.layer.0.SelfAttention.k.weight bf16 [16, 64]
000000 f6 3b d2 3a 97 3b 7d 3b 18 3c 87 3a 73 3c 53 3c
       0.007507324 0.0016021729 0.0046081543 0.0038604736 0.009277344 0.0010299683 0.014831543 0.012878418
000010 f2 3b 29 3b 17 bc 01 39 f6 bb 1f bb 75 3b 0a bc
       0.007385254 0.0025787354 -0.009216309 0.00012302399 -0.007507324 -0.0024261475 0.0037384033 -0.008422852
000020 d1 b9 54 bb 90 ba 68 3a 16 bc ee ba 5f ba 4b bc
       -0.00039863586 -0.0032348633 -0.0010986328 0.00088500977 -0.009155273 -0.0018157959 -0.0008506775 -0.012390137
000030 7b 3b ff ba 10 3b 48 3b 04 bc 8e bb 91 bb cb bb
       0.003829956 -0.0019454956 0.0021972656 0.0030517578 -0.008056641 -0.004333496 -0.004425049 -0.0061950684
000040 44 3c 13 bc 3d 3b 35 3c c7 3b 3f b9 56 3c e2 bb
       0.011962891 -0.008972168 0.0028839111 0.011047363 0.006072998 -0.0001821518 0.013061523 -0.0068969727
000050 3d 3a 65 3c 90 3b 48 3b 92 bb 44 bb 8a 3b 0a ba
       0.0007209778 0.013977051 0.0043945312 0.0030517578 -0.0044555664 -0.0029907227 0.004211426 -0.0005264282
000060 37 3c e4 3b a6 3b 3c ba 99 3a d4 3b 75 bb d7 bb
       0.011169434 0.006958008 0.005065918 -0.0007171631 0.0011672974 0.0064697266 -0.0037384033 -0.0065612793
000070 a7 bb 3b bb 0f 3c 00 bb 52 3a 6a 3c f3 3a b4 bb
       -0.0050964355 -0.0028533936 0.008728027 -0.001953125 0.0008010864 0.014282227 0.0018539429 -0.005493164
000080 41 bb 08 ba c2 3b af 3b e6 bb f9 bb fa 3a db bb
       -0.0029449463 -0.0005187988 0.00592041 0.005340576 -0.007019043 -0.007598877 0.0019073486 -0.0066833496
000090 a6 bc f0 3b ec bb 25 bc 96 39 30 bb 07 bc f1 3b
       -0.020263672 0.0073242188 -0.0072021484 -0.010070801 0.0002861023 -0.0026855469 -0.008239746 0.0073547363
0000a0 f9 38 e8 3b bf bb 01 3b 52 bc 10 3c 10 3c 60 ba
       0.00011873245 0.007080078 -0.0058288574 0.0019683838 -0.012817383 0.0087890625 0.0087890625 -0.0008544922
0000b0 2f 3a 1c bc 0a 3c d9 3b 24 bc 2f 3b 3e bc b8 3b
       0.000667572 -0.009521484 0.008422852 0.0066223145 -0.010009766 0.002670288 -0.01159668 0.0056152344
0000c0 97 3a 9d 3b 33 3b 0d bb cc bb cc ba 1c bc 8b 39
       0.0011520386 0.0047912598 0.0027313232 -0.0021514893 -0.006225586 -0.0015563965 -0.009521484 0.00026512146
0000d0 3b bb ae 3b 99 3a 86 3b 8c 3b e4 ba 24 3c ca 3b
       -0.0028533936 0.0053100586 0.0011672974 0.0040893555 0.004272461 -0.001739502 0.010009766 0.006164551
0000e0 b4 3b 48 3c 9b bb 2a 39 fa 3a 10 3c 3b bb a5 bb
       0.005493164 0.012207031 -0.0047302246 0.00016212463 0.0019073486 0.0087890625 -0.0028533936 -0.0050354004
0000f0 bc 3b 59 bb 32 bb 51 38 12 bc 97 bb e0 bb 10 bc
       0.0057373047 -0.0033111572 -0.0027160645 4.9829483e-05 -0.008911133 -0.0046081543 -0.0068359375 -0.0087890625
000100 9d ba 5f bc 8b 3b 7d bc e7 ba 8e 3b 8f bb b5 bb
       -0.0011978149 -0.01361084 0.0042419434 -0.0154418945 -0.0017623901 0.004333496 -0.0043640137 -0.0055236816
000110 eb 38 f8 bb a5 3b fe b9 7d bc 23 ba fe bb 32 39
       0.00011205673 -0.0075683594 0.0050354004 -0.00048446655 -0.0154418945 -0.00062179565 -0.007751465 0.00016975403
000120 ae bc d6 bb a0 bb 83 3c 0a 39 e7 3b 7e 3b aa bb
       -0.021240234 -0.0065307617 -0.0048828125 0.015991211 0.00013160706 0.0070495605 0.0038757324 -0.0051879883
000130 ee ba f1 3a f6 b9 09 ba 3b bb 09 bc 33 bb 30 3c
       -0.0018157959 0.0018386841 -0.00046920776 -0.0005226135 -0.0028533936 -0.008361816 -0.0027313232 0.0107421875
000140 aa 3a b6 3b 57 3b 1c 3c 03 bb d6 bb c6 3a c5 bb
       0.0012969971 0.005554199 0.0032806396 0.009521484 -0.0019989014 -0.0065307617 0.0015106201 -0.006011963
000150 97 bb 39 3b a1 bb c4 3b 7e bb 06 bc ee 3a 10 3c
       -0.0046081543 0.002822876 -0.00491333 0.0059814453 -0.0038757324 -0.008178711 0.0018157959 0.0087890625
000160 b4 3b ff bb 1b 3c 17 ba 26 3c d0 ba 71 bb fe 3b
       0.005493164 -0.0077819824 0.009460449 -0.0005760193 0.010131836 -0.0015869141 -0.0036773682 0.007751465
000170 99 3b 0c 3a 23 3a b1 ba 2a bc d7 3b 9a ba 8f ba
       0.0046691895 0.0005340576 0.00062179565 -0.0013504028 -0.010375977 0.0065612793 -0.0011749268 -0.0010910034
000180 09 bc ac ba 5a 3a 06 bc c4 bb 3d bb da ba 40 ba
       -0.008361816 -0.0013122559 0.000831604 -0.008178711 -0.0059814453 -0.0028839111 -0.001663208 -0.0007324219
000190 8a bb 29 bb a2 3b c2 ba 2f 3c 5b 3c a3 bb 0c 3c
       -0.004211426 -0.0025787354 0.0049438477 -0.0014801025 0.010681152 0.013366699 -0.0049743652 0.008544922
0001a0 94 3b f8 3b 01 bc c8 ba 61 3c db bb ab 3b 85 3c
       0.0045166016 0.0075683594 -0.007873535 -0.0015258789 0.01373291 -0.0066833496 0.005218506 0.016235352
0001b0 0c bc f4 bb cf ba e6 bb 07 bb 8e 3b e0 3b d0 bb
       -0.008544922 -0.007446289 -0.0015792847 -0.007019043 -0.0020599365 0.004333496 0.0068359375 -0.0063476562
0001c0 00 3c 18 3b 5c 3a cf 3b b1 3b 97 3c 5b 3a 3a 3b
       0.0078125 0.002319336 0.0008392334 0.0063171387 0.0054016113 0.018432617 0.0008354187 0.0028381348
0001d0 60 3c dd 3b 4c bc 22 3b 8b bc c6 bb 88 bb 43 3a
       0.013671875 0.0067443848 -0.012451172 0.0024719238 -0.016967773 -0.0060424805 -0.0041503906 0.00074386597
0001e0 00 ba e0 bb b7 3b 34 bc eb 3b c0 3a cc 3b 50 3b
       -0.00048828125 -0.0068359375 0.005584717 -0.010986328 0.007171631 0.0014648438 0.006225586 0.0031738281
0001f0 c0 bb b9 3b 7a bb 59 bc 05 3c ac ba fa bb a4 3b
       -0.005859375 0.005645752 -0.0038146973 -0.013244629 0.008117676 -0.0013122559 -0.0076293945 0.005004883

encoder.block.0.layer.0.SelfAttention.v.weight bf16 [16, 64]
000000 ab 3a 2c bc 0a bc c9 39 27 bb 3d bb 99 3c 74 bb
       0.0013046265 -0.010498047 -0.008422852 0.00038337708 -0.0025482178 -0.0028839111 0.018676758 -0.0037231445
000010 9c bb 2c 3c 7e bb 60 bc cc 3a 7b ba 1f b7 a6 bb
       -0.004760742 0.010498047 -0.0038757324 -0.013671875 0.0015563965 -0.000957489 -9.4771385e-06 -0.005065918
000020 82 3b 01 bb cb 3b a1 3a a5 ba c4 bb e2 bb 4b ba
       0.003967285 -0.0019683838 0.0061950684 0.0012283325 -0.0012588501 -0.0059814453 -0.0068969727 -0.00077438354
000030 d7 ba 04 3b d2 bb da bb ae 3a d2 ba 8f 3b 88 bb
       -0.0016403198 0.0020141602 -0.0064086914 -0.006652832 0.0013275146 -0.0016021729 0.0043640137 -0.0041503906
000040 a4 bb 46 3b b9 bb 53 3a 05 bc c9 3c 78 ba 4a bc
       -0.005004883 0.0030212402 -0.005645752 0.0008049011 -0.008117676 0.024536133 -0.0009460449 -0.012329102
000050 1e bc 4c 39 40 3b 21 bc 40 bb 64 3b 03 bc bc 3b
       -0.009643555 0.00019454956 0.0029296875 -0.00982666 -0.0029296875 0.003479004 -0.0079956055 0.0057373047
000060 45 bb ea bb b0 ba d5 bb 93 bb a1 ba 87 3c 42 3c
       -0.0030059814 -0.0071411133 -0.0013427734 -0.006500244 -0.004486084 -0.0012283325 0.016479492 0.01184082
000070 aa 3c 2a ba c9 39 b6 bb 32 3b 80 bb 68 bc 4c 3a
       0.020751953 -0.00064849854 0.00038337708 -0.005554199 0.0027160645 -0.00390625 -0.014160156 0.00077819824
000080 73 3b 95 bb 29 39 96 3b 4c 3c 52 bb fd 3b 0f bb
       0.0037078857 -0.004547119 0.00016117096 0.0045776367 0.012451172 -0.0032043457 0.0077209473 -0.0021820068
000090 1c bc b6 bb a6 bb 6e bc 61 3a 5c bb 3e 3c 80 bb
       -0.009521484 -0.005554199 -0.005065918 -0.014526367 0.0008583069 -0.0033569336 0.01159668 -0.00390625
0000a0 2a bb 0b bb 40 3b e9 3b 02 3c cd b9 ad ba 63 3b
       -0.0025939941 -0.0021209717 0.0029296875 0.0071105957 0.00793457 -0.00039100647 -0.0013198853 0.0034637451
0000b0 9c bb f4 b9 aa bb 83 3b 37 3b 39 3c 10 bb 82 3b
       -0.004760742 -0.00046539307 -0.0051879883 0.0039978027 0.0027923584 0.011291504 -0.0021972656 0.003967285
0000c0 db 3a 67 3c 87 bb 43 3b 22 bc 6f ba 31 bb a4 bb
       0.0016708374 0.014099121 -0.004119873 0.0029754639 -0.009887695 -0.00091171265 -0.0027008057 -0.005004883
0000d0 04 bc f8 ba 4e 3c 5e 3b f4 bb 1a bc cf 3b b1 3b
       -0.008056641 -0.0018920898 0.012573242 0.0033874512 -0.007446289 -0.009399414 0.0063171387 0.0054016113
0000e0 b6 bb ad bb 84 3c bb bb 20 b9 2a bc 55 3b f5 3b
       -0.005554199 -0.005279541 0.016113281 -0.005706787 -0.00015258789 -0.010375977 0.003250122 0.0074768066
0000f0 61 3b fd 3a 32 bc 5f 3b e9 bb 07 bc 08 bc 5a 3b
       0.0034332275 0.0019302368 -0.010864258 0.00340271 -0.0071105957 -0.008239746 -0.008300781 0.003326416
000100 06 bc e8 3b 03 3b 0f bb c0 bb b4 ba d3 3a bf 3b
       -0.008178711 0.007080078 0.0019989014 -0.0021820068 -0.005859375 -0.001373291 0.0016098022 0.0058288574
000110 a5 3b ca 3b 0e 3a 14 3c a2 b9 20 3c 4d bb af bb
       0.0050354004 0.006164551 0.000541687 0.009033203 -0.00030899048 0.009765625 -0.0031280518 -0.005340576
000120 a9 39 0d bc 15 bb 04 ba 10 3b 01 3c 17 bc c7 3b
       0.00032234192 -0.008605957 -0.0022735596 -0.00050354004 0.0021972656 0.007873535 -0.009216309 0.006072998
000130 94 ba 34 bc c6 3b bc bb 25 3b 14 bc 85 ba ac 3b
       -0.0011291504 -0.010986328 0.0060424805 -0.0057373047 0.0025177002 -0.009033203 -0.0010147095 0.0052490234
000140 be bb 11 3b fe 3b 0f 3c 38 3c d2 b9 5c bb 5c 3b
       -0.00579834 0.0022125244 0.007751465 0.008728027 0.011230469 -0.0004005432 -0.0033569336 0.0033569336
000150 71 bb 62 bc 01 3c d3 3b 0b bc 0d 3a 3e bc 23 3c
       -0.0036773682 -0.013793945 0.007873535 0.006439209 -0.008483887 0.0005378723 -0.01159668 0.0099487305
000160 2e 3c 35 3b 9f bb b1 bb 15 bc 30 3a 9e bb 5a 3b
       0.010620117 0.0027618408 -0.004852295 -0.0054016113 -0.009094238 0.0006713867 -0.0048217773 0.003326416
000170 be bb 0c 3c 20 bc b1 ba 3c bb 0d bc fd 3b 36 bc
       -0.00579834 0.008544922 -0.009765625 -0.0013504028 -0.0028686523 -0.008605957 0.0077209473 -0.011108398
000180 92 3b ee ba 78 bc fe 3b 03 ba ea ba 2b bc b9 bb
       0.0044555664 -0.0018157959 -0.015136719 0.007751465 -0.00049972534 -0.0017852783 -0.010437012 -0.005645752
000190 ce b8 d2 3b 50 3b c9 bb 4a 3b d9 3b 39 bb 9e b9
       -9.8228455e-05 0.0064086914 0.0031738281 -0.006134033 0.0030822754 0.0066223145 -0.002822876 -0.00030136108
0001a0 41 bb 83 ba 83 bb 6b 3b c0 3b 9f 3b 39 3b 70 3b
       -0.0029449463 -0.0009994507 -0.0039978027 0.0035858154 0.005859375 0.004852295 0.002822876 0.0036621094
0001b0 62 3b cf 3b 11 bb c6 3b ca bb 08 bc 05 bc ae bb
       0.0034484863 0.0063171387 -0.0022125244 0.0060424805 -0.006164551 -0.008300781 -0.008117676 -0.0053100586
0001c0 99 3b b8 bb 99 bb 03 bc 66 3c a2 3a 38 ba be bb
       0.0046691895 -0.0056152344 -0.0046691895 -0.0079956055 0.014038086 0.0012359619 -0.0007019043 -0.00579834
0001d0 69 3a 8f 3b 80 3c d9 3a a1 bb 8a 37 c8 3a 75 3b
       0.00088882446 0.0043640137 0.015625 0.0016555786 -0.00491333 1.6450882e-05 0.0015258789 0.0037384033
0001e0 0a bb 0e 3b a6 ba a2 3a 5a 3b 80 bb e5 ba 28 3b
       -0.002105713 0.002166748 -0.0012664795 0.0012359619 0.003326416 -0.00390625 -0.0017471313 0.0025634766
0001f0 a6 3a 57 bc 49 bc 5a 3c 5d bc 1c 3b a0 3b df bb
       0.0012664795 -0.013122559 -0.012268066 0.013305664 -0.0134887695 0.002380371 0.0048828125 -0.00680542

encoder.block.0.layer.0.SelfAttention.o.weight bf16 [64, 16]
000000 03 bc 9d bc 54 bc b8 bb 9b 3b 27 3b 24 3c 3e 3b
       -0.0079956055 -0.019165039 -0.012939453 -0.0056152344 0.0047302246 0.0025482178 0.010009766 0.00289917
000010 6b 3b f4 3b 29 bc b4 bc 21 39 16 bb 91 3c f6 bc
       0.0035858154 0.007446289 -0.010314941 -0.021972656 0.00015354156 -0.0022888184 0.017700195 -0.030029297
000020 6d ba f9 39 11 bb 48 3c 29 3b a1 3b 1b bc 84 3c
       -0.00090408325 0.0004749298 -0.0022125244 0.012207031 0.0025787354 0.00491333 -0.009460449 0.016113281
000030 83 b9 3c bc bd bc 2a 3b 5a bb 06 3b 28 3c 7d bc
       -0.00024986267 -0.011474609 -0.023071289 0.0025939941 -0.003326416 0.0020446777 0.010253906 -0.0154418945
000040 a2 bc ed bc 2b bb ab 3b a4 3c 80 bc 10 3c 31 3c
       -0.01977539 -0.028930664 -0.002609253 0.005218506 0.020019531 -0.015625 0.0087890625 0.010803223
000050 59 bc 22 3c a4 bc 91 3c 73 3b 65 bc ad bb 3c bb
       -0.013244629 0.009887695 -0.020019531 0.017700195 0.0037078857 -0.013977051 -0.005279541 -0.0028686523
000060 e6 bb a7 3a 17 ba 92 ba cb 3b dd ba bf ba 0a bc
       -0.007019043 0.0012741089 -0.0005760193 -0.0011138916 0.0061950684 -0.0016860962 -0.0014572144 -0.008422852
000070 73 3c 51 bb 39 bb 30 bc 89 bc a2 3c d2 39 84 3c
       0.014831543 -0.003189087 -0.002822876 -0.0107421875 -0.016723633 0.01977539 0.0004005432 0.016113281
000080 8a bc b7 bc 27 3c 6b bc 80 3c 0f 3c 8e bc a5 bb
       -0.016845703 -0.022338867 0.010192871 -0.014343262 0.015625 0.008728027 -0.017333984 -0.0050354004
000090 97 bb 88 3c 58 3c 12 bc 15 bc e3 bc 9e 3b fd ba
       -0.0046081543 0.016601562 0.013183594 -0.008911133 -0.009094238 -0.027709961 0.0048217773 -0.0019302368
0000a0 11 bc 5d bc 3f bc 46 bc f5 3a 89 ba 82 3b 79 bc
       -0.008850098 -0.0134887695 -0.011657715 -0.012084961 0.0018692017 -0.001045227 0.003967285 -0.015197754
0000b0 b7 bc 56 bb 40 3c a1 ba 5c 3c 43 3c cc bc 01 bc
       -0.022338867 -0.0032653809 0.01171875 -0.0012283325 0.013427734 0.0119018555 -0.024902344 -0.007873535
0000c0 46 bb a1 3b db bb a3 3c 07 bd 8e bc c3 3b ba 3b
       -0.0030212402 0.00491333 -0.0066833496 0.019897461 -0.032958984 -0.017333984 0.0059509277 0.0056762695
0000d0 f3 bb a7 bc 33 bb 92 3a 07 bc 94 3b c3 bb b4 bc
       -0.0074157715 -0.020385742 -0.0027313232 0.0011138916 -0.008239746 0.0045166016 -0.0059509277 -0.021972656
0000e0 58 bc 9a 3c 94 bc 38 3c ad b8 33 3c 0f 3c 68 bc
       -0.013183594 0.018798828 -0.018066406 0.011230469 -8.249283e-05 0.010925293 0.008728027 -0.014160156
0000f0 81 bc 8b bc a4 bb b6 3b ae bc af 3a a0 ba f7 3b
       -0.01574707 -0.016967773 -0.005004883 0.005554199 -0.021240234 0.001335144 -0.0012207031 0.007537842
000100 e9 bb 82 3a af bc c9 38 97 3c 07 3c 74 3b d2 bc
       -0.0071105957 0.0009918213 -0.021362305 9.584427e-05 0.018432617 0.008239746 0.0037231445 -0.025634766
000110 39 bc a8 bc 03 3b c4 3c e8 3c 19 3b 3e bc 2a 3c
       -0.011291504 -0.020507812 0.0019989014 0.023925781 0.028320312 0.0023345947 -0.01159668 0.010375977
000120 95 3c 83 bb 1d 3c cb 3c a1 bc b5 bb 41 bb dc 3b
       0.018188477 -0.0039978027 0.0095825195 0.024780273 -0.01965332 -0.0055236816 -0.0029449463 0.006713867
000130 d8 bc 12 3c 60 bc ae bb 1d bb 72 bc e5 3b 12 bc
       -0.026367188 0.008911133 -0.013671875 -0.0053100586 -0.0023956299 -0.014770508 0.0069885254 -0.008911133
000140 03 bc 38 3c d0 3b 88 bc 3e 3b 75 bc 96 3c 52 bb
       -0.0079956055 0.011230469 0.0063476562 -0.016601562 0.00289917 -0.014953613 0.018310547 -0.0032043457
000150 aa 3a 07 3c aa bc ea ba 8c 3b ee ba d4 b9 3a bc
       0.0012969971 0.008239746 -0.020751953 -0.0017852783 0.004272461 -0.0018157959 -0.0004043579 -0.011352539
000160 92 3b dd bc 52 3b 4f bc 47 bc 84 3c c6 3a 2f bc
       0.0044555664 -0.026977539 0.0032043457 -0.012634277 -0.012145996 0.016113281 0.0015106201 -0.010681152
000170 05 bd 9b bc e3 3b 50 bb 8c 3c 62 bc 02 3c 81 3c
       -0.032470703 -0.018920898 0.0069274902 -0.0031738281 0.017089844 -0.013793945 0.00793457 0.01574707
000180 76 bc 90 bb 77 3a 3a 3b 71 bc ee ba 11 bd 83 3a
       -0.015014648 -0.0043945312 0.0009422302 0.0028381348 -0.014709473 -0.0018157959 -0.03540039 0.0009994507
000190 fc 3b 1f bc 71 bb 03 39 b7 bc de bb 3a 3c be 3b
       0.0076904297 -0.00970459 -0.0036773682 0.00012493134 -0.022338867 -0.0067749023 0.011352539 0.00579834
0001a0 7f 3c 6a 3c 8e 3c 2e 3b 80 bc e2 bb 23 3c 08 bc
       0.015563965 0.014282227 0.017333984 0.0026550293 -0.015625 -0.0068969727 0.0099487305 -0.008300781
0001b0 33 bc 9b bb 3a 3b aa 3b 1a bc 81 bb e1 ba b9 3a
       -0.010925293 -0.0047302246 0.0028381348 0.0051879883 -0.009399414 -0.0039367676 -0.0017166138 0.001411438
0001c0 8c 3b 47 bb d7 bc 38 bb 5f bb a6 ba b2 3c 57 bc
       0.004272461 -0.003036499 -0.026245117 -0.0028076172 -0.00340271 -0.0012664795 0.021728516 -0.013122559
0001d0 ae 3b a6 bb d1 3c 54 bc 05 bc 5c bc 81 3b 74 3c
       0.0053100586 -0.005065918 0.025512695 -0.012939453 -0.008117676 -0.013427734 0.0039367676 0.014892578
0001e0 e4 bb 91 bc ac bb 85 3c 87 3a df 3b 8a bc 4a bc
       -0.006958008 -0.017700195 -0.0052490234 0.016235352 0.0010299683 0.00680542 -0.016845703 -0.012329102
0001f0 79 bc 86 3c 7e bb 88 bc 92 ba 4e 3c 24 bc 42 bb
       -0.015197754 0.016357422 -0.0038757324 -0.016601562 -0.0011138916 0.012573242 -0.010009766 -0.002960205

encoder.block.0.layer.0.SelfAttention.relative_attention_bias.weight bf16 [32, 1]
000000 5e 3b 0b 3c 8c 3b e2 ba 7f bb 91 bb 1d 3c ff 3b
       0.0033874512 0.008483887 0.004272461 -0.0017242432 -0.0038909912 -0.004425049 0.0095825195 0.0077819824
000010 c3 39 cf bb 3c 3c d9 bb 73 3b 09 bc 71 bb 75 3a
       0.00037193298 -0.0063171387 0.011474609 -0.0066223145 0.0037078857 -0.008361816 -0.0036773682 0.00093460083
000020 d4 3b 4f bb 8e ba e7 3b 05 bb c3 ba ca 3b b1 bb
       0.0064697266 -0.0031585693 -0.001083374 0.0070495605 -0.002029419 -0.0014877319 0.006164551 -0.0054016113
000030 10 bc f3 bb eb bb b7 3b 93 ba 44 bb 11 bc bf bb
       -0.0087890625 -0.0074157715 -0.007171631 0.005584717 -0.001121521 -0.0029907227 -0.008850098 -0.0058288574

encoder.block.0.layer.0.layer_norm.weight bf16 [64]
000000 56 3d 59 3d 53 3d 4f 3d 50 3d 53 3d 5b 3d 50 3d
       0.052246094 0.052978516 0.051513672 0.05053711 0.05078125 0.051513672 0.053466797 0.05078125
000010 55 3d 52 3d 4b 3d 59 3d 4b 3d 45 3d 4a 3d 4d 3d
       0.052001953 0.05126953 0.049560547 0.052978516 0.049560547 0.048095703 0.049316406 0.050048828
000020 51 3d 52 3d 49 3d 4b 3d 54 3d 5d 3d 4e 3d 4e 3d
       0.05102539 0.05126953 0.049072266 0.049560547 0.051757812 0.053955078 0.05029297 0.05029297
000030 56 3d 59 3d 52 3d 4d 3d 4d 3d 4e 3d 4a 3d 52 3d
       0.052246094 0.052978516 0.05126953 0.050048828 0.050048828 0.05029297 0.049316406 0.05126953
000040 4c 3d 56 3d 4c 3d 4a 3d 57 3d 5f 3d 52 3d 47 3d
       0.049804688 0.052246094 0.049804688 0.049316406 0.052490234 0.05444336 0.05126953 0.048583984
000050 51 3d 58 3d 54 3d 54 3d 4c 3d 4b 3d 50 3d 4a 3d
       0.05102539 0.052734375 0.051757812 0.051757812 0.049804688 0.049560547 0.05078125 0.049316406
000060 4b 3d 5b 3d 4a 3d 4d 3d 56 3d 54 3d 58 3d 50 3d
       0.049560547 0.053466797 0.049316406 0.050048828 0.052246094 0.051757812 0.052734375 0.05078125
000070 5c 3d 4e 3d 58 3d 5c 3d 46 3d 50 3d 5a 3d 4c 3d
       0.053710938 0.05029297 0.052734375 0.053710938 0.048339844 0.05078125 0.053222656 0.049804688

encoder.block.0.layer.1.DenseReluDense.wi.weight bf16 [32, 64]
000000 fd ba ee 3a 59 3a c9 bb 4c bb d3 3b 1e bc a5 bb
       -0.0019302368 0.0018157959 0.0008277893 -0.006134033 -0.003112793 0.006439209 -0.009643555 -0.0050354004
000010 bc 3a 56 bc fc 3a b4 3a 46 3b 62 3c 27 3b d1 3a
       0.0014343262 -0.013061523 0.0019226074 0.001373291 0.0030212402 0.013793945 0.0025482178 0.0015945435
000020 6c 3b e6 bb 28 3b a0 3b 30 bc d8 3b 22 bc 8b bb
       0.0036010742 -0.007019043 0.0025634766 0.0048828125 -0.0107421875 0.006591797 -0.009887695 -0.0042419434
000030 d0 bb b1 b9 ea 3b e0 bb 19 3c 8f bb 11 bc 0c 3b
       -0.0063476562 -0.0003376007 0.0071411133 -0.0068359375 0.009338379 -0.0043640137 -0.008850098 0.0021362305
000040 04 3c 07 3c fb ba 6e bb 90 bb b3 bb 3c 3b a2 3b
       0.008056641 0.008239746 -0.001914978 -0.0036315918 -0.0043945312 -0.0054626465 0.0028686523 0.0049438477
000050 cf ba b0 3a 10 bc f8 ba 06 bb 96 3a 5e bb 73 3b
       -0.0015792847 0.0013427734 -0.0087890625 -0.0018920898 -0.0020446777 0.0011444092 -0.0033874512 0.0037078857
000060 a0 3b 6a bb e3 bb 14 3c ac bb 92 bb 53 39 a1 3b
       0.0048828125 -0.0035705566 -0.0069274902 0.009033203 -0.0052490234 -0.0044555664 0.00020122528 0.00491333
000070 c6 bb 31 3c b9 3a 39 bc b5 3a df 3b f3 3a cc bb
       -0.0060424805 0.010803223 0.001411438 -0.011291504 0.0013809204 0.00680542 0.0018539429 -0.006225586
000080 4e ba fd bb df bb f1 3b 5a bb 22 38 13 bb 8d bb
       -0.00078582764 -0.0077209473 -0.00680542 0.0073547363 -0.003326416 3.862381e-05 -0.002243042 -0.0043029785
000090 6e bc ae bb 1f bb 5e bc 88 bb 89 3b 54 3b 6b bc
       -0.014526367 -0.0053100586 -0.0024261475 -0.013549805 -0.0041503906 0.004180908 0.0032348633 -0.014343262
0000a0 3f bc fa bb d6 3b c3 ba 00 3b a3 3b 14 3c 0b 3c
       -0.011657715 -0.0076293945 0.0065307617 -0.0014877319 0.001953125 0.0049743652 0.009033203 0.008483887
0000b0 6b 3a 8e 3b f3 3b b8 bb ed 3b b7 bb 60 3b 39 bb
       0.00089645386 0.004333496 0.0074157715 -0.0056152344 0.007232666 -0.005584717 0.0034179688 -0.002822876
0000c0 12 bb 81 ba b7 ba 42 bb 32 bb 79 3b 56 ba 12 bc
       -0.0022277832 -0.0009841919 -0.0013961792 -0.002960205 -0.0027160645 0.0037994385 -0.0008163452 -0.008911133
0000d0 40 bb 1b 3c 01 3c 97 bb 10 bc cc 3a 67 bb 1d bc
       -0.0029296875 0.009460449 0.007873535 -0.0046081543 -0.0087890625 0.0015563965 -0.0035247803 -0.0095825195
0000e0 c8 ba 0d 3c 4e 3c 9c bb 1a bc df bb 63 bb 16 ba
       -0.0015258789 0.008605957 0.012573242 -0.004760742 -0.009399414 -0.00680542 -0.0034637451 -0.0005722046
0000f0 fe ba ae ba 3e 3b 1c 3c 5b 3a b1 3b 10 3c 6f bb
       -0.0019378662 -0.0013275146 0.00289917 0.009521484 0.0008354187 0.0054016113 0.0087890625 -0.0036468506
000100 42 3c a2 b9 d2 3b cf 3a 59 3c 90 3a 15 bb ce 3a
       0.01184082 -0.00030899048 0.0064086914 0.0015792847 0.013244629 0.0010986328 -0.0022735596 0.0015716553
000110 af 39 04 3b 23 3c 81 bc d8 b8 a0 bb 82 3b a5 3b
       0.000333786 0.0020141602 0.0099487305 -0.01574707 -0.000102996826 -0.0048828125 0.003967285 0.0050354004
000120 b5 3b 68 3b 8a 3b 20 bc d0 3b 65 bb 11 bc 34 3c
       0.0055236816 0.003540039 0.004211426 -0.009765625 0.0063476562 -0.0034942627 -0.008850098 0.010986328
000130 4a bc b7 3b 1a bb 83 bb d7 3b cd bb f5 bb 1d 3b
       -0.012329102 0.005584717 -0.0023498535 -0.0039978027 0.0065612793 -0.0062561035 -0.0074768066 0.0023956299
000140 3a bb 22 3c 67 3b 65 bb 66 3b 9c 3b 4b bb 3b ba
       -0.0028381348 0.009887695 0.0035247803 -0.0034942627 0.0035095215 0.004760742 -0.0030975342 -0.0007133484
000150 e8 bb e0 3b e2 3b 4a 3c 56 b8 4a 3a 89 39 e5 3b
       -0.007080078 0.0068359375 0.0068969727 0.012329102 -5.1021576e-05 0.00077056885 0.00026130676 0.0069885254
000160 96 3b 21 bc b7 3b 0c ba 40 bc 1a 3b 15 3c dd bb
       0.0045776367 -0.00982666 0.005584717 -0.0005340576 -0.01171875 0.0023498535 0.009094238 -0.0067443848
000170 7d ba ac b9 bc 3b 9d 3b 07 bc 24 3c 04 3a 93 bb
       -0.0009651184 -0.00032806396 0.0057373047 0.0047912598 -0.008239746 0.010009766 0.00050354004 -0.004486084
000180 d0 bb 1b 3b 07 bb 46 bb 58 3b 97 3b 55 3b 31 3b
       -0.0063476562 0.0023651123 -0.0020599365 -0.0030212402 0.0032958984 0.0046081543 0.003250122 0.0027008057
000190 31 bc 21 3b 6d bb be bb 0d bc b7 bb 96 bb 84 bb
       -0.010803223 0.002456665 -0.003616333 -0.00579834 -0.008605957 -0.005584717 -0.0045776367 -0.0040283203
0001a0 7a bc e8 39 56 bb 4f bb 86 3b a0 ba 8c b9 5d bb
       -0.015258789 0.00044250488 -0.0032653809 -0.0031585693 0.0040893555 -0.0012207031 -0.0002670288 -0.0033721924
0001b0 d1 ba 95 3a a4 3b 1d bb b7 3b f2 bb 7c 3c ad bb
       -0.0015945435 0.0011367798 0.005004883 -0.0023956299 0.005584717 -0.007385254 0.015380859 -0.005279541
0001c0 17 3b 44 bb 65 bc 5a 3b 5e bb 2c bc 8c bc 29 3c
       0.0023040771 -0.0029907227 -0.013977051 0.003326416 -0.0033874512 -0.010498047 -0.017089844 0.010314941
0001d0 c2 3b 10 3b 76 3a 0c 3c a5 bb d1 ba 17 3c de 3a
       0.00592041 0.0021972656 0.0009384155 0.008544922 -0.0050354004 -0.0015945435 0.009216309 0.0016937256
0001e0 81 bb 42 bb 98 3b 26 bc 35 bc 61 bb 4f 3b 0b bc
       -0.0039367676 -0.002960205 0.004638672 -0.010131836 -0.011047363 -0.0034332275 0.0031585693 -0.008483887
0001f0 85 3b 3d bc e2 b9 78 3b b9 bb a9 3b db bb 02 bb
       0.004058838 -0.0115356445 -0.0004310608 0.0037841797 -0.005645752 0.0051574707 -0.0066833496 -0.0019836426

encoder.block.0.layer.1.DenseReluDense.wo.weight bf16 [64, 32]
000000 bb 3b 43 3c 05 3c 27 ba 20 bc 9c 3b 2f 3c c9 3c
       0.005706787 0.0119018555 0.008117676 -0.00063705444 -0.009765625 0.004760742 0.010681152 0.024536133
000010 1a 3c 68 3c 2a 3c b9 bb 0b 3b 7a bc 07 3c 0e 3c
       0.009399414 0.014160156 0.010375977 -0.005645752 0.0021209717 -0.015258789 0.008239746 0.008666992
000020 85 bb 41 3c de bb a2 bb 97 bc d2 39 8e 3b 62 3c
       -0.004058838 0.011779785 -0.0067749023 -0.0049438477 -0.018432617 0.0004005432 0.004333496 0.013793945
000030 04 bc 73 3c 6b bc 37 3c 86 bc bb 3b 09 bc 8c b9
       -0.008056641 0.014831543 -0.014343262 0.011169434 -0.016357422 0.005706787 -0.008361816 -0.0002670288
000040 20 ba a6 3c 19 bc 2e 3a e3 3b 2c bc 41 ba cd bb
       -0.00061035156 0.020263672 -0.009338379 0.0006637573 0.0069274902 -0.010498047 -0.0007362366 -0.0062561035
000050 b8 3b 69 bc 13 bc 9a ba 03 bb d3 3b a9 3b 94 3b
       0.0056152344 -0.014221191 -0.008972168 -0.0011749268 -0.0019989014 0.006439209 0.0051574707 0.0045166016
000060 55 3b 8b 3b 92 bb b2 b9 53 3c 12 3c 8e 3b 22 3c
       0.003250122 0.0042419434 -0.0044555664 -0.00033950806 0.012878418 0.008911133 0.004333496 0.009887695
000070 24 bc 70 bc 69 bc 74 3b 07 bb 77 bc 30 bb be b6
       -0.010009766 -0.0146484375 -0.014221191 0.0037231445 -0.0020599365 -0.015075684 -0.0026855469 -5.6624413e-06
000080 3c bc f3 bb 19 3c ac bc 1e 3b 12 3c 32 3c d4 3a
       -0.011474609 -0.0074157715 0.009338379 -0.020996094 0.0024108887 0.008911133 0.010864258 0.0016174316
000090 30 bb 31 bb c4 3b 9d bb 12 bc 0c bc 8a bc bd 3b
       -0.0026855469 -0.0027008057 0.0059814453 -0.0047912598 -0.008911133 -0.008544922 -0.016845703 0.0057678223
0000a0 a8 bc f8 3b 0c 3a d4 bb 3e bc fd bb d0 3b 40 bc
       -0.020507812 0.0075683594 0.0005340576 -0.0064697266 -0.01159668 -0.0077209473 0.0063476562 -0.01171875
0000b0 8f 3b 82 bc 38 3b ee ba 84 bb 67 bb 4c bb 9e bb
       0.0043640137 -0.01586914 0.0028076172 -0.0018157959 -0.0040283203 -0.0035247803 -0.003112793 -0.0048217773
0000c0 5c bc a6 bc dd 3a 3a bc 0b bb 93 bc 7e b9 90 3b
       -0.013427734 -0.020263672 0.0016860962 -0.011352539 -0.0021209717 -0.017944336 -0.00024223328 0.0043945312
0000d0 77 ba c7 3b ee 3b 41 3c e0 3b 79 3c 50 bb 46 bc
       -0.0009422302 0.006072998 0.0072631836 0.011779785 0.0068359375 0.015197754 -0.0031738281 -0.012084961
0000e0 e6 bb 66 bc b8 3c 4f 3c da bb c1 bb a5 bb d3 bb
       -0.007019043 -0.014038086 0.022460938 0.012634277 -0.006652832 -0.0058898926 -0.0050354004 -0.006439209
0000f0 77 bc 77 3c d4 3b db 3b 5d 3c e0 bb eb 3c 5f 3c
       -0.015075684 0.015075684 0.0064697266 0.0066833496 0.0134887695 -0.0068359375 0.028686523 0.01361084
000100 eb 3b 04 3b d0 3a b9 ba 6b 3c ea 3b ec 3b 8c bc
       0.007171631 0.0020141602 0.0015869141 -0.001411438 0.014343262 0.0071411133 0.0072021484 -0.017089844
000110 5d bc 94 bb f7 b9 0a bb 61 bc 13 3b 71 3c 8d 3b
       -0.0134887695 -0.0045166016 -0.0004711151 -0.002105713 -0.01373291 0.002243042 0.014709473 0.0043029785
000120 84 39 36 3b 11 3c b7 39 a5 3b c9 bb 10 ba f4 ba
       0.00025177002 0.0027770996 0.008850098 0.0003490448 0.0050354004 -0.006134033 -0.0005493164 -0.0018615723
000130 90 bb 04 3c 3c bb 72 3c bc bb dd 3b 10 3c c5 3b
       -0.0043945312 0.008056641 -0.0028686523 0.014770508 -0.0057373047 0.0067443848 0.0087890625 0.006011963
000140 d1 3c e5 bb b6 bb aa bb 5e 39 ac bb 42 38 aa bb
       0.025512695 -0.0069885254 -0.005554199 -0.0051879883 0.0002117157 -0.0052490234 4.6253204e-05 -0.0051879883
000150 42 3b 9a ba 33 3c 53 b9 bb bc 28 3a 2f bc 9b 3b
       0.002960205 -0.0011749268 0.010925293 -0.00020122528 -0.022827148 0.00064086914 -0.010681152 0.0047302246
000160 f4 3b 35 bc 29 bc ca bb 13 bc 07 3c bd bc 28 bc
       0.007446289 -0.011047363 -0.010314941 -0.006164551 -0.008972168 0.008239746 -0.023071289 -0.010253906
000170 fc ba 56 3b 09 3b 81 bc 46 ba a5 3b 42 3b 8d bc
       -0.0019226074 0.0032653809 0.002090454 -0.01574707 -0.00075531006 0.0050354004 0.002960205 -0.017211914
000180 62 ba 2a bb 95 3c ce 3c aa bb 75 3a 46 3c e9 bb
       -0.0008621216 -0.0025939941 0.018188477 0.025146484 -0.0051879883 0.00093460083 0.012084961 -0.0071105957
000190 ff 3b 2c 3c 19 bc 05 bc a1 bc 83 3c 6c 3c 95 bc
       0.0077819824 0.010498047 -0.009338379 -0.008117676 -0.01965332 0.015991211 0.014404297 -0.018188477
0001a0 ae bb 74 3c d1 3b 3a 3c 5f 3a e3 bb 07 bc 4b bb
       -0.0053100586 0.014892578 0.006378174 0.011352539 0.0008506775 -0.0069274902 -0.008239746 -0.0030975342
0001b0 0c 3c 65 3c 89 bc 29 3c fd bb 53 3c 68 bc 8f ba
       0.008544922 0.013977051 -0.016723633 0.010314941 -0.0077209473 0.012878418 -0.014160156 -0.0010910034
0001c0 db b9 72 3c ba 3a ab bc 27 3c da bb 0d 3b c4 bb
       -0.00041770935 0.014770508 0.0014190674 -0.020874023 0.010192871 -0.006652832 0.0021514893 -0.0059814453
0001d0 3a 3c dc 3a 80 3c 0c 3b 47 3b ff bb 56 bb 37 39
       0.011352539 0.0016784668 0.015625 0.0021362305 0.003036499 -0.0077819824 -0.0032653809 0.0001745224
0001e0 61 bb 46 bb 15 3c 33 3c 83 b6 77 3b 0a 3b 37 3c
       -0.0034332275 -0.0030212402 0.009094238 0.010925293 -3.9041042e-06 0.003768921 0.002105713 0.011169434
0001f0 80 bb a9 bb f8 3b 93 3c 28 3c 43 bc 28 bc 6f 3b
       -0.00390625 -0.0051574707 0.0075683594 0.017944336 0.010253906 -0.0119018555 -0.010253906 0.0036468506

encoder.block.0.layer.1.layer_norm.weight bf16 [64]
000000 56 3d 57 3d 4e 3d 50 3d 4a 3d 51 3d 52 3d 51 3d
       0.052246094 0.052490234 0.05029297 0.05078125 0.049316406 0.05102539 0.05126953 0.05102539
000010 52 3d 51 3d 51 3d 54 3d 4f 3d 4a 3d 4e 3d 4f 3d
       0.05126953 0.05102539 0.05102539 0.051757812 0.05053711 0.049316406 0.05029297 0.05053711
000020 57 3d 51 3d 4e 3d 51 3d 51 3d 5a 3d 56 3d 50 3d
       0.052490234 0.05102539 0.05029297 0.05102539 0.05102539 0.053222656 0.052246094 0.05078125
000030 50 3d 54 3d 50 3d 57 3d 4d 3d 4f 3d 4f 3d 47 3d
       0.05078125 0.051757812 0.05078125 0.052490234 0.050048828 0.05053711 0.05053711 0.048583984
000040 4b 3d 4f 3d 51 3d 4d 3d 4f 3d 55 3d 4d 3d 4a 3d
       0.049560547 0.05053711 0.05102539 0.050048828 0.05053711 0.052001953 0.050048828 0.049316406
000050 4f 3d 49 3d 57 3d 4e 3d 4b 3d 4f 3d 4c 3d 44 3d
       0.05053711 0.049072266 0.052490234 0.05029297 0.049560547 0.05053711 0.049804688 0.047851562
000060 52 3d 4b 3d 4e 3d 4d 3d 55 3d 4f 3d 4f 3d 52 3d
       0.05126953 0.049560547 0.05029297 0.050048828 0.052001953 0.05053711 0.05053711 0.05126953
000070 56 3d 4e 3d 56 3d 53 3d 4a 3d 51 3d 4d 3d 50 3d
       0.052246094 0.05029297 0.052246094 0.051513672 0.049316406 0.05102539 0.050048828 0.05078125

encoder.final_layer_norm.weight bf16 [64]
000000 63 3d 4b 3d 63 3d 62 3d 62 3d 62 3d 62 3d 62 3d
       0.055419922 0.049560547 0.055419922 0.05517578 0.05517578 0.05517578 0.05517578 0.05517578
000010 63 3d 60 3d 62 3d 55 3d 4d 3d 58 3d 5f 3d 56 3d
       0.055419922 0.0546875 0.05517578 0.052001953 0.050048828 0.052734375 0.05444336 0.052246094
000020 4f 3d 51 3d 62 3d 3f 3d 61 3d 62 3d 50 3d 63 3d
       0.05053711 0.05102539 0.05517578 0.04663086 0.05493164 0.05517578 0.05078125 0.055419922
000030 4a 3d 63 3d 55 3d 53 3d 61 3d 55 3d 62 3d 49 3d
       0.049316406 0.055419922 0.052001953 0.051513672 0.05493164 0.052001953 0.05517578 0.049072266
000040 57 3d 57 3d 51 3d 62 3d 48 3d 61 3d 55 3d 62 3d
       0.052490234 0.052490234 0.05102539 0.05517578 0.048828125 0.05493164 0.052001953 0.05517578
000050 53 3d 43 3d 62 3d 63 3d 47 3d 3d 3d 47 3d 62 3d
       0.051513672 0.047607422 0.05517578 0.055419922 0.048583984 0.046142578 0.048583984 0.05517578
000060 37 3d 63 3d 63 3d 53 3d 55 3d 54 3d 57 3d 62 3d
       0.044677734 0.055419922 0.055419922 0.051513672 0.052001953 0.051757812 0.052490234 0.05517578
000070 62 3d 61 3d 56 3d 52 3d 4d 3d 51 3d 42 3d 58 3d
       0.05517578 0.05493164 0.052246094 0.05126953 0.050048828 0.05102539 0.04736328 0.052734375
