test/dummy-chronos2-model/model.safetensors (safetensors, 23656 bytes, 40 tensors)

encoder.block.0.layer.0.layer_norm.weight f4 [6]
000000 cd cc 4c 3d cd cc 4c 3d cd cc 4c 3d cd cc 4c 3d
       0.05 0.05 0.05 0.05
000010 cd cc 4c 3d cd cc 4c 3d
       0.05 0.05

encoder.block.0.layer.0.self_attention.k.weight f4 [16, 6]
000000 4b 46 d3 3b fc d3 9d 3c f5 9e e9 3c 55 7c ac 3b
       0.0064475886 0.019266121 0.02851818 0.005263845
000010 39 a2 ba bc 78 d0 c8 3c 68 6c e8 3b 2b aa ab bc
       -0.022782432 0.024513468 0.007093001 -0.020955166
000020 f2 66 93 bc d2 72 a9 3c e7 82 88 bc 3a 3d ee bc
       -0.017993424 0.020684633 -0.016663982 -0.02908193
000030 f4 82 53 3c 11 fc d3 3c e3 6a 83 3c de 75 f1 bb
       0.01290964 0.02587703 0.016042178 -0.007368787
000040 a4 9a 1a bc d0 57 80 3c 1d df 22 bc 2e e0 e8 3b
       -0.009436283 0.015666872 -0.00994089 0.0071068024
000050 82 87 01 bd 83 63 ab 3b 70 b0 40 bb 3d 74 b8 3c
       -0.03162337 0.0052303686 -0.002940204 0.022516364
000060 f1 62 0e 3d fa 97 14 bc 7c a3 44 bc 17 43 d9 3a
       0.034762327 -0.009069437 -0.012001868 0.001657578
000070 d6 ad 54 bd 9b 70 88 3b 2b 34 24 bd c7 46 c6 3b
       -0.051923595 0.0041638142 -0.040088814 0.006050918
000080 49 c2 85 3c 8b aa 9a bb 0d 92 1a 3b 32 64 eb bc
       0.016327994 -0.0047200373 0.0023585588 -0.0287343
000090 81 c9 22 3b 37 0d 83 bb 9b bc 26 3c f5 53 d5 bc
       0.0024839344 -0.003999378 0.010176803 -0.02604101
0000a0 f7 e7 aa 3c 1f 28 08 3d d5 72 9d 3c 0d 31 56 3c
       0.020862563 0.033241387 0.019219795 0.013073218
0000b0 de b3 72 3c f6 61 e2 bb 04 f5 c5 ba 96 18 97 ba
       0.0148133915 -0.0069086505 -0.0015102928 -0.0011527713
0000c0 7a 81 3e bd eb 01 4c bc 18 bc 9a bc c2 02 08 bd
       -0.046510197 -0.012451629 -0.018888518 -0.033205755
0000d0 da 9f e4 3b 70 da 46 3c 3f 23 9f bc 14 97 c3 3c
       0.0069770636 0.0121370405 -0.019425986 0.02387575
0000e0 77 ad 31 bc 60 ed 81 bb a5 54 d6 bb 4e f6 17 3a
       -0.01084458 -0.003965065 -0.006540852 0.0005796895
0000f0 c8 75 ab bc 9d e5 96 3b 51 89 67 bc c7 37 ac 3c
       -0.020930186 0.0046050088 -0.01413186 0.02102269
000100 f2 5f ce 3c aa 8f 03 3d 8a d9 c2 3c b6 82 c5 3b
       0.025192235 0.03211943 0.023785371 0.006027545
000110 5e a4 57 3c ac ae 18 3d aa b4 08 3d ca e5 36 bd
       0.013161747 0.037275955 0.03337542 -0.044652738
000120 15 e3 00 bc df 37 73 ba b8 4b c6 3c 99 79 51 3c
       -0.007866641 -0.000927804 0.024206027 0.012785339
000130 b6 36 a0 3b 6a 90 46 bc b8 16 40 3d 8f 48 32 3c
       0.0048893346 -0.012119392 0.046896666 0.010881557
000140 0b 0e 4c bd a3 ed 81 3c f4 70 0e bd 2d bf 15 bc
       -0.04981808 0.015860384 -0.03477569 -0.009139818
000150 79 44 05 3d c6 0e 7f 3c 42 63 d4 3c 0d db cd 3b
       0.032536004 0.015567487 0.025926236 0.0062822164
000160 06 97 bb 3c 87 f4 f8 bb 74 c0 ad 3c ec 14 83 bc
       0.022899162 -0.0075975093 0.021209933 -0.016001187
000170 f6 a7 77 3c 77 d8 4d 3d d5 06 5d 3c 50 d1 20 3d
       0.015115729 0.050255265 0.013490398 0.039262116

encoder.block.0.layer.0.self_attention.o.weight f4 [6, 16]
000000 6b e1 90 3c 13 ce 66 3c eb 81 3b 3a 34 24 47 bc
       0.017685613 0.014087218 0.0007152843 -0.012154628
000010 94 f7 b2 3a e7 ba e2 bb 0d 3a fb 3a fa 70 be 3c
       0.0013654106 -0.006919253 0.0019167081 0.02324723
000020 c9 11 ba bb a2 9b 5f 3c 68 78 9c 3c 88 ab 1c 3b
       -0.0056783897 0.013647946 0.019100383 0.0023905952
000030 4f 94 9c 3c 58 14 d5 ba 4b 5e c8 bb 41 83 bb 3b
       0.019113688 -0.0016256673 -0.006114756 0.005722434
000040 73 ae 4f 3b e5 f9 5a 3c c3 0f 8f 3b 28 33 f3 3b
       0.0031689673 0.013365244 0.0043658926 0.00742187
000050 30 42 13 3c c2 ce 6e bc 40 cb 0d bc 4c a6 00 bc
       0.008987948 -0.014575662 -0.008654416 -0.007852148
000060 72 17 5d 3c e7 ec 00 3c af 41 9b bb 09 64 06 bc
       0.013494359 0.007868982 -0.0047380547 -0.008202561
000070 67 02 b0 bc 22 f2 e3 bb fb 4c c5 bb 53 74 99 bb
       -0.02148552 -0.0069563547 -0.0060211397 -0.0046830564
000080 bd 7c f6 bc 40 91 42 3c fa f9 19 bc d5 02 1b 3c
       -0.030088777 0.011875451 -0.009397978 0.009461124
000090 ab 11 0b 3a 45 84 61 3b 9a 40 8e 3c d9 2b bb 3a
       0.0005305062 0.0034411114 0.017364789 0.0014280035
0000a0 ff 8a 53 bc fb e5 e7 bb 86 6d 45 3b db 88 cb bb
       -0.012911557 -0.0070769764 0.0030125096 -0.006211383
0000b0 e2 27 af 3c 5f a3 a0 bb a1 17 a3 bc f0 4e 09 3c
       0.021381322 -0.004902288 -0.019908728 0.008380637
0000c0 41 a1 03 3d fb f6 01 bb ed b5 4e 3c de 1f c4 3b
       0.032136206 -0.001983105 0.012616617 0.005985244
0000d0 7b 0b 89 3c cb cf 29 3a c1 08 27 3c 46 dc 31 3c
       0.016729107 0.0006477802 0.010194958 0.01085574
0000e0 53 1f 2d bc 80 85 c1 b9 87 03 a8 3c db a9 37 3c
       -0.01056655 -0.00036911294 0.020509494 0.01120993
0000f0 4f cd 6f 3c 5f a5 59 bc 41 ba 9d 3c 9f f4 4a 3c
       0.014636352 -0.013284056 0.019253852 0.012387424
000100 d7 91 b2 bc 5a 9c 2e 3b 98 84 4a 3c 59 78 a2 3b
       -0.021798057 0.0026643486 0.012360714 0.004958194
000110 75 02 f5 bc 6a 62 66 3c 07 e1 b0 bb 5f 0e 16 bc
       -0.029908398 0.01406155 -0.005397919 -0.0091587
000120 af 36 38 3c c8 1f 3b bc fc 95 86 3c bb 31 e1 3c
       0.011243506 -0.011421151 0.01642894 0.027489534
000130 d4 8f 9b bc b2 55 8f 3b d3 9c 8b 3a 26 c9 1d bc
       -0.018989481 0.0043742293 0.0010651596 -0.009630477
000140 c8 b1 25 3c 3b 4b 33 bc d2 47 0f bc dc 85 42 bc
       0.010113187 -0.010943229 -0.008745151 -0.011872735
000150 7f 45 7d bb 9d f6 0e bc f2 a9 fe ba 65 ba 5d 3b
       -0.003864616 -0.008725789 -0.001942931 0.0033833024
000160 d3 9f 20 bc 2d 18 56 ba 46 c8 3e bb 88 a3 e8 3a
       -0.00980373 -0.00081670546 -0.0029111071 0.0017748931
000170 e5 0c fe bb e7 b3 88 bc fd 6e 5a ba a2 56 6d 3c
       -0.007753002 -0.016687347 -0.00083325786 0.014485987

encoder.block.0.layer.0.self_attention.q.weight f4 [16, 6]
000000 2c 5f 5b 3c ab d1 4c bc f2 8c 49 3b f7 a1 a0 bb
       0.01338939 -0.012501161 0.0030754176 -0.00490212
000010 84 2d 70 bc f2 b0 13 3c 59 ec 00 3c 26 54 28 bc
       -0.014659289 0.009014355 0.00786885 -0.010273969
000020 e7 f0 0e bc 87 56 c6 bb b0 80 02 bc 13 6d 80 3c
       -0.008724428 -0.0060527953 -0.007965252 0.01567701
000030 d3 cf 01 3c c3 55 7e 3c 47 cf 28 bb 95 45 bc b9
       0.007923084 0.015523377 -0.0025758313 -0.00035909997
000040 44 e7 8e bc 36 d1 9d 3a 04 be 2f 3c 34 58 ca 3b
       -0.01744426 0.0012040499 0.010726456 0.0061750654
000050 22 e6 dc bb 0d 5e dd ba 7b b4 89 bc 1a 34 f0 bb
       -0.006741301 -0.0016888991 -0.016809693 -0.0073304297
000060 42 8b 64 3c f6 fd 36 bb c9 be 66 3c 58 ac cf 3a
       0.013949217 -0.0027922369 0.014083573 0.0015844209
000070 2a 03 6c 39 8e b5 e3 3b d3 81 39 bc 61 17 70 bb
       0.00022507893 0.0069491332 -0.011322456 -0.0036635029
000080 f2 d1 44 3c 69 bb a3 bc 79 bc 14 3c 5c c7 ec 3a
       0.0120129455 -0.019986825 0.0090781385 0.0018064785
000090 5d 55 f3 3b cc 31 e6 bb 9b 6d dc bb 12 97 51 bb
       0.0074259476 -0.007024979 -0.006726933 -0.0031980914
0000a0 6e d0 3c 3c 95 b5 50 bc 54 3e 12 3c c5 17 1d ba
       0.011524303 -0.012738605 0.008925993 -0.00059926166
0000b0 52 f5 e7 bb e5 a0 90 3c 11 65 3a 3a f8 42 13 3c
       -0.007078805 0.017654845 0.0007110397 0.008988135
0000c0 f3 eb c3 bb e2 2c 27 3c 70 51 fd bb 27 ba bb 3c
       -0.005979055 0.010203572 -0.0077306554 0.022915913
0000d0 2a 99 16 3c 4b 09 52 3c 09 0e 4d 3a 5b ef 4c ba
       0.009191791 0.012819598 0.0007822221 -0.0007817649
0000e0 d0 9f 90 bb 68 bf e8 ba 9d 28 bb 3a 65 50 7e bc
       -0.0044135824 -0.0017757239 0.0014279071 -0.015522097
0000f0 9d f0 8e 3b 12 95 52 3c 9a b3 60 3b 52 39 0a bc
       0.0043621794 0.012852924 0.0034286738 -0.008436518
000100 2b 67 86 3b 28 57 81 ba ed ab 80 bb b7 b7 bd bb
       0.004101654 -0.0009867894 -0.003926745 -0.005789723
000110 8c 65 96 bc 18 05 c1 3b 5b 92 19 3c 1b df 18 3c
       -0.018358968 0.0058905 0.009373273 0.009330536
000120 14 25 9a 3c 58 45 b6 b9 18 0c df bb 3f a3 2a bc
       0.018816508 -0.0003476541 -0.0068068616 -0.010414897
000130 cf dc a4 bc 1e bd 72 bc ba 28 a4 3c 48 e1 24 bb
       -0.020124821 -0.014815597 0.020038951 -0.0025158692
000140 17 91 68 3c a3 16 35 3c 87 a0 1d bc 75 f6 0b bc
       0.014194748 0.01105276 -0.009620792 -0.008542647
000150 11 fa fc ba f8 a6 08 3c fe 8d 83 bc 8d a2 79 bc
       -0.00193006 0.00834059 -0.016058918 -0.015236509
000160 02 d0 1c 3c 70 d1 27 3b f2 bf 8f 3c b0 84 41 3c
       0.009571077 0.0025607012 0.017547581 0.01181142
000170 e3 1a fe 3b 53 82 9e 3c a0 27 a2 bc 9d f0 11 3b
       0.00775467 0.019349253 -0.019794285 0.002226866

encoder.block.0.layer.0.self_attention.v.weight f4 [16, 6]
000000 4f d1 f8 bc ce 72 0c 3b f5 b0 32 bd 5b 39 85 bc
       -0.030373244 0.0021430734 -0.04362579 -0.0162627
000010 eb 66 51 3c 75 94 5a bd f8 dd 99 bb 0a 42 15 bd
       0.012780885 -0.053364236 -0.00469565 -0.036439933
000020 91 e1 a0 3b b3 bb 7f 3c f5 d7 33 bb 3b 98 54 ba
       0.004909702 0.015608716 -0.0027441953 -0.00081098423
000030 ad 18 df bb 82 1d ab 3c bb 5d 03 bd 51 0e ac bb
       -0.0068083615 0.020888094 -0.03207181 -0.00525073
000040 c5 06 07 3d 0d d7 e4 39 c9 c2 38 3d b1 79 dc 3a
       0.03296544 0.00043647774 0.045107637 0.0016820935
000050 77 4f 8e 39 7f 76 5e 3a 07 13 9d bc 81 9f 3a bc
       0.00027143557 0.0008486285 -0.019174112 -0.011390568
000060 6a 8e d5 3c 3a 48 2b 3d ff a8 d8 bc 96 80 8d bb
       0.026068885 0.041816927 -0.026447771 -0.004318307
000070 95 02 ba b9 ce 77 23 bc 5a 5a 60 3b 84 97 d9 bb
       -0.00035478608 -0.009977294 0.0034233541 -0.0066403765
000080 aa 66 c9 3b df 6c ff 3b 2e 38 84 bc 70 aa cd 3a
       0.0061462717 0.007794961 -0.01614007 0.0015691053
000090 37 61 9b 3b d9 fa 24 3c db 7a bf bc 94 da c1 bc
       0.0047418135 0.010069572 -0.023374012 -0.023663796
0000a0 58 9f f5 b7 6d 00 2c bd 18 15 72 bc cf 1f 99 bb
       -2.9280476e-05 -0.041992594 -0.014775537 -0.0046729813
0000b0 95 14 87 bc a7 7b 15 3c 50 c9 41 3a 0f ec 4c 3c
       -0.016489306 0.009123719 0.00073923636 0.012507453
0000c0 3a b4 80 bb 7b f1 e4 bb 1e 36 42 3c 61 7e bd 3c
       -0.0039277347 -0.0069867945 0.011853723 0.023131551
0000d0 4a 82 9f 3b eb 19 9c bb d4 58 f9 bc 91 d2 ba 3c
       0.0048678266 -0.004763832 -0.030437864 0.022805484
0000e0 89 6b 2d 3c 69 e3 02 3c d4 75 37 3c dd 5f b6 3c
       0.01058472 0.007988789 0.011197526 0.022262508
0000f0 a6 1b bc 3c 1b dd 53 bc c8 a5 19 3d 96 b1 77 3b
       0.022962403 -0.012931134 0.037511617 0.0037795058
000100 94 99 5f 3c e6 83 92 bc ba 43 14 3c 10 47 6d bc
       0.013647456 -0.01788516 0.00904935 -0.014482275
000110 8b f0 6a 3c d3 8a d6 3c 7a d7 12 3c 7f d2 b2 ba
       0.0143395765 0.026189243 0.008962506 -0.0013643055
000120 8c ef 8f bc f0 8e af 3b ab 4f 77 bc 03 1e 82 3b
       -0.01757028 0.0053576156 -0.015094678 0.003970863
000130 e5 2a 84 3d 44 af 2d 38 31 7b 5f 3c 62 5a 43 bd
       0.06453494 4.1409643e-05 0.013640211 -0.047693618
000140 0e 51 fb 3c bb 38 62 bc 6a 9a f8 3c 98 dc a3 bc
       0.030678298 -0.013807471 0.030347068 -0.020002648
000150 86 98 37 3c 7d cf bd bb d3 ba b9 3a 16 b6 c2 3c
       0.011205798 -0.005792557 0.0014170058 0.023768466
000160 83 f2 e3 3c 35 07 bf bc 8a c1 4f bc 37 c7 86 3c
       0.0278256 -0.023318866 -0.012680421 0.016452415
000170 62 af 52 3c 9b 69 98 bc c4 9f 2a 3c 12 2e d7 bc
       0.012859197 -0.018605044 0.010414068 -0.026267085

encoder.block.0.layer.1.layer_norm.weight f4 [6]
000000 cd cc 4c 3d cd cc 4c 3d cd cc 4c 3d cd cc 4c 3d
       0.05 0.05 0.05 0.05
000010 cd cc 4c 3d cd cc 4c 3d
       0.05 0.05

encoder.block.0.layer.1.self_attention.k.weight f4 [16, 6]
000000 47 4e b6 bb 0a ce 48 3d 9c cf aa 3c d4 8a 0f 3c
       -0.0055635306 0.04902462 0.020850949 0.008761127
000010 98 8c 58 bc 09 c3 cb bc 36 0b b8 bb 97 a9 a9 3a
       -0.013217114 -0.024873273 -0.005616571 0.0012944218
000020 9e 1f 11 bd c6 15 c5 bb b9 33 02 bc 8c df 08 3d
       -0.035430543 -0.0060145585 -0.007946902 0.033416316
000030 8c d2 90 3c cc c9 31 bc d1 0b 9e 3b 5f 1a e7 bc
       0.017678522 -0.010851335 0.004823186 -0.028210817
000040 38 a9 03 3c 04 8b bb bb 23 ec 4c 3c fd 55 53 3c
       0.00803595 -0.005723359 0.012507471 0.012898919
000050 9b 97 89 bb b4 45 a1 bb 20 5a 43 3c 9b 73 81 3c
       -0.004198981 -0.0049216393 0.011923343 0.015802195
000060 08 f7 bc 3c c5 86 ab 3c 53 70 d8 bb 99 d4 00 bd
       0.023067012 0.020938287 -0.006605187 -0.03145275
000070 4e 1c 0e bc 6c 28 7c 3c 76 51 2a bd 3e 9d 0d bd
       -0.008673741 0.015390497 -0.041581593 -0.034573786
000080 15 e3 11 3b 9a f8 ae 3c a7 09 c1 3b 62 c5 12 3d
       0.0022260596 0.021358777 0.005891043 0.03583277
000090 9c 86 c1 3b ca 30 e5 bc 62 ad 99 bc f3 c7 c5 bc
       0.0059059393 -0.027977366 -0.018759433 -0.024143195
0000a0 35 84 80 3c 6c 62 8e 3c 96 7b cb 3c 0e 9d 69 bc
       0.015688041 0.017380916 0.024839204 -0.014258636
0000b0 39 b3 0b bd 9c aa e9 3c cd 71 63 3c 2d 93 15 bd
       -0.034106467 0.028523736 0.013882113 -0.03651731
0000c0 31 2c 11 3c fc 7c c1 bc f1 dc ad 3c 84 da 90 bc
       0.008860634 -0.023619168 0.021223517 -0.017682321
0000d0 b4 df 08 3b b1 46 71 bc a8 9d a3 3c e1 21 45 3c
       0.002088529 -0.014726327 0.019972637 0.012032003
0000e0 7e 8b b1 bc bb 32 d5 bc ab 19 0a bd 57 8a 2c bc
       -0.02167296 -0.026025167 -0.033715885 -0.01053103
0000f0 d5 0a 35 bd a2 bc 9d bc cb 3f 15 3c a2 38 ed bc
       -0.044199783 -0.019254986 0.009109448 -0.028957669
000100 75 1e ee bc 76 c2 36 bc a7 54 ec 3b 44 05 7c bb
       -0.029067257 -0.011154762 0.00721224 -0.0038455287
000110 9e 04 d7 3c dd dc a6 bc a6 f1 5c bc 02 8c 1e bd
       0.026247319 -0.020368988 -0.013485348 -0.03870774
000120 ea b2 80 bc 76 9e 28 bc d5 ac 17 bd 6e a5 a5 3c
       -0.015710313 -0.010291686 -0.03703006 0.020220485
000130 97 dc ab 3b 17 dc 48 bc 84 73 86 3c e3 f1 18 bd
       0.005244802 -0.012259505 0.016412504 -0.037340056
000140 8a 85 89 3c 4d 66 a6 3c 97 5f d2 b9 cb 04 7d 3c
       0.01678731 0.020312453 -0.0004012554 0.015443037
000150 03 ac 53 bc 93 7b 86 bc 48 26 02 3d af ff c7 3c
       -0.012919429 -0.016416347 0.03177479 0.024413912
000160 21 53 01 bd 86 e5 99 3c 2a e6 bb 3c 8c b7 0c bb
       -0.03157342 0.018786203 0.0229369 -0.0021471707
000170 f4 e8 b2 ba 52 ac cb bc 7c e4 7e bc 92 21 94 3c
       -0.0013649748 -0.024862442 -0.015557405 0.018082414

encoder.block.0.layer.1.self_attention.o.weight f4 [6, 16]
000000 88 d9 86 3c d1 06 c2 bc d7 7f 35 bc 43 6a fa 3a
       0.016461149 -0.023684891 -0.011077843 0.0019105155
000010 0b c4 8f bc 4a 6c 19 bc 21 2d 37 3c 1f 51 bc bc
       -0.017549535 -0.009364197 0.011180193 -0.0229879
000020 a0 96 ce ba 68 4b 65 bc 49 88 04 bc 92 b4 59 bb
       -0.0015761442 -0.013995029 -0.008089134 -0.00332192
000030 03 9e 49 bc 0b 66 04 3c e5 48 c3 bb ff 66 9a 3c
       -0.012305739 0.00808097 -0.0059596174 0.01884794
000040 49 5b c9 bb 12 9e 10 3b 53 1c c1 ba 6a a1 13 bc
       -0.0061449152 0.0022066873 -0.0014733173 -0.009010652
000050 9f b1 95 39 39 ef c6 3a 7a a7 6f bb d3 04 13 3b
       0.00028551833 0.0015177495 -0.003656833 0.0022433295
000060 5e eb b8 36 ab 5f 7e bb 1b 9f 82 bc 45 58 9b 3b
       5.5110277e-06 -0.0038814347 -0.015945008 0.004740747
000070 db e5 0a 3c 0f fd 9f 3a 93 6f b7 3b 20 d1 d0 bb
       0.008477653 0.0012206155 0.0055980175 -0.006372586
000080 df 6a a6 3c 12 4c 92 bb 41 6a 18 bc af 6c d5 3b
       0.020314632 -0.0044646347 -0.009302677 0.0065132002
000090 07 33 2a 3c 5d ad 95 bc 2a 76 67 3c 87 cf 1a 3c
       0.010388142 -0.018271143 0.014127294 0.009448892
0000a0 cf 51 5f bc 3f a2 83 bc ad f1 40 3c 74 c4 9f 3c
       -0.0136303445 -0.016068576 0.01177637 0.019502856
0000b0 da 7e 68 bc 1f 31 3a bc 7f 27 98 bc 27 c6 e8 3a
       -0.0141904 -0.01136425 -0.01857352 0.0017759249
0000c0 a3 3e dd 3c 80 fc d1 39 3b f3 14 3b 45 65 85 3b
       0.027007407 0.00040051714 0.0022727984 0.00407091
0000d0 ec 27 9c ba 2a 3b 4f 3b 23 85 1d 3c 2f dc 80 bc
       -0.0011913753 0.0031620958 0.009614262 -0.015729992
0000e0 79 f6 8f bc 8a 74 51 3a 06 45 8a bb 3d 9e 6f bb
       -0.017573582 0.0007990083 -0.004219654 -0.0036562823
0000f0 bc 1f a7 3b 42 db a2 bc fd 33 6d bc 7b 1d 16 3b
       0.0051002186 -0.01987994 -0.014477727 0.0022905755
000100 c0 43 90 bc d9 37 ca bb 57 d1 36 bc d0 f7 43 3c
       -0.01761043 -0.0061712083 -0.011158309 0.011960939
000110 62 69 35 3a 48 8b 06 3b ad 6f 74 bb 2c 30 89 bc
       0.00069203053 0.0020529795 -0.003729801 -0.016746603
000120 97 ed 89 3b 2f 07 fe 3c 21 4f 3f bc 87 58 c7 3c
       0.004209231 0.031009285 -0.011676581 0.024334205
000130 af dc 87 3b 1b c3 56 3b ad e9 87 3c 65 14 71 bb
       0.0041461806 0.00327701 0.016590917 -0.0036785838
000140 2b 0a 44 3c 75 b3 50 bb ef 27 06 bd 4d 24 d7 bc
       0.011965315 -0.0031845246 -0.032752927 -0.026262427
000150 cb 9a 0e 3c 55 d3 d3 bc 83 b9 6a bb e7 29 ba bb
       0.008703898 -0.025857607 -0.003581614 -0.0056812647
000160 a4 46 1b 3b 30 a9 3b 3b be 1b 04 3a 9d b2 18 3c
       0.0023693228 0.002863478 0.00050395343 0.0093199285
000170 0a 0d 25 3c 23 d1 bd bb e3 82 0f 3d 11 37 81 bc
       0.01007391 -0.0057927533 0.035036933 -0.015773328

encoder.block.0.layer.1.self_attention.q.weight f4 [16, 6]
000000 dc 91 00 3c 9b 47 fe bb cb cb 86 bc ac 6f f1 bc
       0.007847276 -0.007760001 -0.016454598 -0.029472195
000010 70 2d 37 3b a6 11 50 3b d0 76 e0 3b c9 7b b9 3b
       0.0027950667 0.00317488 0.006850101 0.0056605083
000020 a0 7c 56 3b e4 d1 6d ba 01 56 8a 3b 01 4e 07 bc
       0.003272809 -0.00090721087 0.0042216782 -0.008258344
000030 86 bb f6 3b 06 11 11 bc a8 1b 4d bc ee e5 4f 3c
       0.0075296788 -0.008854156 -0.012518801 0.012689097
000040 dd 02 8d 3b a5 a8 a3 bb 6c fe a8 bb 06 81 10 bc
       0.00430332 -0.004994469 -0.0051572826 -0.008819824
000050 35 97 c3 3b 8d c3 58 bc 6c c4 34 bc 37 da 3e bc
       0.005968953 -0.013230217 -0.011033159 -0.011648706
000060 67 18 37 3c db 44 ac 3c 85 f6 2c 3c 20 7b aa 3b
       0.011175252 0.021028927 0.010556822 0.005202666
000070 57 72 d7 ba 33 15 2a bc fa 08 68 3c 9c 06 35 bc
       -0.0016437274 -0.010381031 0.014162296 -0.011048939
000080 0a 95 49 3b 6e 91 0f bc f5 8c 68 bb 59 fc 92 bb
       0.0030759 -0.0087627005 -0.0035484408 -0.0044856486
000090 b6 45 2c 3a f2 ed 21 bc 8e c8 a5 3b d8 06 d1 bb
       0.0006571667 -0.009883391 0.0050593084 -0.0063789897
0000a0 c6 a6 c4 bb e5 91 06 3c 8b 14 c8 3b 85 4c 3c 3c
       -0.0060013263 0.008213495 0.0061059645 0.011492853
0000b0 cc d0 24 3c 90 21 10 ba 23 08 97 bb 26 b5 52 bc
       0.010059547 -0.0005498165 -0.0046091243 -0.012860572
0000c0 ba 7f 84 3c 85 4b 58 3b 43 2b e0 3b 1e 70 c8 bb
       0.016174186 0.0033003998 0.0068410947 -0.006116881
0000d0 1a 29 6d 3b 67 c8 07 3c 63 dd 9c bc d7 1f 72 bc
       0.0036187829 0.008287526 -0.019148534 -0.014778099
0000e0 25 23 5a 3b 90 5c 00 bd 0c 86 9b bc 98 8d 12 bb
       0.0033285108 -0.031338274 -0.018984817 -0.0022362228
0000f0 e9 59 25 3c b8 98 94 3b 58 e9 7e bb 37 bf fd 3c
       0.010092237 0.004534807 -0.0038896408 0.030974967
000100 b6 ba 2e 3c 5b 5e 33 bb cd 72 55 3b 81 44 b7 bb
       0.010664633 -0.0027369473 0.0032569647 -0.005592883
000110 9e 55 5c bb f7 09 59 3c a7 41 e5 bc 28 52 76 3c
       -0.0033620368 0.013247005 -0.027985407 0.015034236
000120 40 17 1b bc 24 f3 4a 3b 30 16 23 bc ca 82 37 bc
       -0.009465992 0.0030967677 -0.00995402 -0.011200616
000130 64 14 cf bc 00 b5 68 bc fa a2 37 bc b5 63 12 3c
       -0.025278278 -0.01420331 -0.01120829 0.008934905
000140 c6 f1 f5 3a 8a d7 26 3d b5 d6 c2 b8 f8 1e d8 b9
       0.0018764071 0.040732898 -9.290633e-05 -0.00041221804
000150 43 d2 2c 3c 56 bc 02 bc 1e 49 e6 b9 85 d3 20 3c
       0.010548177 -0.007979473 -0.00043923495 0.009816055
000160 8e 70 20 3c f7 7c 09 bc 92 75 d9 3a 35 d5 42 3c
       0.00979246 -0.00839161 0.0016590825 0.011891653
000170 d6 57 7c 3c 3a c8 48 3a 7d 43 ca 3b fb 55 df 3a
       0.015401801 0.00076592306 0.006172596 0.0017039174

encoder.block.0.layer.1.self_attention.v.weight f4 [16, 6]
000000 af d0 63 3d ff 53 f5 bc b2 48 b4 3c ed 0d 18 3a
       0.055618938 -0.029947279 0.02200732 0.0005800415
000010 ec a6 ba 3c 0e ad d4 bc 27 78 74 bc 2b 13 f8 ba
       0.022784673 -0.025961425 -0.014921225 -0.0018926611
000020 10 42 f2 bb 63 00 19 3d 14 cc 8b bc 6c 98 b0 bc
       -0.007393129 0.037353884 -0.017065085 -0.021557055
000030 33 f4 aa 3c 1d 63 dd 3b 15 b0 e2 3c 90 9f 94 3c
       0.020868396 0.0067562 0.027671853 0.018142492
000040 e9 c9 a8 3c 64 a6 24 3c bf e0 5e 3c d0 bf 89 ba
       0.02060409 0.010049436 0.013603388 -0.0010509435
000050 62 35 9a bc 60 fc 9e 3c 30 82 48 bc 86 8c 5d 3b
       -0.018824283 0.019407451 -0.01223807 0.0033805682
000060 96 be d9 3c 2c 6e 33 bc ad a0 21 3d 2d 9b 7b 3c
       0.026580136 -0.01095156 0.039459873 0.015356821
000070 72 36 57 bc 7a f6 0f 3d 72 fe 59 3c 0b 50 7e bd
       -0.013135539 0.035147168 0.013305293 -0.062088054
000080 37 77 f6 bb 52 99 41 b9 50 d4 90 bc 76 6f 76 3b
       -0.0075215357 -0.0001846303 -0.017679363 0.0037603057
000090 8b e9 c0 3b 08 0a 59 3c d2 d5 4c 3c 28 e4 0f bc
       0.0058872155 0.013247021 0.012502151 -0.008782424
0000a0 03 b4 a8 3c fa bf 87 bc 34 a4 cb 3c 54 38 09 3d
       0.020593649 -0.016571034 0.024858572 0.033500984
0000b0 8d de 61 3d 6c 3c 0a 3d 86 a4 40 3b 78 f9 06 bc
       0.05514388 0.03374903 0.0029394939 -0.008238189
0000c0 0f 68 0a bd 13 a4 89 b8 22 9f c8 3c f8 53 ee bc
       -0.033790644 -6.56323e-05 0.024489943 -0.029092774
0000d0 35 ae 1e 3c 82 9f b7 bc 9e 74 76 3b a3 c6 da 3b
       0.009685089 -0.022414926 0.003760613 0.0066765114
0000e0 48 07 92 bc 3c 19 6a 3c 68 17 be 3c 90 d3 7f bc
       -0.017825738 0.014288243 0.02320452 -0.015614405
0000f0 17 e2 f5 3c 4d df 9c bc db 3e 1d bc e2 0e 39 3b
       0.030015035 -0.019149447 -0.009597505 0.002823763
000100 b5 b8 e8 3c 9f 60 13 3d 40 76 96 bb f9 b6 eb 3c
       0.028408388 0.035980817 -0.004591733 0.028773772
000110 19 22 a2 3c c5 09 a5 39 6f 8c de bc c3 b2 a2 bb
       0.01979165 0.0003147853 -0.027166573 -0.0049651577
000120 60 a6 59 bc 4c be 01 3d c9 40 90 3c c3 f1 21 3b
       -0.013284296 0.031675622 0.017609017 0.0024710752
000130 2f 48 69 ba 35 95 da 3c d2 59 57 3b 89 3e 7f bc
       -0.0008899001 0.026682476 0.0032859934 -0.015578874
000140 7d 87 78 bc c4 a6 07 bd ba 99 83 3c b4 c2 81 3c
       -0.015169022 -0.033118024 0.016064513 0.015839912
000150 af 78 83 bc d9 ac 59 3c 68 62 fe 3c 3c 4a 8e 3c
       -0.016048757 0.013285839 0.031052783 0.017369382
000160 93 8a 7f bc 72 94 9c ba 14 e2 3a 3a 49 82 b5 bc
       -0.0155970035 -0.0011946096 0.0007129025 -0.022156851
000170 44 30 82 ba a2 b1 12 3d 8a 45 fe 3c 38 bb 13 bd
       -0.0009932597 0.035813935 0.031039018 -0.036067218

encoder.block.0.layer.2.layer_norm.weight f4 [6]
000000 cd cc 4c 3d cd cc 4c 3d cd cc 4c 3d cd cc 4c 3d
       0.05 0.05 0.05 0.05
000010 cd cc 4c 3d cd cc 4c 3d
       0.05 0.05

encoder.block.0.layer.2.mlp.wi.weight f4 [8, 6]
000000 e9 5e dc bb ca 0d 28 3c af 07 dc bc ec e5 b6 bc
       -0.0067251814 0.010257194 -0.026859133 -0.022326432
000010 f2 90 26 bc da 57 86 bc 0f f0 6f bc c4 43 c2 bb
       -0.010166394 -0.016399313 -0.014644637 -0.0059284884
000020 09 e4 f4 bc 25 87 da 39 f8 f6 20 3c 41 8e 0a bc
       -0.029893892 0.0004168089 0.009824507 -0.008456768
000030 40 75 b3 3b a6 09 a7 3c 28 4e 19 bb 5f be 1a 3c
       0.005476624 0.020390343 -0.0023392532 0.009444802
000040 f2 5a 7b 3b 64 57 c9 bc a5 f5 bf bc ef af 47 3c
       0.0038353768 -0.024577804 -0.023432562 0.012187942
000050 aa 23 f0 3b 18 b1 de 3c b0 99 5a bc aa 7c fe 3c
       0.0073284702 0.027184054 -0.013342306 0.031065304
000060 7d 4d 9e bc bc 94 83 3c 4a 0d cc 3c 80 b4 a7 3b
       -0.019324059 0.016062133 0.02490868 0.005117953
000070 22 75 25 bd ba 0e 47 bc 62 40 b2 3c 05 93 c5 3c
       -0.04039491 -0.012149507 0.021759216 0.024117956
000080 8e f6 c4 3c d2 8a c5 bc 0e 3f e0 3c 63 fb a6 3c
       0.024043348 -0.024114046 0.027373817 0.020383542
000090 7b b3 02 3c 3c 0e 04 3c 4a d5 ba bc 00 76 dc bb
       0.007977362 0.008060034 -0.022806782 -0.006727934
0000a0 fa 57 7e 3c 7f 0f 63 bc bd b2 97 3c 65 c4 72 3c
       0.015523905 -0.013858675 0.018517846 0.014817332
0000b0 fe 9d 40 3c 44 4e f1 3c a8 73 6e bc 83 f3 a1 bb
       0.011756418 0.029456265 -0.014553942 -0.004942359

encoder.block.0.layer.2.mlp.wo.weight f4 [6, 8]
000000 6e 9b fb bb 63 da 27 bd 88 58 fb bc 53 01 3c 3c
       -0.007678441 -0.040979754 -0.030681863 0.011474925
000010 af 2b 42 bc cc 0d fd 39 af 89 ec bc d5 c0 00 bd
       -0.011851235 0.000482662 -0.028874246 -0.0314339
000020 42 fc 2c 3c 89 6c 25 bb 88 a3 b7 bc 69 52 8d bc
       0.01055819 -0.0025241694 -0.022416845 -0.01725121
000030 37 b7 1a 3c 88 2f 9e 3b 9e f9 b6 3b cd 74 ea bb
       0.009443096 0.0048274435 0.005583956 -0.007155037
000040 e1 ed 8f bc eb 66 0b 3d 31 f2 02 bd 34 26 fa bc
       -0.017569484 0.034033697 -0.031969253 -0.030535795
000050 97 25 47 3c 18 49 74 bc 71 88 2c bc 14 63 33 bd
       0.012154958 -0.014910005 -0.010530577 -0.04379566
000060 77 4f a2 3c 4a 18 c7 bb 56 9d 12 3d 57 53 cc bb
       0.019813282 -0.0060758935 0.03579458 -0.006235521
000070 91 fa f6 bc 08 28 c3 bc d3 e1 07 bd 24 1a 2a 3c
       -0.030148776 -0.0238228 -0.033174347 0.010382209
000080 35 16 d9 bc 0c fe 8a ba 30 2a 37 3c d8 15 02 3b
       -0.026499847 -0.0010604276 0.011179492 0.0019849446
000090 bd b7 95 3b 8f d1 55 bc 09 4f c7 bc ea 3e 1a bd
       0.0045690225 -0.013050451 -0.02432968 -0.037657656
0000a0 56 c8 58 bc 64 a9 e5 3a 4b 65 28 3a 6a 51 43 bc
       -0.013231358 0.0017521796 0.0006423785 -0.011921266
0000b0 89 84 7f bb db bb 33 3c c6 93 9b bc fa d8 80 bc
       -0.003898891 0.010970081 -0.018991362 -0.015728462

encoder.block.1.layer.0.layer_norm.weight f4 [6]
000000 cd cc 4c 3d cd cc 4c 3d cd cc 4c 3d cd cc 4c 3d
       0.05 0.05 0.05 0.05
000010 cd cc 4c 3d cd cc 4c 3d
       0.05 0.05

encoder.block.1.layer.0.self_attention.k.weight f4 [16, 6]
000000 31 d0 a4 bb 61 e9 07 3d 31 80 0a bd a8 a1 b5 3c
       -0.005029701 0.03318155 -0.03381366 0.02217181
000010 59 ee bf bb 56 21 9e 3c 65 9a 31 bc 76 a9 90 bc
       -0.0058572707 0.019303005 -0.010840033 -0.01765893
000020 bb da ed bc ce 5a 0d 3c 3e 6f 8e 3c 8d 1b b9 3b
       -0.029034963 0.008627607 0.017387029 0.0056490363
000030 fe a9 8d bc aa 63 a7 bb cf 6f 82 3c fc 82 33 3c
       -0.017292973 -0.0051083164 0.015922455 0.010956522
000040 6d c5 f7 3c 7b d7 38 3b 5f e7 b9 bb 06 78 11 3d
       0.030245507 0.0028204608 -0.0056733335 0.035514854
000050 cd 14 9f 3b 62 c0 81 3c 5e 14 04 bd 60 ee 1b 3d
       0.0048547746 0.015838806 -0.032245986 0.03806913
000060 55 55 88 3a ae 78 bc bc 45 34 da 3b 6f c6 c0 bc
       0.0010401407 -0.023006763 0.006659063 -0.02353212
000070 8f 92 b8 bc 90 e6 cc bb bc 70 ed 3a 2c 1e 6d bc
       -0.022530822 -0.006253071 0.0018115263 -0.014472526
000080 39 ff 86 3c 78 16 37 bd 2b 74 69 bc 68 73 ad bb
       0.016479122 -0.044699162 -0.014248888 -0.0052932985
000090 99 e9 88 3c cd df 2e ba 44 4c be 3c ea 13 b9 bc
       0.01671295 -0.0006670922 0.023229726 -0.022592504
0000a0 28 53 11 bd 40 6d b3 3c b8 0d 5b 3b bc 7a a2 3b
       -0.035479695 0.02190268 0.0033424925 0.0049584787
0000b0 c5 92 e6 bc ad 04 d3 3b f1 18 27 3c 61 65 0b bd
       -0.028146157 0.0064397664 0.010198818 -0.03403223
0000c0 2f bd 53 3c ab b5 4a bd e4 8a 8c bb 9d 1f c1 bc
       0.012923523 -0.04948966 -0.004289018 -0.023574645
0000d0 a4 e4 ab 3c 09 5f d9 bb 80 60 9f 3b 09 90 cb bb
       0.020983048 -0.0066336435 0.0048637986 -0.0062122387
0000e0 73 23 3e bd 5b 34 13 3d ba 92 37 3d cd d6 b3 bb
       -0.046420526 0.035938602 0.044817664 -0.0054882527
0000f0 5b da 8a bc 7a 56 cb 3c 9a eb b6 3b 5e 7f a4 3c
       -0.016949823 0.024821509 0.005582285 0.020080265
000100 5a 17 0a bc d3 bc ea 3c ee 87 20 bb 90 e8 90 3c
       -0.008428419 0.028654492 -0.0024495083 0.01768902
000110 f4 6e b2 bb 52 94 1e bd 74 26 a5 bc 97 7d 20 bd
       -0.0054453555 -0.038715668 -0.020159937 -0.03918227
000120 78 57 8b bc a9 ef 81 bc a2 24 ec 35 34 2c 98 bc
       -0.017009482 -0.01586135 1.7594032e-06 -0.018575765
000130 68 aa 95 3b cf 1a 2c 3c 7c 90 45 3a a2 56 f7 bc
       0.004567433 0.010504439 0.00075364835 -0.030192677
000140 a8 1f 65 bc c5 8e 2b 3c bd b1 98 3c 20 4f c7 bc
       -0.013984598 0.010471051 0.01863944 -0.024329722
000150 42 5b 25 3c 4e 7f 4f 3c b0 65 83 bc 98 4a 3f 3d
       0.010092558 0.012664629 -0.0160397 0.046701998
000160 6c 77 9d 3c 19 dc 88 3b fe 46 cb bc 94 cc d0 3b
       0.019221984 0.0041766283 -0.024814125 0.006372044
000170 98 d3 f1 3a 3d 59 80 ba b9 e4 ca 3b 08 2f cc bb
       0.0018449901 -0.000979222 0.0061918166 -0.0062311925

encoder.block.1.layer.0.self_attention.o.weight f4 [6, 16]
000000 68 78 52 bc 2d fc ee bb 84 f7 28 3c bb a1 08 3c
       -0.01284609 -0.0072932453 0.010312919 0.008339341
000010 53 80 33 bb ac 78 16 bc 8c d2 31 3c 2a 62 07 3b
       -0.002738972 -0.009184044 0.010853421 0.0020657876
000020 b5 38 79 bb a1 4f 11 3b 0f bc 85 bb 4d 8c c2 bb
       -0.0038028185 0.0022172707 -0.004081256 -0.0059371353
000030 39 52 06 3d 20 3c 81 3c 45 4a e5 3b 47 48 c1 ba
       0.032793257 0.01577574 0.006997379 -0.0014746272
000040 8f 6f a0 3b ad 00 1e bc 37 78 70 3c 78 25 10 bb
       0.0048961113 -0.009643716 0.014677099 -0.002199499
000050 3a b3 ac bb 77 2a fb bb 18 b3 e3 bb bb 82 63 3c
       -0.005270389 -0.0076649743 -0.00694884 0.013886149
000060 f2 08 54 b8 cd 8d e4 ba 6d ea d4 3c f2 23 c4 bb
       -5.055307e-05 -0.001743728 0.02599069 -0.0059857303
000070 62 33 9b bb ab 50 8d bb 26 56 99 bc c7 07 a4 bc
       -0.00473635 -0.004312595 -0.018717837 -0.02002324
000080 03 d0 a6 3b eb 03 71 bb 28 8d 5f 3b f8 62 34 bb
       0.005090715 -0.0036776017 0.0034111235 -0.002752481
000090 0e e4 c2 3a 3a a5 66 bb e3 04 c6 3c f7 2d 90 3c
       0.0014868991 -0.0035193698 0.024172252 0.017600043
0000a0 90 8f cc 3b dd d9 5a bb 08 f3 e7 bc 72 6e d9 3b
       0.0062427 -0.0033394017 -0.028314129 0.0066354806
0000b0 76 5f 48 3c 1c 16 01 bc c3 f2 7f bc e5 70 4b 3a
       0.012229791 -0.007878806 -0.015621844 0.0007760658
0000c0 65 f5 ba bc 6b ad 5a bc 6f 2a af 3b d0 57 5a 3b
       -0.022822091 -0.01334701 0.0053456347 0.00333165
0000d0 5a 79 1f 3c 43 fc d9 3b c6 17 86 bb 3a 46 72 3c
       0.009733522 0.0066523864 -0.0040921895 0.014787251
0000e0 02 12 7e bc a2 de 79 3c 45 82 dc 39 3b a9 84 bb
       -0.015507223 0.015250834 0.00042058728 -0.004048494
0000f0 2b aa d2 ba c7 72 66 bb 0c db 86 bb 2f 93 8a bc
       -0.0016072443 -0.0035163627 -0.004115468 -0.016915886
000100 e0 93 b2 3b bd d9 d1 bb 72 64 32 3b 64 82 c7 3b
       0.005449757 -0.0064041303 0.0027220515 0.006088542
000110 69 b0 46 3c e3 7d 3d 3c d6 08 ae bb 7a 2a 54 bc
       0.01212702 0.011565658 -0.005311112 -0.01294958
000120 cd 4a 33 3c a6 d8 15 bb 9e 00 38 bc 57 10 31 3b
       0.010943127 -0.0022864728 -0.011230616 0.0027017796
000130 2d 22 06 3c 4f 51 1e bc 6e 0d 03 3c ab a4 f5 3b
       0.008186859 -0.00966294 0.007998807 0.0074964366
000140 35 4c d6 3b 5f db 95 bb 2d 4e a0 bb 73 55 79 3c
       0.0065398463 -0.00457327 -0.004892132 0.015218127
000150 84 35 8a ba f8 9f de 3c 36 7e 97 ba b1 f5 9a bb
       -0.0010544513 0.027175888 -0.0011558 -0.0047289957
000160 eb 9e 3d bb b0 ce 68 3c 8d 99 27 bc 27 d5 8d 3b
       -0.0028933834 0.014209434 -0.01022948 0.0043283883
000170 ab 95 bc 3c 92 2e 9c bb fd 2d 61 3c 1f c8 eb bb
       0.023020586 -0.004766294 0.013743875 -0.007195487

encoder.block.1.layer.0.self_attention.q.weight f4 [16, 6]
000000 64 61 65 bb 06 d7 07 bb 13 0c 86 bc 27 90 23 3c
       -0.0035000676 -0.002072753 -0.01636318 0.009983099
000010 45 b5 8c bc df 95 a1 bb 97 13 c4 ba 7b 38 8f bc
       -0.01717628 -0.004931196 -0.0014959452 -0.017482987
000020 0a e8 54 3c b1 66 57 3c 9b 76 5a 3b 35 e2 83 ba
       0.012994776 0.013147042 0.0033334855 -0.0010061922
000030 c4 14 14 bc b5 c2 74 bc 86 91 ea bc e1 1d f4 ba
       -0.009038154 -0.014939 -0.028633844 -0.0018624627
000040 17 e1 ab ba 4c f4 90 ba 77 43 de 38 94 27 91 bc
       -0.0013113347 -0.0011059134 0.00010598351 -0.017719068
000050 3a 30 18 3c 67 5f 2e 3c a1 f8 7c 3b 0a 9a 48 3c
       0.009288842 0.010642863 0.0038600343 0.012243757
000060 d2 f1 41 3c 56 59 99 bc ea bf 12 3c e8 63 b9 3b
       0.01183744 -0.018719357 0.008956889 0.0056576617
000070 df 76 fe bb ae d6 83 bb c7 77 d1 3a 04 4e 6c 3b
       -0.0077656354 -0.0040233945 0.0015981131 0.0036057243
000080 64 1b 77 bc 4a 13 06 bc 63 51 23 3c 08 a3 95 3c
       -0.015082214 -0.00818331 0.009968135 0.018266216
000090 ba 04 71 bc f5 89 23 bb 75 47 b1 bb 54 d3 19 3c
       -0.0147106 -0.0024954055 -0.0054101297 0.009388763
0000a0 95 7d a4 bb 54 6e 82 bc 61 91 c3 3b c1 1d c8 bb
       -0.0050198534 -0.01592175 0.0059682583 -0.0061070626
0000b0 90 51 84 ba e0 e2 f0 38 db 9b 0b bb 5e e9 4b 3b
       -0.0010095108 0.000114863506 -0.0021302614 0.003111444
0000c0 cc 3b 95 3c eb bf d6 ba 42 38 0a 3c c6 7f ea bb
       0.01821699 -0.00163841 0.0084362645 -0.007156345
0000d0 38 a9 34 3c 9c cf 85 3c d2 03 f3 3b fe 62 19 3c
       0.011026673 0.016334347 0.007416227 0.0093619805
0000e0 f8 3c 3b ba fc ae ea 3b 49 df 82 3c f7 79 d3 bb
       -0.0007142569 0.007161973 0.015975611 -0.0064537483
0000f0 2d 1a 48 3c 69 fb a2 3c 5a 74 20 bb fc e0 dd bc
       0.012213272 0.019895272 -0.0024483413 -0.02708482
000100 5a fb e1 3b 94 93 95 3c fe 05 69 3b 82 d9 f3 3b
       0.0068964185 0.018258847 0.003555655 0.0074417004
000110 fe 73 30 bc 3e 0a 91 3c 72 41 97 3c 77 1d 02 3c
       -0.010769842 0.01770508 0.018463824 0.007941595
000120 a9 75 22 3c 79 53 c8 bb 88 e4 b8 bb 9d 01 fc bc
       0.009915748 -0.0061134663 -0.0056424774 -0.030762488
000130 f3 77 9c 3b 94 c6 55 3b 32 13 c6 bb 42 13 64 3c
       0.0047750412 0.0032619582 -0.0060447687 0.013920607
000140 d3 03 51 bc c6 bc e0 bb 33 0d d1 bb f7 d0 ff bb
       -0.012757259 -0.006858441 -0.0063797473 -0.007806893
000150 90 90 d9 3b ce 8f 0c 3b 15 c2 b0 3b 78 f5 24 bb
       0.0066395476 0.002144802 0.00539423 -0.0025170725
000160 a4 92 0c 3c 0c b1 bf ba 84 fa c2 ba 3a 8b 19 3c
       0.008579884 -0.0014624908 -0.0014875685 0.009371573
000170 36 cb 1f bb eb d9 9f bc 8c 33 d0 3b 07 66 bb 3b
       -0.0024382598 -0.019513091 0.006353801 0.0057189497

encoder.block.1.layer.0.self_attention.v.weight f4 [16, 6]
000000 08 e6 1d 3c 4c 01 9f b9 8c b0 43 bb 00 99 bd bb
       0.009637363 -0.0003032781 -0.0029859869 -0.0057860613
000010 50 89 0b 3b ca 3e 8c bc 13 4c 96 3c 31 c8 75 3b
       0.0021291561 -0.017119784 0.018346822 0.0037503357
000020 f4 67 1a ba 99 fd 86 bc ba c3 ca ba a0 ec 84 3b
       -0.0005890124 -0.016478347 -0.0015469708 0.004056528
000030 58 a8 40 3c 96 96 14 3d 07 f2 eb 3c 70 07 82 bc
       0.011758886 0.036276422 0.028801931 -0.015872687
000040 ae a9 cf 3c fb 05 49 3c 57 38 f4 3c b6 4b 0f 3a
       0.025349464 0.012269492 0.029812021 0.0005466299
000050 1b 54 2b 3c 0c 85 22 3c c3 f4 7a 3c 79 31 5a 3c
       0.010457064 0.009919416 0.015317145 0.013317459
000060 eb 1e 33 3c 06 e8 c3 3c 86 1a 9e 3c 85 dc fa 3c
       0.010932664 0.023914348 0.019299757 0.03062273
000070 de 40 d9 3b 89 50 7d 3c 5a 07 5e bc 29 42 d3 bc
       0.006630047 0.015461096 -0.013551557 -0.025788384
000080 d6 53 ee bc 60 08 48 3c f2 df b5 bc 78 9e da 3a
       -0.02909271 0.012209028 -0.022201512 0.0016679307
000090 65 a7 0c 3c 44 9a 95 3c ee a9 08 3c f6 e1 09 3c
       0.008584832 0.018262036 0.008341296 0.00841569
0000a0 a8 dc 27 3c ac 00 ee 3c b9 9c 3c bc 03 ed 9d 3c
       0.01024548 0.029053055 -0.011511975 0.019278055
0000b0 30 2d 1f 3c 77 13 48 3c fe af b8 bc 2c 0b 58 bc
       0.009715363 0.012211672 -0.022544857 -0.013186257
0000c0 88 4b 3a 3d cc 74 51 ba 1b e7 bf b8 e7 7d a5 bb
       0.04548219 -0.00079901214 -9.1506365e-05 -0.005050409
0000d0 76 d3 32 bd 2d 6b 69 3c 2f bc 66 bc 54 b2 00 3c
       -0.043658696 0.014246744 -0.014082952 0.007855017
0000e0 9d 81 85 3c 8c ac 85 3c ee 95 9e bc 31 f7 63 3c
       0.016297156 0.016317628 -0.019358601 0.0139139155
0000f0 62 d5 37 bc 5e aa e6 bc b3 64 62 bc e9 c2 90 bc
       -0.011220308 -0.02815741 -0.013817954 -0.017671065
000100 f5 23 88 3c dc 89 ce 3c 68 a6 f6 bb 29 8d 5b 38
       0.016618708 0.02521222 -0.0075271614 5.2345134e-05
000110 41 67 c9 3c 36 c3 23 bc 92 0e d9 bc 35 b8 dd bc
       0.024585368 -0.009995272 -0.026496205 -0.027065376
000120 60 8e 52 bc b7 33 97 bb e6 d4 dc 3c 03 e1 3a 3c
       -0.012851328 -0.004614319 0.026956987 0.011406186
000130 a1 65 d0 3b 09 da 0a 3c bd 86 87 b6 95 f6 e2 bb
       0.0063597714 0.008474835 -4.038999e-06 -0.0069263675
000140 7a ee 25 3b c6 2b 1b 3c 72 dd d3 3c 08 8c 16 3d
       0.0025319145 0.009470886 0.02586243 0.036754638
000150 ae 16 9f bc a9 36 90 3a 2a bd 0d 3c 0f 5d 9e 3a
       -0.019419994 0.0011002618 0.008651057 0.0012082177
000160 8f 83 23 bc dd e6 6f 3b d1 3d 1e 3b 21 f8 90 3b
       -0.0099800965 0.003660611 0.0024145732 0.0044241105
000170 96 ec f6 bb c5 d1 09 3c 8c 3a f8 3b 9d 58 4d 3c
       -0.0075355275 0.008411829 0.0075753387 0.012533334

encoder.block.1.layer.1.layer_norm.weight f4 [6]
000000 cd cc 4c 3d cd cc 4c 3d cd cc 4c 3d cd cc 4c 3d
       0.05 0.05 0.05 0.05
000010 cd cc 4c 3d cd cc 4c 3d
       0.05 0.05

encoder.block.1.layer.1.self_attention.k.weight f4 [16, 6]
000000 3e 9b 94 3c 35 a6 32 bc d4 10 4f ba 0f 34 0e 3c
       0.018140431 -0.010903885 -0.0007898931 0.008679404
000010 8c 4e 9c bb 5c 07 dc 3b e3 63 1b bc da 71 0d 3c
       -0.0047701057 0.0067147445 -0.009484264 0.008633101
000020 3c c2 7f bc 29 c1 90 bc 45 60 d6 bc a8 13 09 b8
       -0.015610274 -0.017670231 -0.026168952 -3.268165e-05
000030 1b a7 e5 bc c9 bd e6 3b c8 37 0d bd 0c 32 f8 3c
       -0.028033784 0.007041667 -0.034477025 0.030297302
000040 0c 60 02 bd 87 51 ac 3c 05 d9 03 bc b2 8f 02 3d
       -0.03182988 0.021034969 -0.008047347 0.03187532
000050 59 60 b0 3c d7 e0 55 bc 2f 16 3a bd 9e de f8 bb
       0.021530317 -0.013054094 -0.045431312 -0.0075948974
000060 72 77 7d bc 41 97 02 bb d3 db a9 bb 2a bf 31 3c
       -0.0154703725 -0.001992658 -0.005183676 0.0108488
000070 93 2b 8f 3c 2b 1a 6a 3d 5a 63 d9 bc dd e4 eb 3c
       0.017476832 0.057153862 -0.026536632 0.028795654
000080 9a 31 ee 3b 70 61 ea bb ba 49 3d 3d aa d8 88 3c
       0.0072690966 -0.0071527287 0.04621289 0.016704876
000090 5f 85 e7 3b c0 3b 3e bc 93 21 6e 3a af 1e 27 3d
       0.0070654596 -0.011610925 0.00090839824 0.040800747
0000a0 be 4f 08 3d ae 53 91 3c 75 38 92 bc 74 ac d2 3a
       0.033279173 0.017740097 -0.017849186 0.0016073124
0000b0 06 c1 67 3c ab 6b d2 bc 8b a9 26 3c 1c 3b 06 bd
       0.0141451415 -0.025686106 0.010172258 -0.032771215
0000c0 de f5 19 bd cb 58 98 3c ca 27 a0 3c e8 7c ac bc
       -0.037587993 0.018597027 0.019550223 -0.021055654
0000d0 05 e8 6d 3b 43 72 8a 3b c7 f5 8e 3c 9b 27 34 3c
       0.0036301624 0.004225047 0.01745118 0.010995771
0000e0 bd c2 ec bb 71 d7 33 bc a5 1b 0b 3b ca 19 01 3c
       -0.007225363 -0.010976658 0.0021226194 0.007879684
0000f0 49 7e be bb a7 11 a6 3c 13 84 fa bc d0 a4 b8 bc
       -0.005813394 0.02027209 -0.030580556 -0.022539526
000100 c9 f0 ed 3b 51 96 eb 3b dc af de 3c 4d d7 47 bd
       0.00726137 0.00718955 0.027183466 -0.04878931
000110 e2 8a 7f 3b fa eb 47 bc 61 a3 bf 3c 49 47 21 bc
       0.0038992693 -0.012202257 0.023393335 -0.009843656
000120 d6 b0 f4 bc 6d 1e c5 bb 2b cf 68 bc 29 60 30 3c
       -0.029869478 -0.00601559 -0.014209549 0.010765114
000130 85 24 9a bc 6f cf d2 3b ba 99 04 bc 10 57 ba bc
       -0.018816242 0.0064334194 -0.008093292 -0.022746593
000140 8d f1 02 3d 23 3f 88 3c 16 10 0b bb 27 84 73 3b
       0.031968642 0.016631668 -0.0021219305 0.0037157626
000150 10 08 ba bb a4 38 63 bc a4 b6 64 3c 10 eb 51 ba
       -0.0056772307 -0.013868485 0.013959561 -0.00080077443
000160 4c a6 08 3b 15 50 96 3b a2 3e 4c bc 83 bd 47 bc
       0.0020851074 0.0045871832 -0.012466105 -0.012191179
000170 01 8c 37 3a 2a 2e a6 bb f1 4b 0f 3b b8 31 ea 3c
       0.0007001758 -0.005071421 0.0021865333 0.02858816

encoder.block.1.layer.1.self_attention.o.weight f4 [6, 16]
000000 09 22 28 bc 83 84 e2 3a c4 85 37 bc de 30 0d bc
       -0.010262021 0.0017281923 -0.011201326 -0.008617608
000010 e0 51 0c 3c 83 71 12 3b c7 92 09 bc e7 15 04 3c
       0.008564442 0.002234549 -0.008396811 0.008061863
000020 0b 6d 88 ba 87 8b f3 3a 95 71 61 bb 53 f7 5e bc
       -0.0010408474 0.0018581011 -0.0034399976 -0.013608771
000030 8b 6e 1f bc 20 8c 8d 3c 18 15 1b bc 56 ec 8e bc
       -0.009730945 0.01727873 -0.009465478 -0.017446678
000040 63 bf 95 bc 9e 73 cc bc da 73 3a bc 3f 42 dc 3c
       -0.018279737 -0.024957474 -0.01138016 0.026887057
000050 e0 bd a5 bc 05 dd 08 3c 9c 64 8c bb 47 ae 8a 3c
       -0.020232141 0.008353476 -0.0042844545 0.016928805
000060 1b 52 ac bb dd fd 1b 3c 3f 44 16 3c 80 ea 66 3b
       -0.005258811 0.009520975 0.009171545 0.0035234988
000070 4f 74 46 3a 62 90 2f bc ca 60 f9 ba ea dc e4 bb
       0.0007570432 -0.010715576 -0.0019026038 -0.006984343
000080 65 15 cd bb 33 99 f5 39 22 a6 37 3c f6 ae 8e bb
       -0.006258654 0.00046844184 0.011209043 -0.004354353
000090 4f 0c 2b bc 6d dc d4 bb 27 7c 05 3c cb 71 79 bc
       -0.010439946 -0.0064960034 0.008147276 -0.015224884
0000a0 df 56 b4 bc 3f dd b2 bb 4a 6a 8f 3c 2c d7 c0 bc
       -0.02201408 -0.0054585035 0.017506737 -0.023540102
0000b0 9b 37 b1 3a 73 43 e5 3b 92 8a 31 3c 7a a2 24 3c
       0.00135206 0.006996566 0.01083626 0.010048503
0000c0 96 09 bc 3c 52 d0 27 b7 20 c1 92 ba 1b 72 5c bc
       0.02295379 -1.0002479e-05 -0.0011196472 -0.013454939
0000d0 8f 6b 8b ba 28 44 b0 bc 7a 2d 4f 3c 04 c6 02 bc
       -0.0010636913 -0.021516874 0.01264512 -0.007981781
0000e0 01 05 04 bc 20 c0 f0 3b 83 f1 c6 bb 02 88 18 3b
       -0.008057834 0.007347122 -0.006071271 0.0023274426
0000f0 50 1f 66 bc 45 c8 8b bc a7 4f 24 3c 30 c8 69 3a
       -0.014045551 -0.01706327 0.010028756 0.0008918075
000100 96 64 0d 3c 36 af 14 3c b9 36 49 3c 5b aa 63 bb
       0.008629939 0.009074977 0.012281113 -0.003473899
000110 04 a1 c1 3b 73 9d 2c bb fb 90 d9 bb f7 64 8b bc
       0.005909087 -0.0026338964 -0.0066395975 -0.017015917
000120 18 3c 88 3c f2 d0 e9 bb 60 09 e1 3b 07 f3 8b bc
       0.016630217 -0.007135504 0.0068675727 -0.017083658
000130 0b a5 b1 3a b0 09 5a 3c c7 ab c8 3a 6f 80 cb bb
       0.0013553215 0.013307974 0.0015309983 -0.006210379
000140 8e 12 ad 3b ff 1c 5b bc 6f 9e 5f 3b 39 3e 97 3b
       0.005281753 -0.013373612 0.0034121533 0.004615572
000150 fd e5 45 3b 42 48 8e 3c c8 1f cf bb 97 43 95 bb
       0.0030196898 0.01736844 -0.0063209273 -0.0045551765
000160 1a f8 60 3c 17 14 46 39 c0 44 b4 3b 2a f0 d6 ba
       0.013731027 0.00018890236 0.0055013597 -0.0016398479
000170 3b f2 a2 3b ad e3 61 bb 5f 9b 64 bc fd f1 9e bc
       0.004972724 -0.003446798 -0.013953059 -0.019402498

encoder.block.1.layer.1.self_attention.q.weight f4 [16, 6]
000000 f1 cf d0 3b a1 33 11 39 d1 1b 19 ba 01 97 47 bc
       0.006372445 0.00013847511 -0.0005840632 -0.012181998
000010 2d 7b 7b bc eb d6 11 bc 4f 44 02 3b 02 fc 9a 3c
       -0.015349192 -0.008901338 0.001987714 0.018918995
000020 88 51 04 bb 92 e7 5a 3b ee 13 bf bb d9 38 b0 bc
       -0.0020190198 0.0033402187 -0.005831233 -0.021511482
000030 10 f9 49 3b c7 9c cd 3a 8f 44 1e 3c bb d0 c5 3a
       0.0030818619 0.0015686982 0.0096599 0.0015092114
000040 12 c8 49 bc 09 08 d4 bb 44 bc e2 3a 0e 1c 30 3c
       -0.012315767 -0.0064706844 0.0017298539 0.010748876
000050 90 e9 8c bc 59 ef 27 3c 1b b2 2d 3b 76 0e 14 3b
       -0.017201215 0.010249936 0.0026503864 0.0022591627
000060 ee 52 ba 3b c8 e9 20 bc 4c a8 50 ba 0c 67 c2 bb
       0.0056861555 -0.009821363 -0.00079596485 -0.0059326943
000070 78 54 48 3c a0 a0 d2 3b de 90 fc 3b 34 74 d1 bb
       0.01222717 0.0064278394 0.007707699 -0.0063920263
000080 1d 52 94 bb ca ec 7a 3c 7f 50 1c bb 49 cc 74 bc
       -0.00452639 0.015315244 -0.002385169 -0.0149412835
000090 79 ce b4 3b 1b c3 45 3c ae e7 13 3c 98 47 0c bb
       0.0055177775 0.012070443 0.009027405 -0.0021404978
0000a0 ad 11 b2 3b 01 cf cd 3c 08 29 b5 3b f8 9a b4 3b
       0.005434236 0.025123121 0.005528573 0.005511638
0000b0 83 0b 57 3b 27 1b 10 bc a0 83 20 39 31 ed 71 3b
       0.0032813258 -0.008795536 0.00015307823 0.0036915059
0000c0 40 89 e1 ba e5 d6 9f 3b 46 35 de bb 4b b5 d3 bb
       -0.0017207041 0.0048779123 -0.006781253 -0.006460821
0000d0 6c b2 32 3c 80 29 96 3c 05 42 93 bb 26 5d 5c 3c
       0.010906797 0.018330336 -0.004493954 0.013449943
0000e0 44 15 38 3c 94 c0 9d bc 18 75 0b bb 44 64 ce b9
       0.011235539 -0.019256867 -0.002127951 -0.00039366086
0000f0 8e a5 19 ba f4 1e 08 3c cd e4 29 bb aa 02 1d bb
       -0.00058611564 0.008308161 -0.002592373 -0.0023957887
000100 75 cb bc 3b b6 ea a3 bb 11 87 d1 b9 40 d5 85 3b
       0.0057615587 -0.005002345 -0.0003996422 0.0040842593
000110 5e 11 51 3b f8 30 a3 bb b6 9c 84 3c e5 76 0b 3c
       0.003190122 -0.0049802028 0.016188007 0.008512233
000120 1d 6c b8 3a ac ff e3 3a 40 e2 bc ba 5e 19 e6 3c
       0.0014070306 0.0017394922 -0.001441069 0.028088268
000130 07 72 45 3b 1d ec 75 3b 67 37 07 bb 41 45 02 bc
       0.003012778 0.0037524768 -0.0020632388 -0.007951082
000140 9b 75 80 3b 82 e3 50 3c 3a 8f 02 bc 1a af 2e 3c
       0.0039202697 0.012749555 -0.007968718 0.010661865
000150 c9 31 1a bb 0c 43 8e bb 7b 71 dc 3a 03 1c 50 3a
       -0.002352821 -0.0043414887 0.0016818488 0.00079387444
000160 87 17 bd bc 8f 5e ee 3b 0a e9 16 3b 54 a1 e7 3b
       -0.023082508 0.007274456 0.0023027086 0.0070687924
000170 87 fe 74 bb 69 75 dd bb f9 53 3a 3b 7b ef 65 bc
       -0.0037383155 -0.006758381 0.00284314 -0.014034147

encoder.block.1.layer.1.self_attention.v.weight f4 [16, 6]
000000 79 6f f2 bb 24 90 3c bc c2 28 60 3c 5b 12 bc bc
       -0.0073985425 -0.011508975 0.013681592 -0.022957971
000010 cf aa aa bc c8 c2 22 3b b9 be bc 3b 49 26 06 3d
       -0.020833401 0.0024835337 0.0057600406 0.032751355
000020 36 b4 10 bc b0 e0 16 3b d5 03 6d 3c 73 f7 a4 bc
       -0.008832028 0.0023022108 0.014466246 -0.020137524
000030 21 ab 6f 3b 82 7a b7 bb 4f cc 5d 3c b1 67 a7 3b
       0.0036570507 -0.005599321 0.0135374805 0.0051087965
000040 a7 7c 93 3c 0d a9 0e 3c de ae ea 3b 65 03 47 3c
       0.018003775 0.008707297 0.007161959 0.012146805
000050 a6 31 12 3d dd 6e 05 3c e2 0a db 3c 4f 3e be 3c
       0.03569188 0.008144108 0.026738588 0.02322307
000060 a0 d1 24 3c 4c d1 06 bb b2 4c 32 3c 7b 9c 96 3b
       0.010059744 -0.0020571528 0.010882543 0.0045962906
000070 41 1f 2d bc 54 a8 f8 bc bd 57 1b 3d 3d cf 8c 3b
       -0.010566534 -0.030353703 0.03792547 0.0042971657
000080 7e 0e 71 3b e2 40 9a 3c db 36 06 3d 4f 85 e8 bc
       0.003678232 0.018829767 0.032767158 -0.028383879
000090 7c c6 44 3c b3 b2 c4 3a 3f c2 93 3c 4d 04 9b bc
       0.012010213 0.001500687 0.01803696 -0.01892295
0000a0 f8 3c 06 3d d6 01 59 bc 9b 7c 82 bc ce bf c5 b9
       0.032772988 -0.013245067 -0.015928557 -0.00037717674
0000b0 96 df 30 bc 39 26 1e 3c cb b4 34 3b 10 44 24 3d
       -0.010795495 0.009652668 0.0027573581 0.040103972
0000c0 dd 16 1d 3c 99 88 0e bc fa 93 67 3c 77 62 0c 3d
       0.009587971 -0.00869956 0.014134401 0.03427359
0000d0 4c a3 c4 bc 13 75 ef 3b d1 41 05 bd 89 e9 ab ba
       -0.024003647 0.0073076575 -0.03253347 -0.0013115864
0000e0 f1 b7 f1 3b 51 fa 37 bc 58 b2 11 3c 5c 92 09 bc
       0.007376664 -0.011229114 0.008892618 -0.008396711
0000f0 e8 95 61 3c 1d f6 9e 3b 72 85 ce bc 06 e9 ea bb
       0.013768651 0.0048511163 -0.025210116 -0.007168892
000100 34 e6 c0 3b be 05 87 3c 7c 5f e1 bb f3 6c 90 bb
       0.0058868174 0.01648223 -0.0068778377 -0.004407519
000110 99 e0 af 3b 89 e6 85 bb fb 56 89 bc a8 b5 f0 bb
       0.0053673503 -0.00408632 -0.016765108 -0.007345874
000120 0a e6 f4 3c fa 32 ae bb 9e 5d 59 3b 84 b2 1b bd
       0.029894847 -0.0053161355 0.0033167372 -0.038012043
000130 8c 71 f2 bc b9 9d 7d b9 1a b2 cf 3b 90 f1 06 bc
       -0.029595159 -0.00024186716 0.00633837 -0.008236304
000140 3c 07 70 3c 40 a2 c1 bc 39 d0 d3 ba 78 c4 ed 3c
       0.014650162 -0.023636937 -0.0016160078 0.029024348
000150 7c 68 fc bb f3 de b1 bb fb ee bb 3c 88 b1 ad 3a
       -0.007702885 -0.005428189 0.022941103 0.0013251761
000160 8e 6f 31 3c 49 70 5b bd 03 d4 26 bb 11 df 99 3c
       0.010829819 -0.05357388 -0.0025455959 0.018783124
000170 40 10 cc 3b 8a 14 76 3c 9e 46 e2 bb 66 19 2c bc
       0.006227523 0.015019545 -0.006905391 -0.010504102

encoder.block.1.layer.2.layer_norm.weight f4 [6]
000000 cd cc 4c 3d cd cc 4c 3d cd cc 4c 3d cd cc 4c 3d
       0.05 0.05 0.05 0.05
000010 cd cc 4c 3d cd cc 4c 3d
       0.05 0.05

encoder.block.1.layer.2.mlp.wi.weight f4 [8, 6]
000000 39 64 40 bb 1c 72 5d 3c 36 a1 09 bd 86 f6 49 3c
       -0.0029356612 0.013515975 -0.03360101 0.012326842
000010 79 33 0c 3d da 59 cc 3a 45 6e c6 bb 2b a5 90 bc
       0.034228776 0.0015590743 -0.0060556256 -0.017656883
000020 94 7c b6 bc ac af 4d bc 2e c5 15 3c 8c f1 e4 3b
       -0.0222762 -0.0125540905 0.00914125 0.0069868024
000030 1c c4 56 bb 06 d9 40 3b d8 5e 0b bc 79 5f a5 bb
       -0.00327707 0.002942623 -0.008506499 -0.0050467816
000040 f5 9f 95 3c de ff 0e 3d 1b 6f 28 bc 05 f8 5e bc
       0.01826475 0.034911983 -0.010280396 -0.013608937
000050 8c ac 45 3c 52 6f 6d 3b e4 e9 aa 3c 24 ad eb 3c
       0.012065064 0.0036229682 0.02086348 0.028769083
000060 e5 47 d8 3b 07 31 30 3d 2c b0 d5 3b 7c ae fc ba
       0.0066003674 0.043015506 0.0065212455 -0.0019278075
000070 ca 2f c6 3c 0f 8f e5 3b bb aa d9 bc 8b 19 46 3c
       0.02419271 0.0070055793 -0.026570668 0.012091051
000080 69 e5 14 bc 31 bd d9 bc 82 a4 12 3c a1 79 16 bd
       -0.009087899 -0.026579471 0.0089503545 -0.036737088
000090 50 78 ad bc a6 9b 17 3a ae 36 69 3b c9 ed 46 3c
       -0.021175534 0.00057833863 0.003558557 0.012141653
0000a0 49 08 96 bc 8a 5d e2 3b a0 84 0d 3b 60 e1 3f bc
       -0.018314498 0.0069081234 0.0021593943 -0.011711448
0000b0 cd 88 41 3d e3 c6 65 bc 86 75 4f 3d 77 23 e3 3a
       0.047249604 -0.014024469 0.05064919 0.0017329295

encoder.block.1.layer.2.mlp.wo.weight f4 [6, 8]
000000 36 8a e6 3c c4 18 85 3c f5 e6 d4 bb d0 6d 38 bd
       0.028142076 0.01624716 -0.006497259 -0.0450266
000010 16 f1 2c 3c 3f 95 b1 b9 32 ab cd 3b 6a 3c 23 3c
       0.010555526 -0.00033871268 0.0062765116 0.009963134
000020 d5 87 46 3b fd 52 cf 3c 32 87 5c 3c 09 a3 2f bc
       0.0030293365 0.025308127 0.013459967 -0.010720023
000030 8f b1 32 bb 4b f5 58 3c 08 73 09 3c 1d 9f ac b8
       -0.0027266478 0.013242076 0.008389242 -8.231236e-05
000040 d4 da 30 bc d7 a5 ad 3c 58 ee 52 bc 5d 49 bb 3b
       -0.01079436 0.021197243 -0.012874208 0.0057155327
000050 d0 f5 84 ba a6 f7 03 3d 95 62 e1 3a a7 c1 2a bd
       -0.0010144059 0.032218598 0.0017195517 -0.041688588
000060 ff b6 3e bc 34 9c 51 3c af f2 0e bd ee 73 69 bc
       -0.011640309 0.012793589 -0.03489941 -0.014248831
000070 54 aa 7e bc 78 54 09 bc 1f f7 0a 3d 2c 52 11 3a
       -0.015543539 -0.008381955 0.03392708 0.00055435556
000080 69 12 f8 3c ea 8e 28 bc 14 c0 ac bc 08 4a ac bc
       0.030282216 -0.01028798 -0.021087684 -0.021031395
000090 fd 1a b4 3c 28 5c bb bc 9b 9e 28 3a 63 b4 c0 3b
       0.021985525 -0.022871092 0.00064323255 0.005880879
0000a0 fd 95 d5 bc 5c cd c7 bc b9 19 aa bb d6 32 87 3a
       -0.026072497 -0.024389915 -0.0051910547 0.0010314833
0000b0 8f d9 84 3c d4 83 89 bc 13 b7 bc b9 a7 cc f5 3b
       0.016217021 -0.016786493 -0.00035994555 0.007501203

encoder.final_layer_norm.weight f4 [6]
000000 cd cc 4c 3d cd cc 4c 3d cd cc 4c 3d cd cc 4c 3d
       0.05 0.05 0.05 0.05
000010 cd cc 4c 3d cd cc 4c 3d
       0.05 0.05

input_patch_embedding.hidden_layer.bias f4 [8]
000000 00 00 00 00 00 00 00 00 00 00 00 00 00 00 00 00
       0.0 0.0 0.0 0.0
000010 00 00 00 00 00 00 00 00 00 00 00 00 00 00 00 00
       0.0 0.0 0.0 0.0
