test/dummy-chronos2-model/model.safetensors (safetensors, 35944 bytes, 40 tensors)

encoder.block.0.layer.0.layer_norm.weight f4 [6]
000000 cd cc 4c 3d cd cc 4c 3d cd cc 4c 3d cd cc 4c 3d
       0.05 0.05 0.05 0.05
000010 cd cc 4c 3d cd cc 4c 3d
       0.05 0.05

encoder.block.0.layer.0.self_attention.k.weight f4 [16, 6]
000000 53 05 fb 3c b4 bb c8 bc f7 ad 8d b9 2f 5d c7 3c
       0.030642187 -0.024503566 -0.0002702323 0.024336426
000010 7b b7 fe bc d1 7b a2 bc 3a 0b 56 bc 22 ec 57 bd
       -0.03109335 -0.01983443 -0.0130642 -0.05271543
000020 04 0c f0 bb 7b 4f ac 3c e3 d4 97 3c 0a dc 9a 3c
       -0.007325651 0.021033993 0.01853413 0.01890375
000030 4a e8 94 bc 99 e3 c3 3c 79 5a 91 3c ac 15 e3 bc
       -0.01817717 0.023912238 0.017743336 -0.027720295
000040 38 de b1 3c cc ba 4b bc bb b4 2e bc 1a c1 9c 3a
       0.021712407 -0.012434673 -0.010663207 0.0011959404
000050 56 f7 50 bd 99 7d 20 3d 9d 16 44 bc 32 96 e5 3b
       -0.051017128 0.03918228 -0.011968282 0.00700643
000060 c6 de a4 3c fb 70 9f bc b1 2a 5f 3c 36 de 9a 3c
       0.020125758 -0.019463053 0.013621018 0.018904787
000070 70 1c e3 3b a9 6d b9 3b a0 d9 8b bc 04 f3 27 bd
       0.0069308802 0.0056588245 -0.017071545 -0.041003242
000080 90 f2 8e 3c e9 15 6c bb 7c 84 24 bc a4 78 ec 3c
       0.017449647 -0.0036023802 -0.010041352 0.02886612
000090 1f 26 50 ba 71 5a 2f 3d 31 74 d1 3b 3a 61 da 3c
       -0.0007940251 0.04281086 0.006392025 0.02665769
0000a0 2d 0f 9b 3c 7b 00 5b 3c 63 79 fe 3c c1 c2 ba 3c
       0.018928135 0.013366814 0.031063741 0.022797944
0000b0 e1 59 56 b9 48 e1 4c 3c d1 bb 19 bd 65 3b e4 3b
       -0.00020442113 0.012504883 -0.03753263 0.006965088
0000c0 b9 6c 52 3c 9e 11 3c 3c 8d 90 8e 3c 25 46 6c 3d
       0.012843304 0.01147881 0.017402912 0.057684083
0000d0 40 37 e3 bb 80 1f 6c 3c a1 38 09 bd cb 16 18 bc
       -0.0069340765 0.014411807 -0.03350127 -0.009282778
0000e0 e4 72 3e bc f8 ed 22 bb bf 74 14 bc bf 86 af 3c
       -0.011624072 -0.0024861079 -0.009061038 0.021426557
0000f0 30 cb 06 bd 00 95 8e bc cb 2f 97 3a 69 90 10 bd
       -0.03290862 -0.017405033 0.0011534629 -0.03529397
000100 2b 05 96 3b 3c 8a 45 bc 80 14 09 bc d6 c6 e8 bc
       0.004578253 -0.012056883 -0.008366704 -0.028415125
000110 45 15 90 3c a3 f8 32 3d 2e 28 d1 bc 3b fc 93 bc
       0.017588267 0.04369415 -0.025531854 -0.018064609
000120 52 42 ea 3c 05 a8 0d 3d d8 bf 16 3c 9f fe ba 3b
       0.028596077 0.034584064 0.009201013 0.0057066227
000130 a0 54 ea bc 65 dd 95 bb de a5 be bc 0c 73 49 3c
       -0.028604805 -0.0045735114 -0.023272451 0.012295496
000140 9b 05 cb 3b db 3f 3e 3c 8d a7 73 bd 8b f4 e3 bc
       0.0061957366 0.011611904 -0.05948596 -0.027826568
000150 42 7e 2b 3c b3 4d ac 3c 72 76 cb 3c de 4c 99 3c
       0.010467114 0.021033144 0.024836753 0.018713411
000160 3f 5c 6e 3c bb 87 42 3d f3 74 6d 3c 3f a4 98 bb
       0.01454836 0.047492724 0.014493215 -0.0046582515
000170 e7 6c 7e 3c d9 a6 6e bc a7 5a 59 3c 0c 60 43 bc
       0.015528894 -0.014566147 0.013266242 -0.011924755

encoder.block.0.layer.0.self_attention.o.weight f4 [6, 16]
000000 b7 62 a5 bc 57 55 da 3b 81 58 4b 38 7b c9 f5 3c
       -0.020188672 0.0066630053 4.8481397e-05 0.0300033
000010 2f 8a 27 bc b7 da ee bb 8a 24 82 bb 7d 82 12 bc
       -0.010225817 -0.0072892564 -0.003971641 -0.008942244
000020 17 82 03 bc 35 a7 65 3c 0f 88 f8 bb 40 93 20 3c
       -0.008026621 0.014016916 -0.007584579 0.009800732
000030 12 74 85 ba 57 01 03 bb e8 f3 d2 bb 05 e2 1a 3b
       -0.0010181686 -0.0019989812 -0.0064377673 0.0023633253
000040 a3 08 17 3c 23 87 6d 3c d2 b5 15 3c 83 79 1a 3c
       0.009218368 0.014497551 0.009137588 0.009428385
000050 db 58 3e 3c b2 f5 0f bc a8 84 56 bc ed aa 13 bd
       0.0116178645 -0.008786606 -0.013093151 -0.03605168
000060 53 cd 08 bc 4b 19 a0 3b 42 19 13 3d e8 5a e8 bc
       -0.008349734 0.0048858277 0.03591276 -0.02836366
000070 f7 75 10 3c 38 1e ef bb 73 fd 55 bc 7f cd 5b bc
       0.0088171875 -0.0072973035 -0.013060915 -0.013415693
000080 6f 01 0f 3b 1d b1 34 bb 1d 08 96 bc 07 8d 5a 3c
       0.0021820923 -0.0027571388 -0.018314416 0.013339288
000090 b3 c1 d5 3c 1b ac e3 bc 34 3c 98 bc 4b e0 ee bc
       0.02609334 -0.027792027 -0.018583395 -0.029159686
0000a0 8f 80 96 bc bd 7a 71 3c 74 33 09 3c 95 10 93 3b
       -0.018371848 0.014738736 0.008374084 0.0044880607
0000b0 ff 7a ba 3b 8a 51 60 bc 4d 9e 66 3c 28 ad 86 3b
       0.005690932 -0.013691315 0.014075828 0.0041099973
0000c0 8a 54 b9 3c 59 b0 3b bc 90 bc 26 bc c7 a7 bb 3c
       0.02262332 -0.011455619 -0.010176793 0.02290715
0000d0 32 51 6c bb 9f 95 2b bb 0f cb a1 3b c0 34 5b bc
       -0.0036059138 -0.002618171 0.0049375365 -0.013379276
0000e0 39 4b 4a 3b e4 10 ae 3c 86 39 9a 39 8b b5 6f ba
       0.003086759 0.021248288 0.00029416027 -0.00091441785
0000f0 df 90 8f 3b 2b 93 cf bb 42 87 6b bc 12 e6 7a 3b
       0.0043812837 -0.0063346825 -0.01437551 0.0038284105
000100 a8 64 93 3b a7 9c 06 3c 9a c9 75 bb 2f 14 fb b9
       0.004498083 0.00821606 -0.0037504197 -0.0004788949
000110 10 04 7b 3c bb 8b 16 3b f8 95 ea b9 df b1 48 ba
       0.015320793 0.002297147 -0.00044743693 -0.00076558994
000120 ca 04 6f bb da 62 7d bb 4d 11 63 bc 22 44 61 3c
       -0.003647136 -0.0038663656 -0.013859105 0.013749154
000130 13 52 1c 3c 0b 95 c1 3b 25 99 e5 bc ba df 7b 3a
       0.009541052 0.00590766 -0.028027127 0.0009608228
000140 4d 23 61 bc 00 83 32 3b 60 9e 5e 3c f2 90 7a bb
       -0.0137413265 0.0027238727 0.013587564 -0.0038233367
000150 c7 09 91 3b b8 56 bb bb 88 2c e8 3c f9 f9 41 3c
       0.0044262144 -0.005717125 0.028341547 0.011839383
000160 c3 2f 49 3a 92 dc 8d bb a0 46 5e bc 42 cb 54 bc
       0.00076746586 -0.0043292725 -0.013566643 -0.012987914
000170 e2 01 49 3c cf aa 21 3d e0 86 56 bc 0d a4 a2 3c
       0.012268515 0.039469536 -0.01309368 0.019853616

encoder.block.0.layer.0.self_attention.q.weight f4 [16, 6]
000000 c1 d5 59 3a 89 82 55 3b 32 73 27 3c cd 5c 8a 3c
       0.0008309745 0.0032579026 0.010220336 0.016889954
000010 cf 26 d4 3b 31 03 36 3c 33 5b 64 3b 10 c2 9e 3a
       0.006474353 0.011109159 0.0034844398 0.0012112278
000020 f8 45 ff 39 09 2c a6 bb 03 94 5e 3c 2f 1c 80 bb
       0.0004868952 -0.0050711674 0.013585093 -0.0039096097
000030 07 30 a9 bb 8c 68 d9 3b 3b 2e 81 bc 15 7b 4a 3a
       -0.005163196 0.0066347774 -0.015769115 0.0007724029
000040 d0 6d 4f bc ee 2e 97 ba 7a 8c 93 3b ea 55 b5 3b
       -0.012660459 -0.0011534372 0.00450283 0.0055339234
000050 d4 fa ea 3b f6 b7 a4 bb 40 a0 2e 3b 52 49 99 ba
       0.0071710143 -0.0050268127 0.002664581 -0.0011694825
000060 47 dc 6e bb 4a 39 cf 3b 1e d8 73 3b b3 89 8c bb
       -0.0036447213 0.006323968 0.0037207673 -0.004288876
000070 7e ec ad 3b 9e 59 94 bc 46 3c ba bb 8e 0d 83 3b
       0.005307733 -0.018109139 -0.0056834547 0.0039994186
000080 fa 41 9a 3c bd 3f 21 bb d2 2f a4 bc de 3a 42 bc
       0.018830288 -0.0024604641 -0.020042334 -0.011854855
000090 c9 8f 06 bc d6 5a 5e 3b 36 55 0c bc a8 74 82 bb
       -0.008212992 0.0033928654 -0.008565238 -0.0039811917
0000a0 88 4e 5b 3c 07 7a 55 3c 6d 0a c8 3b 60 64 56 bb
       0.0133854225 0.013029582 0.0061047585 -0.0032713637
0000b0 63 be 18 bc 2d 67 a9 bc e1 9b 05 bc 8e 3b 97 3b
       -0.0093227355 -0.02067908 -0.00815484 0.004615254
0000c0 f0 75 57 ba 7d 99 c0 3c f8 2e 08 bb bf aa dc 3b
       -0.0008219173 0.023510689 -0.0020779949 0.0067342217
0000d0 c2 fa a1 3b 9d 93 99 bc 35 a3 01 bc af fc d6 3b
       0.0049432227 -0.018747145 -0.007912447 0.006560884
0000e0 86 b4 3d 3c fe 24 33 3b 5b 36 32 3c 24 fc 58 3c
       0.011578685 0.0027335281 0.010877217 0.013243709
0000f0 61 81 12 bc 1c f4 da bc a6 3f 97 bb 6d f3 91 bc
       -0.008941979 -0.026727729 -0.004615742 -0.01781627
000100 ee f3 6f bb eb 61 ba bb 8e 9e 9f 3b 00 d4 36 bc
       -0.00366139 -0.0056879423 0.004871196 -0.011158943
000110 f6 ad 36 ba 6b 17 66 bc 56 f6 43 3c 14 64 10 bb
       -0.0006968671 -0.014043669 0.0119605865 -0.0022032307
000120 c6 95 f0 bb d7 f0 05 bb 2a 46 84 3c e4 49 2e bc
       -0.007342073 -0.0020437741 0.016146738 -0.010637734
000130 b9 7b 9e bc 96 8f 74 bc 08 ff 40 bc 50 4c 36 bc
       -0.019346105 -0.014926812 -0.011779554 -0.011126593
000140 21 0e 4b 3b 4b 78 75 3c b7 da 7c bc 01 ad fe 37
       0.0030983763 0.014982293 -0.015433005 3.035972e-05
000150 ae ce 61 bc bc ff 55 3c f5 dc 24 bb d3 a4 31 bb
       -0.013782186 0.01306146 -0.0025156115 -0.00271063
000160 41 9d 84 3b 05 5b 50 bc a4 10 58 3c ae c1 51 bb
       0.0040470664 -0.012717013 0.013187561 -0.0032006311
000170 43 00 62 3c e7 c3 87 3c ba 22 06 3c d9 df 15 bc
       0.013794008 0.016572906 0.00818699 -0.009147608

encoder.block.0.layer.0.self_attention.v.weight f4 [16, 6]
000000 e0 af 48 3c c3 62 4e 3b d0 d9 87 3c 0d bc 1d 3b
       0.012248963 0.0031491972 0.016583353 0.0024068386
000010 a1 1b 87 3c 42 fa 97 bc df c3 e6 bb a6 7e 86 3c
       0.016492667 -0.01855195 -0.0070423926 0.016417813
000020 62 87 23 bc c0 80 06 bc 88 2f 8a bb 56 73 f1 bc
       -0.009981008 -0.008209407 -0.004217092 -0.029473942
000030 56 2d 42 3c 25 7d c6 bb 4f 56 9e 3b c2 de 94 3b
       0.011851629 -0.006057399 0.004832066 0.0045431564
000040 cc be 0f 3d c3 0b 0e bd 16 df ee 3c d1 79 69 bd
       0.035094067 -0.034679186 0.02915911 -0.05700094
000050 53 b3 4a bc 3e f6 6b 3c 55 7f a4 bc 16 bc 05 bc
       -0.012371856 0.01440197 -0.020080248 -0.008162519
000060 61 23 8e 3b 3b de 3d bb 16 b2 34 3d d4 c1 d6 3c
       0.0043377136 -0.002897157 0.04411515 0.026215471
000070 8b d1 24 bb 05 eb 0b 3b 9a 4f fb bc 38 72 86 3c
       -0.0025149311 0.00213498 -0.030677605 0.016411886
000080 2f 47 6a 3a 1a 5c a5 3c 6c 13 a6 3c 1c 43 a1 3b
       0.0008936999 0.020185519 0.020272933 0.00492133
000090 78 74 f4 3b f3 48 d9 3c 78 00 39 bd e8 ff 5b 3c
       0.007460173 0.026524043 -0.045166463 0.013427712
0000a0 8e b1 f3 3b 1a af f5 bc 0a 6f ba 3c 7a 0b ba 3c
       0.0074369377 -0.029990721 0.022758026 0.02271055
0000b0 f7 6b c2 3c 8a 23 30 bc 29 43 2b bc e5 8c 8c bb
       0.023733122 -0.010750661 -0.010453024 -0.004289257
0000c0 53 d4 66 bc 5a 3f b6 ba 48 54 3b bd 83 05 60 bc
       -0.014088708 -0.0013904378 -0.045734674 -0.013673189
0000d0 bb 18 30 3c c7 15 29 3c 7d 9b 30 bc 4f 70 ec 3b
       0.010748084 0.0103201335 -0.010779259 0.0072155367
0000e0 70 19 b0 bc ff bd 13 bd bb e5 3c bc 01 ab 9c 3c
       -0.021496505 -0.036069866 -0.011529381 0.01912451
0000f0 89 f3 84 3c 51 9a 8a bc 43 18 6c bd 44 34 81 3c
       0.016229408 -0.016919287 -0.057640325 0.015771993
000100 e8 3c 16 3c 49 cd be 3c 54 33 04 3c 57 53 1f 3d
       0.009169795 0.023291247 0.008068878 0.03889784
000110 bd ff 39 bb 7b e7 b9 bc 90 d6 3e 3c 4b 28 3c 3d
       -0.0028381192 -0.022693386 0.011647835 0.045936864
000120 ee 79 0f bd 33 15 9f 3a 2a 6f c7 bc 25 6a 4a bc
       -0.03502839 0.0012137055 -0.024345 -0.012354408
000130 69 83 2d bb 8a bd d9 bc 4e f6 94 3c 18 ee aa bc
       -0.0026476032 -0.026579637 0.018183853 -0.020865485
000140 15 d8 a1 bb 96 95 51 bc c4 e9 a7 bc ae 94 e7 ba
       -0.004939089 -0.012792012 -0.02049721 -0.0017668211
000150 f6 a8 20 bc 08 a9 d1 bc c2 c1 9b 3c 22 01 f4 bb
       -0.009805908 -0.025593296 0.01901329 -0.007446424
000160 51 95 a3 bc bb 7b ba 3c af 18 2c 3d f6 01 f0 bc
       -0.01996866 0.022764077 0.042015728 -0.02929781
000170 4b 5c cf bc c1 d0 f9 3b f3 96 f9 3b 7b a4 ab bc
       -0.025312563 0.0076237624 0.0076168715 -0.020952454

encoder.block.0.layer.1.layer_norm.weight f4 [6]
000000 cd cc 4c 3d cd cc 4c 3d cd cc 4c 3d cd cc 4c 3d
       0.05 0.05 0.05 0.05
000010 cd cc 4c 3d cd cc 4c 3d
       0.05 0.05

encoder.block.0.layer.1.self_attention.k.weight f4 [16, 6]
000000 7e 2f 38 3c 3a e0 d5 3a a4 29 e5 3b 1f 80 00 bd
       0.011241792 0.0016317435 0.0069934893 -0.031372186
000010 c2 ce eb bc 28 95 f5 3c 1b 75 5a bc 96 4e 70 3c
       -0.028785113 0.02997835 -0.013333584 0.014667174
000020 4d 30 73 3c 17 da 86 bc cb bd f3 bc ac 75 dd bc
       0.014843059 -0.016461415 -0.029753586 -0.02703365
000030 2c 40 5c bc 31 2a a4 3c ca 68 57 bc d2 68 f3 3c
       -0.013443034 0.02003965 -0.013147542 0.029713068
000040 42 87 b1 3b 73 20 8a bc 72 d9 a5 3b f4 86 ad 3c
       0.0054177353 -0.016861176 0.005061322 0.021182515
000050 7b 04 83 3c 8e 30 63 bd aa 6d f5 3b 89 42 0f bd
       0.015993347 -0.055466227 0.0074898796 -0.034975562
000060 ef da 8a 3c 2b 3b b2 bc 6e 67 a0 3c df ec 85 bc
       0.016950099 -0.02175673 0.01958057 -0.0163483
000070 c0 76 b4 bc 4a 1b 70 bb 61 ad 3d bc cc ac bb 3a
       -0.02202928 -0.003663736 -0.011576981 0.0014318465
000080 33 c7 75 3a 43 8c 94 3c f2 df b8 ba 15 bb 87 3c
       0.00093756913 0.018133288 -0.0014104827 0.0165687
000090 9a e0 82 3c 24 ab bc bc 76 a1 8a 3c 4e ef 6c bb
       0.015976239 -0.023030825 0.016922694 -0.003615338
0000a0 60 fc 1c bc 1d 32 d9 3c 32 80 b1 3c 66 3a 0b bc
       -0.009581655 0.026513154 0.021667574 -0.00849781
0000b0 89 0f 08 3d 2c 48 b5 bc 45 99 fb 3b 1a 7a 69 3c
       0.03321794 -0.02212914 0.0076781833 0.014250303
0000c0 17 ba d0 bc 8f 08 64 3c 18 ab 18 3c cf 5a 63 3d
       -0.02547936 0.013918056 0.009318136 0.055506524
0000d0 5a b5 15 3d 5c a3 4e bc 1e 03 52 3c 7a 23 88 3b
       0.036549903 -0.01261219 0.012818126 0.0041546198
0000e0 54 e8 e5 bc 5b 24 a5 3a 59 16 ed 3c bc da ed 3c
       -0.028064884 0.0012599336 0.02894132 0.029034965
0000f0 9e 02 15 3d 7b f3 51 3b 06 02 ea bc 51 15 4c 3c
       0.03637945 0.0032035995 -0.028565418 0.012456254
000100 5d e8 a9 3c ed 89 a7 3c 82 43 fa bb 0a 8b 52 3c
       0.020740682 0.02045151 -0.007637442 0.012850532
000110 f3 ee b4 bc f0 3a 36 ba 47 f2 97 bb b1 ec 03 3d
       -0.022086596 -0.00069515314 -0.004637036 0.03220815
000120 4d b2 06 bc d3 5c 14 3c f5 4b 16 bc 63 18 bb bb
       -0.008221221 0.009055334 -0.009173383 -0.005709694
000130 29 28 20 bc b4 a3 09 3d 6d 66 b0 3c 60 49 cb 3b
       -0.0097752 0.033603385 0.021533215 0.0062038153
000140 8b 25 ce ba eb 9d fb bb e8 da 51 bc 68 89 55 3c
       -0.0015727741 -0.0076787374 -0.012808539 0.0130332485
000150 0e 3c 97 3c a5 2b b0 3c 29 31 91 3c f4 5d 04 3c
       0.018461253 0.021505186 0.017723637 0.008079041
000160 9d 76 18 bd 3f 65 a4 3c 45 b8 41 bb fc 04 13 3c
       -0.037222493 0.02006781 -0.0029559296 0.008973356
000170 ac 17 68 3c 23 21 c6 bc 8d 06 f0 bb 7a 8a 7b 3c
       0.0141658 -0.024185723 -0.0073249997 0.01535284

encoder.block.0.layer.1.self_attention.o.weight f4 [6, 16]
000000 e7 93 20 3c 1a 8b 89 b8 18 70 5f 3a 8c 16 21 bc
       0.009800888 -6.558579e-05 0.0008523478 -0.009832036
000010 cd 71 1a 3c d8 7c 0c bc 95 54 75 bc d5 f4 e1 3b
       0.009426546 -0.008574687 -0.014973779 0.0068956413
000020 d0 20 87 bc 63 6f 31 bb 67 b4 cc 3b 0d 34 ad bb
       -0.016495138 -0.0027074448 0.0062470916 -0.005285746
000030 ba 19 60 bc 47 7d e0 bb 8b 30 d5 3a ff e6 4a bc
       -0.013678009 -0.0068508717 0.0016265077 -0.012384175
000040 e6 88 9f bb 02 6a f8 3b 7b 22 a2 b9 7a c4 dc 3b
       -0.0048686145 0.0075809965 -0.00030924738 0.006737289
000050 59 98 8b 3c 0f 38 31 bc 02 0c a1 ba 62 bf 77 3b
       0.017040418 -0.010816588 -0.0012286904 0.0037803282
000060 0a 9c a2 3c 65 ef db 3c 28 a9 ad bc 9d 7e d9 3a
       0.019849796 0.02684755 -0.021198824 0.001659352
000070 68 f3 72 bb 31 f9 9f 3c 60 4d 65 bc 3b 42 49 3c
       -0.003707135 0.019528003 -0.013995498 0.012283857
000080 a0 df 36 3c 07 bf 46 3a cd d4 fd bb b2 b3 ad bc
       0.011161715 0.0007581566 -0.007746315 -0.02120385
000090 e3 cf 06 bc ff 09 fb bc 6f b6 1e 3b 8a 6e e2 bb
       -0.008228275 -0.030644415 0.0024217626 -0.00691015
0000a0 2c b8 99 3c e2 c1 a5 3c 72 3d e1 3b 5b 9a 96 bc
       0.018764578 0.020234052 0.00687378 -0.01838415
0000b0 0b 09 1c bc 1a 38 68 bc 31 1d 3c 3c be 35 2c bb
       -0.00952364 -0.014173532 0.011481569 -0.002627715
0000c0 c5 a2 6a b9 83 bb 06 38 6f 8d 4c 3c 4d 85 ff 3b
       -0.00022376615 3.2122723e-05 0.012484892 0.007797873
0000d0 79 09 b7 3b 43 9c 41 3b 64 bd 8d bc de 6a b0 bc
       0.005585846 0.0029542602 -0.017302223 -0.021535333
0000e0 af 63 5c bc 77 aa b8 3b 8a d2 fa 3a 3b 93 00 3c
       -0.013451501 0.0056355554 0.0019136232 0.0078476025
0000f0 3f 67 bc 3b 23 66 86 bb 8f 1f d0 bb ff b3 81 bc
       0.0057496126 -0.004101531 -0.0063514183 -0.0158329
000100 94 72 a2 3c 82 6d 91 3a d2 b0 88 3c d4 96 42 bc
       0.019830026 0.0011095258 0.016685877 -0.011876781
000110 5f 01 10 bc cd ac f5 bb cb 93 71 3c d0 f9 9c 3b
       -0.008789389 -0.007497406 0.014744709 0.004790522
000120 4d 38 2f bc bb 09 32 bc 21 05 2b bc a4 6a 81 bb
       -0.0106945755 -0.010866578 -0.010438235 -0.00394948
000130 6a 8a 6a 3c 28 a1 c7 3c 80 5f 95 3c a2 7b c0 3b
       0.014315227 0.024368837 0.018234015 0.005874113
000140 c3 f7 28 bc 68 94 ed 3b 0a a9 da b9 2c bb 3f bc
       -0.010312977 0.0072503574 -0.00041706144 -0.01170234
000150 63 d3 49 bc 12 c0 9a bc f3 59 83 3c 1c 2e 9d 3b
       -0.012318465 -0.018890414 0.016034102 0.0047967564
000160 af 33 af 3b 4b bb 6a bc a0 55 8f bb 81 90 88 3c
       0.0053467373 -0.014326881 -0.004374221 0.016670467
000170 7a 60 55 bc 97 c1 77 bb f2 63 a2 3a a6 28 96 ba
       -0.01302349 -0.0037804598 0.0012389405 -0.0011456206

encoder.block.0.layer.1.self_attention.q.weight f4 [16, 6]
000000 8c a2 48 3c 31 42 e3 3b 9f 85 84 bc 79 81 f6 3b
       0.012245785 0.006935381 -0.016176997 0.0075227586
000010 37 d7 87 3c c6 a5 15 bb f2 a5 e1 3b 7f 14 ab 3b
       0.016582115 -0.0022834404 0.0068862373 0.005220949
000020 44 ef 80 bb 43 bb c9 3b f8 22 4a bc c7 b9 0b 3c
       -0.0039347727 0.0061563565 -0.012337439 0.0085281795
000030 04 9f 8c 39 1d 30 23 3b 5c 5e 67 3c d4 c2 c8 3b
       0.00026821357 0.0024900504 0.014121618 0.006126741
000040 8f 09 1b 3b d4 66 f2 b9 8a 0f 4e bc d0 cc a6 b8
       0.002365682 -0.0004623445 -0.012576947 -7.953646e-05
000050 6a 03 04 3c c1 ea 9b 3b c0 ca a5 3b ac 62 b4 3a
       0.008057455 0.0047582095 0.00505957 0.0013762317
000060 40 af bb bc 9c 41 e7 bb dd 3b 51 bc d7 68 23 3c
       -0.022910714 -0.007057382 -0.01277062 0.009973726
000070 7e d1 c9 3b a0 93 b0 3c 9c c8 26 bc f3 94 6d bc
       0.0061590066 0.021554768 -0.010179665 -0.014500844
000080 1a 08 71 bc 7d ae 08 3c e0 5d 84 bb 65 01 c5 bb
       -0.014711404 0.0083423825 -0.004039511 -0.006012129
000090 ea 7a 8c bc f7 48 af bb 54 e1 1c 3c 7d 3f 00 bc
       -0.017148454 -0.0053492743 0.009575207 -0.007827637
0000a0 fc 1b 47 bc d0 4c 64 bc f5 e5 7d bc 33 5c 10 3c
       -0.012152668 -0.013934329 -0.015496721 0.0088110445
0000b0 24 3c 7f 3b c8 1f df ba 57 c5 bd ba f6 79 56 bc
       0.0038945759 -0.0017023021 -0.0014478368 -0.013090601
0000c0 44 e9 56 bc 15 2f 3f bb a3 82 2e bc a4 eb 00 bc
       -0.013117138 -0.002917235 -0.010651263 -0.007868681
0000d0 df b6 39 bb a5 06 7e bb f1 ce 12 bc 1b b1 f4 3a
       -0.002833776 -0.0038761285 -0.0089604715 0.0018668504
0000e0 11 a1 4e 3b fa 23 df b9 1a d7 9c 3b 11 52 65 3c
       0.0031529109 -0.0004256068 0.0047863843 0.013996617
0000f0 ef ba c8 bb e2 fc bb 3b 86 80 9b bb 9c 30 91 3b
       -0.0061258 0.005736933 -0.004745546 0.0044308435
000100 44 ff 50 3b 46 b9 5b 3b de df ad b9 ee db 3e bc
       0.0031890431 0.003352718 -0.00033163925 -0.011649115
000110 90 90 bd 3c 4f 79 3f 3c cb 65 06 3c 69 d6 66 3a
       0.023140222 0.011686637 0.00820298 0.00088057533
000120 b9 85 64 3a a0 36 d1 ba 02 02 63 3c 62 26 ce bb
       0.0008717436 -0.0015961714 0.013855459 -0.0062911967
000130 d8 21 d3 bc 5f c8 85 3c 2b eb 2e bb 46 22 38 bc
       -0.025772974 0.016330896 -0.0026690464 -0.01123864
000140 e1 1c 09 3c d1 d1 c4 3b 7c fd 98 3b fb 61 32 bb
       0.008368702 0.0060064574 0.0046688896 -0.0027219045
000150 1b 2e f3 bb 32 61 20 bc cf 98 bc bc 54 a4 47 3b
       -0.0074212677 -0.009788798 -0.023022084 0.0030462937
000160 02 c3 8a 3c 1a 4b 01 3b f4 49 18 bc 3e 10 1a bc
       0.01693869 0.0019728602 -0.009294976 -0.0094032865
000170 08 ab 28 bc 37 fe 3e 3a 67 98 1e bc 9a 2e 38 3c
       -0.010294683 0.0007285806 -0.00967989 0.011241579

encoder.block.0.layer.1.self_attention.v.weight f4 [16, 6]
000000 97 ce 0b 3b 76 38 bf 3c 66 35 e1 3a 6e 3a 06 3b
       0.0021332854 0.023342352 0.0017182052 0.0020481604
000010 e5 7e 26 ba 4e f7 b0 3c fd 92 3b 3b d5 12 66 38
       -0.0006351306 0.021602299 0.0028621547 5.4853812e-05
000020 c1 0e 47 3b fa 4b ed b9 2d 63 75 bc b8 b5 22 bb
       0.0030373784 -0.0004526077 -0.014977259 -0.002482755
000030 60 75 40 bc 28 06 b8 3c f0 3f 0e 3b 73 af b0 3c
       -0.011746734 0.022463873 0.002170559 0.021568036
000040 f5 8f c8 bb 48 61 de 3a 46 78 bf ba cd b1 9d bc
       -0.0061206766 0.0016966248 -0.0014607988 -0.019249821
000050 3b 03 85 bc ca 1c 6a 3c ca d2 0b 3b 69 e6 3c bc
       -0.016236892 0.01428909 0.0021335357 -0.011529543
000060 d9 b3 d9 bc 08 61 72 3c b2 c2 bc 3c 4d 34 68 bd
       -0.026575016 0.014793642 0.023042057 -0.056690503
000070 67 2b 2d bd da 73 ab 3a dc 5e 85 bc 49 0a 6d bc
       -0.04227772 0.0013080791 -0.016280584 -0.014467784
000080 2e d9 a4 3c b3 56 42 bb 03 89 01 3c 1a 07 28 bc
       0.02012309 -0.0029653728 0.007906201 -0.010255599
000090 14 6a 8e bc 4f df 43 3b 79 57 8d 3c c4 c7 ca 3c
       -0.017384566 0.002988774 0.017253624 0.024753459
0000a0 11 ee 89 bc c0 e4 68 3c b4 0f d5 3b 2f f8 a8 bb
       -0.016837152 0.0142146945 0.006502116 -0.005156539
0000b0 b5 c3 d3 bc 4b 8c 4b 3b 45 e8 c5 3b ee 2c 18 3c
       -0.025850156 0.0031058963 0.0060396516 0.009288056
0000c0 7c 04 28 b9 95 8a 60 bc 30 18 a2 3c 8a e8 51 3d
       -0.00016023399 -0.0137049155 0.019786924 0.051247157
0000d0 22 39 26 3c b5 1b c1 bc a3 98 16 3c a3 39 42 bc
       0.010145457 -0.023572782 0.009191665 -0.011854562
0000e0 e9 60 d4 3c 3d f1 fc bb 7e 4c 21 bc f5 a1 ac bc
       0.025925117 -0.0077191875 -0.009844897 -0.02107332
0000f0 46 60 3c bb 84 f9 09 bb 2c 60 d4 3c ef 7f f3 3c
       -0.0028743907 -0.0021053264 0.025924765 0.02972409
000100 9a 9c e7 3c 6c 85 72 bc 30 ac 1d 3c 67 d6 01 3d
       0.028272916 -0.014802318 0.009623572 0.03169861
000110 14 87 2d bd 79 be a6 3c 67 3f 09 bd d7 a5 9c 3c
       -0.04236515 0.020354496 -0.03350773 0.019122047
000120 9d 9a a0 3c 6a 8e 43 3c 8a fc 25 bd 89 36 58 3c
       0.019604975 0.01193581 -0.040524043 0.013196596
000130 2e ac ef bc 4c 3a 2a 3d 86 f6 e1 3c e7 7e 56 3c
       -0.029256906 0.041559502 0.027583372 0.013091779
000140 11 2b 4e 3c f0 31 27 bd 94 ba 83 bc 1f 1a 3f bd
       0.01258351 -0.04081911 -0.016080178 -0.04665577
000150 ca 7a 34 bb 70 a5 12 3c f1 c5 1c bb 72 3e 15 3d
       -0.0027539008 0.008950576 -0.0023921693 0.036436506
000160 40 81 13 bc 29 9e 28 3d 71 28 6d 3d f2 a0 03 bd
       -0.009002984 0.04116646 0.057899896 -0.03213591
000170 c6 69 84 bc d1 98 99 3c b5 ea 78 bc 53 aa 91 3c
       -0.016163718 0.018749626 -0.015192677 0.017781412

encoder.block.0.layer.2.layer_norm.weight f4 [6]
000000 cd cc 4c 3d cd cc 4c 3d cd cc 4c 3d cd cc 4c 3d
       0.05 0.05 0.05 0.05
000010 cd cc 4c 3d cd cc 4c 3d
       0.05 0.05

encoder.block.0.layer.2.mlp.wi.weight f4 [8, 6]
000000 73 f8 5b 3c 70 80 15 3c a2 23 40 bc 8a 75 d7 ba
       0.013425934 0.00912486 -0.0117272455 -0.0016438228
000010 b0 42 5f bc 44 8a 6c bc fa 50 12 3d b3 c6 8d ba
       -0.013626739 -0.014437262 0.035721757 -0.0010816663
000020 9e 03 dd bb 88 ce 9f 3c 6b 32 4d bc ee 20 8a ba
       -0.006744816 0.019507661 -0.012524228 -0.0010538378
000030 93 1e 0b 3c a4 5a e3 3c 39 e5 bb bb 4b ac 84 3c
       0.008491176 0.027753182 -0.0057341126 0.016195437
000040 6d 89 98 3c cb 00 62 bc 5d b8 e4 3b 4d ac 9a 3b
       0.018620217 -0.013794134 0.0069799856 0.004720247
000050 4e 5f 31 3c fa 0f 87 3b ec d5 3c 3c 01 69 8b bc
       0.010825945 0.0041217776 0.011525612 -0.017017843
000060 c2 21 00 3b 46 ca 1b 3b eb fe 8a 3c 16 ff d8 bb
       0.0019551371 0.0023771687 0.016967257 -0.0066222055
000070 fe 47 22 bc 94 b8 5c 3c a2 46 ca 3b 8a 45 62 3b
       -0.00990486 0.013471741 0.006172971 0.0034526312
000080 21 07 0e ba 93 e8 49 3c b1 72 a7 bc 03 02 0c bb
       -0.00054179324 0.012323516 -0.020440431 -0.0021363504
000090 8b 5f 20 bb 76 94 e5 bc 59 fa e0 bc 14 d2 00 3d
       -0.002447101 -0.028024893 -0.027463125 0.031450346
0000a0 58 84 12 bc 37 e3 56 3b 09 3c b8 bc d3 da 54 bc
       -0.008942686 0.003278924 -0.022489564 -0.012991625
0000b0 6a 7d ac bc e8 cc 18 bc d4 cd 1d bd 50 07 bf bb
       -0.021055896 -0.009326197 -0.03852637 -0.005829729

encoder.block.0.layer.2.mlp.wo.weight f4 [6, 8]
000000 59 7d 36 bd 1a 59 96 bc 06 33 9d 3c 49 b5 28 3c
       -0.044553135 -0.018353034 0.019189369 0.010297128
000010 bb 6f 10 3b de fb b9 ba af 03 fa bb 7b ed 93 3c
       0.0022039253 -0.0014189442 -0.0076298336 0.018057575
000020 d0 22 ac bb ae 27 60 bb 7b 77 88 3c cc 55 d7 bc
       -0.0052531734 -0.0034203338 0.016658535 -0.026286028
000030 89 28 1e 3d 83 66 18 bd aa 7a 5e bc 81 9b e5 3b
       0.038612876 -0.037207138 -0.01357905 0.007007063
000040 a1 e4 23 bd 98 94 84 bc df b6 ac bc ec 75 d3 3c
       -0.04001296 -0.016184136 -0.021083293 0.025813065
000050 3b 0a f4 3c a1 4f ae bc 09 d4 29 3a a7 f3 f9 3b
       0.029790035 -0.021278204 0.0006478434 0.0076279226
000060 11 0c 6a 3c a1 f1 c7 bc 9e de 40 bd 98 c9 e2 3c
       0.014285103 -0.02440721 -0.047087304 0.027684018
000070 68 db 4a bc 8a c4 c0 bc 02 bd 90 bc d8 96 6a bb
       -0.012381412 -0.023531217 -0.017668251 -0.0035795476
000080 41 ea 8e 3c b0 51 d1 ba 89 63 91 bc 74 e1 17 3c
       0.017445685 -0.0015969779 -0.017747657 0.009270061
000090 41 90 88 bc e0 d6 35 3c 38 8c 14 bc 53 15 fe 3c
       -0.016670348 0.0110985935 -0.009066634 0.031016028
0000a0 93 a3 e5 3a b3 68 4e bb d5 c2 24 bc 6d 61 89 bc
       0.0017520062 -0.003149551 -0.010056217 -0.016770089
0000b0 8b 56 9e bc 45 ee b2 bb 34 7d 4c 3c d9 b8 4a bc
       -0.019328376 -0.005460533 0.012481023 -0.012373173

encoder.block.1.layer.0.layer_norm.weight f4 [6]
000000 cd cc 4c 3d cd cc 4c 3d cd cc 4c 3d cd cc 4c 3d
       0.05 0.05 0.05 0.05
000010 cd cc 4c 3d cd cc 4c 3d
       0.05 0.05

encoder.block.1.layer.0.self_attention.k.weight f4 [16, 6]
000000 5e 54 03 3c 25 ac 93 3b c1 1f 26 bc 7f 22 81 3c
       0.00801572 0.004506605 -0.010139407 0.01576352
000010 b4 d4 47 bc 74 54 31 bd 35 ac d1 bb bb d9 5c bc
       -0.0121967085 -0.04329343 -0.0063987025 -0.013479645
000020 b1 56 9e bc 12 f3 d0 bb ac a8 1d bc f0 50 5a 3d
       -0.019328447 -0.0063766325 -0.009622734 0.053299844
000030 2d c4 98 bc d1 6b bc 3b 9c 14 9f bc 93 41 25 3b
       -0.018648231 0.0057501574 -0.019419007 0.0025216087
000040 63 a0 60 3c 81 ea c7 bc 76 3c 04 3c f4 5f 17 bc
       0.013710114 -0.024403812 0.008071056 -0.009239186
000050 e0 3e 2c bc 1e c5 b5 b8 16 ca 36 3c 78 49 40 3c
       -0.010513037 -8.6674685e-05 0.0111565795 0.011736266
000060 d2 93 ba 3c aa 54 65 3c 61 b8 07 bc 5a b0 d0 3b
       0.022775564 0.013997236 -0.008283705 0.006368679
000070 98 28 97 3c 3c 5c 01 bc cc 5e d3 3c 22 c7 83 ba
       0.018451974 -0.007895526 0.025802039 -0.0010053853
000080 51 2b ff 3a 60 26 09 3b 22 40 0c 3d d2 70 81 3c
       0.0019467865 0.0020927414 0.03424085 0.015800867
000090 02 7b e5 bc ef d1 a3 3c e2 50 7c 3c c3 3a 3e 3c
       -0.028012756 0.019997565 0.015400143 0.01161069
0000a0 93 4f 14 3d 4e 34 e0 bb 38 1a 07 3d d9 89 36 bc
       0.0362087 -0.0068421727 0.03298399 -0.011141264
0000b0 09 9b 9a bc ac 3e c9 3c 66 26 42 bd 0d 0a 4b 3b
       -0.018872755 0.024566017 -0.0473999 0.0030981333
0000c0 4a cc 2b 3d 04 52 d9 3c 48 e8 98 3c 06 4b eb ba
       0.041942872 0.026528366 0.018665448 -0.0017951436
0000d0 98 b6 9e 38 ce f8 bd 3b 19 50 62 bc 80 26 60 3c
       7.568038e-05 0.005797482 -0.013813042 0.013681054
0000e0 e4 3b 0e bb 9f 33 c9 bc c6 3f 2e 3b 84 66 62 bb
       -0.0021703178 -0.024560748 0.0026588305 -0.0034545967
0000f0 d1 4b 98 39 ef 89 45 3d b1 ef 33 bd ff 15 67 3c
       0.00029048187 0.048227247 -0.04392976 0.014104365
000100 ef 4c 3e 3b 5d a5 2d bd 34 cf e7 3b e2 e8 76 3b
       0.0029037555 -0.04239403 0.007074261 0.003767543
000110 51 f0 c1 bb 5d 4c 2f bc 73 07 42 3b a7 f6 26 bd
       -0.0059185405 -0.010699359 0.002960649 -0.04076257
000120 89 e4 9e 3c c9 5d a2 bb 36 14 34 bc 8a 95 94 3c
       0.019396083 -0.0049550277 -0.010991147 0.018137712
000130 a5 6c c0 bb 0d 4b 45 3c 6c 1e a5 bc fa fd b5 39
       -0.0058723264 0.012041819 -0.020156108 0.00034712238
000140 f6 a4 c2 3a bf 89 25 bd 68 d6 a8 ba 1f 17 1c 3d
       0.0014850188 -0.040414568 -0.0012881281 0.038107987
000150 c1 4a b5 3b 55 83 8b bc 75 b3 b2 bc 80 36 ea 3b
       0.005532593 -0.017030397 -0.021814087 0.00714761
000160 99 d6 93 3c c0 5b 13 bc af 4f 0a 3c ea 2b af bc
       0.018046664 -0.008994043 0.00844185 -0.021383245
000170 22 66 b3 3b b8 e0 07 bb fd dc ec bc 7b 25 2e bb
       0.0054748217 -0.0020733308 -0.02891397 -0.0026572633

encoder.block.1.layer.0.self_attention.o.weight f4 [6, 16]
000000 88 ef 3c bc 80 7b ac bc 6c b4 4b 3b 1c 4e 0d bd
       -0.011531718 -0.021054983 0.0031082882 -0.03449832
000010 ee 83 87 3c 3f 43 2e 3c 37 c6 08 bc b2 f2 d9 3c
       0.016542401 0.01063615 -0.008348039 0.026604984
000020 7a 6a f0 bc ab 1f cb 3b 2b f3 5a bb 42 32 51 3c
       -0.029347647 0.0061988435 -0.00334091 0.01276833
000030 61 3e 88 3c a8 b7 d8 bb 08 71 28 3c ff cd e8 bb
       0.016631307 -0.0066136904 0.010280855 -0.007104635
000040 f4 44 8d bb 6d 1e ff 3c 7b 47 66 bc 4c 89 ac 3c
       -0.0043111984 0.031142438 -0.014055128 0.021061562
000050 df 9f 54 bb 3a c4 1d bc 97 f0 4c bd c7 32 11 bb
       -0.0032443923 -0.009629304 -0.05003413 -0.002215551
000060 96 3a 8b 3c 9c 28 27 bc 3b ae ae bb bc 78 2b 38
       0.01699571 -0.010202553 -0.0053308285 4.088202e-05
000070 3a a5 7e 3b 5f 5f 09 bc 69 2e 36 3b af ae 38 bc
       0.0038855807 -0.008384555 0.0027798659 -0.011272117
000080 ee c6 1d 3c 1c 74 a5 3c 3e a7 a0 3c d4 2b 84 3c
       0.009629948 0.020196967 0.019610997 0.01613418
000090 fa 93 91 3c 9a 53 77 3c 3d e3 a2 3b e5 e8 51 bb
       0.017770756 0.015095616 0.0049709366 -0.0032029685
0000a0 e5 1c 34 bb 28 f5 e1 bb f2 dc fb 3b ff 46 0e bc
       -0.0027483043 -0.00689568 0.007686251 -0.008683919
0000b0 7b 23 ec bc 1d 60 08 bc a3 90 75 3c 0b c2 ac 3b
       -0.028825512 -0.008323696 0.014988097 0.005272155
0000c0 62 87 0d 3a 43 17 90 3c 7d 77 c4 3c c8 1e dd 3c
       0.0005398897 0.017589217 0.023982758 0.026992217
0000d0 57 39 99 38 bf b8 fd ba b3 79 dc 3c 13 87 a7 bb
       7.306289e-05 -0.0019357427 0.0269135 -0.0051125376
0000e0 70 d7 58 3b 11 7a 89 ba 62 a2 7c bc f5 67 61 bb
       0.0033087395 -0.0010488649 -0.015419574 -0.0034394239
0000f0 05 4c 74 bc 17 7a df 3b 7b 65 e3 bb 53 af e5 3b
       -0.014910703 0.006819974 -0.0069395876 0.0070094257
000100 93 8f a9 bb a2 c9 83 3b 3f aa 7b 3c 9f 5f e6 3b
       -0.005174586 0.0040218392 0.015360414 0.007030442
000110 f4 d8 c0 3b 7a d2 f6 3b 52 9b 91 bb 21 52 bd 3b
       0.005885238 0.007532415 -0.0044435645 0.005777613
000120 00 d4 9f bb e2 92 0f bc 59 24 02 3c 1f ba 40 bc
       -0.0048775673 -0.008763047 0.007943236 -0.011763125
000130 e3 63 c6 3b 96 9e 03 bc 16 20 36 3c f7 27 d2 3c
       0.006054388 -0.008033415 0.011116048 0.025653822
000140 02 f0 16 bc fb 5e 82 3b 76 26 0c 3c f2 96 4d 3c
       -0.009212496 0.0039786077 0.008554092 0.012548195
000150 bd 3a 74 3b a0 c8 da 37 72 31 40 bc 1c 1e b9 bc
       0.0037266456 2.6081048e-05 -0.011730539 -0.022597365
000160 a0 20 7d 3b c8 8f 8c bb f5 ed 8f 3b 52 fb 23 3a
       0.0038624182 -0.004289601 0.0043923804 0.0006255406
000170 74 ac 3a ba a2 e1 88 3c 4e 9e c2 bc 0d 26 af 3b
       -0.00071210344 0.016709153 -0.023757126 0.005345112

encoder.block.1.layer.0.self_attention.q.weight f4 [16, 6]
000000 5d db b6 3a 94 63 b4 bc 2f 94 12 bc e1 38 20 3c
       0.0013950873 -0.022020139 -0.008946463 0.009779186
000010 d1 b0 9b 3b a9 30 70 3b 75 d1 41 3c 65 a2 09 bb
       0.004751303 0.0036650097 0.011829724 -0.0021001336
000020 0b 9c df 3b 93 48 04 ba a5 a6 65 3c 1e 64 e4 3a
       0.0068240217 -0.0005046215 0.014016782 0.0017424857
000030 18 55 c2 3b 5f be bf bc 9c 59 a2 bb 81 42 53 bc
       0.005930554 -0.023406206 -0.00495453 -0.012894274
000040 45 3d b4 3b 29 b5 fe bb 7f 6c fb 3b d7 cd 2f bc
       0.005500468 -0.007773061 0.007672846 -0.010730228
000050 b8 44 7b 3a 6c bd a0 3a 31 15 df 3b c4 13 08 bc
       0.000958513 0.0012263483 0.006807946 -0.008305494
000060 24 20 6f bc ec 26 c8 bc 7a ad 07 bc 11 51 a7 bb
       -0.014595065 -0.024432622 -0.008281106 -0.0051060994
000070 68 3e 5b 3c 26 75 f8 3b 9e eb 46 38 4f ec 82 3b
       0.013381578 0.0075823246 4.7426314e-05 0.0039954553
000080 84 73 70 39 89 36 91 3c e9 56 3c 3c b8 0e 08 3c
       0.00022931217 0.0177262 0.01149533 0.0083042905
000090 74 49 aa b9 2e 6f a6 39 df 2e 21 bc 03 e4 8b bb
       -0.00032479654 0.00031744823 -0.009837835 -0.0042691245
0000a0 da cf ad bb 8f 54 97 3b 37 e4 8e bc 60 98 9a bb
       -0.005304319 0.0046182345 -0.017442806 -0.0047178715
0000b0 ef 16 67 ba 7a 6f 6b bb 18 a1 97 3b a5 f7 d1 3c
       -0.0008815368 -0.00359246 0.004627358 0.025630781
0000c0 dc 16 3e 3b 27 3a 9b bb ca 03 99 ba 86 0f 0a 3b
       0.0029005324 -0.004737157 -0.0011674103 0.0021066382
0000d0 26 13 60 3c 4e a4 05 3c 2d a0 2d bc 50 7e 3f 3c
       0.01367644 0.008156849 -0.010597271 0.01168783
0000e0 8c 25 b4 bb 61 59 9a 3b eb ad cf 3b d0 76 75 3c
       -0.00549764 0.004710362 0.0063378713 0.01498194
0000f0 cb 03 e5 bb b6 5a b7 bb ff 69 6c bc e0 48 e1 ba
       -0.0069889775 -0.0055955304 -0.014429568 -0.0017187856
000100 9b c4 fb 3b 7b 31 3a 3a 45 91 2d 3c 57 de bd ba
       0.0076833493 0.000710271 0.010593717 -0.0014485818
000110 f3 b0 42 3c ad d3 11 3b e7 3d ca 3a f4 52 46 3b
       0.011883008 0.0022251413 0.0015429825 0.0030261846
000120 72 ce 12 bc 49 99 32 3c 68 d6 49 3c 67 85 8e ba
       -0.008960353 0.010900804 0.012319185 -0.0010873497
000130 0e e3 0f 3c f1 05 65 bb 0f fe 22 bb d6 49 b0 3b
       0.008782161 -0.0034946168 -0.002487067 0.0053798957
000140 f5 51 fd 3b b1 06 85 3b 87 4f 33 bb 21 73 40 3c
       0.0077307173 0.0040596356 -0.0027360634 0.011746199
000150 4b 19 03 bc 53 52 95 bb 5b 6e b5 3b a9 14 8b bc
       -0.008001636 -0.004556933 0.005536837 -0.016977625
000160 71 f3 4f bc 34 f3 44 bc 7f 66 61 3c 7a 21 ac bb
       -0.012692318 -0.012020875 0.013757347 -0.005253014
000170 3e 0d 15 ba 8a fc c1 3c bb 00 ef 3a 0b 67 7c 3b
       -0.0005685872 0.02367999 0.0018234471 0.0038513567

encoder.block.1.layer.0.self_attention.v.weight f4 [16, 6]
000000 c0 f9 08 3d dc 8c 5b bd 6f 2c 97 3a ef 1a 95 bb
       0.033441305 -0.05360113 0.0011533628 -0.00455033
000010 27 5e 4e bb 10 e8 7e 3d 5a f8 b3 bc 7d 30 b1 bb
       -0.0031489225 0.06223303 -0.02196901 -0.0054073916
000020 9d f2 0e 3d dd 07 07 3d f4 3d bf bc 96 57 91 3b
       0.034899343 0.032966483 -0.023344971 0.00443549
000030 a5 1f ed bb 1d e2 2c bd 70 e7 c7 bc 65 8d 55 3c
       -0.0072364383 -0.042207826 -0.02440235 0.013034199
000040 fd c8 7d 3c 32 f0 73 3c c4 9e 88 bc b6 95 b8 bb
       0.015489814 0.01488881 -0.016677268 -0.0056330813
000050 c6 be 1c 3b 35 70 69 3c 17 be db bc a4 1d 9f 3c
       0.002391742 0.014247944 -0.02682404 0.019423313
000060 59 fe 8f 3b a4 36 f5 3c e6 f1 c8 bb e3 04 7e 3a
       0.0043943343 0.029933281 -0.006132352 0.0009690059
000070 62 14 bd bc 31 cd 16 3d f5 76 35 39 13 8a 69 3d
       -0.023081008 0.03681678 0.0001730582 0.057016443
000080 80 db 8a bd 32 bc cf 3c fe 1a a9 bc 31 e8 b3 3a
       -0.067801476 0.025358293 -0.020642754 0.0013725815
000090 53 6b bf bc 3f 4f 73 bc b7 7d 11 3b 35 58 d7 3c
       -0.023366606 -0.014850437 0.0022200176 0.026287178
0000a0 05 6a 00 bc 37 68 3c bc 5e 79 54 bc 19 c6 08 bd
       -0.007837777 -0.011499456 -0.012968389 -0.033392046
0000b0 82 0f 2e 3c 37 0c bd 3c 9f 05 51 bd e2 f5 6a 3c
       0.010623815 0.023077114 -0.05103075 0.01434085
0000c0 f6 7d 71 3c ef fd ca b9 38 76 9b bc da 1c d6 bb
       0.014739504 -0.00038717638 -0.01897727 -0.006534201
0000d0 9b 97 b6 3b 87 80 92 3c e5 18 d8 3c e1 d1 92 bc
       0.005572272 0.017883552 0.026379058 -0.017922344
0000e0 a3 3e 12 3c d3 7f 0b 3d 9b e9 68 bc 44 92 ef 3c
       0.008926067 0.03405745 -0.014215852 0.02924455
0000f0 8c 58 b4 bb 80 37 86 3c ee 5a da b9 59 58 ad 3c
       -0.0055037197 0.016383886 -0.00041647948 0.021160292
000100 07 3f b3 bb 72 b8 75 bc d5 69 00 bd bb a2 17 bc
       -0.00547016 -0.0149975885 -0.03135093 -0.009255107
000110 54 e5 b7 bc 11 01 0c bd e2 d1 00 3d 0b 00 b8 bc
       -0.02244822 -0.034180705 0.03145016 -0.022460958
000120 d8 61 4a bc 87 4b 50 bc 19 10 12 bc 07 c4 94 bc
       -0.012352429 -0.01271332 -0.008914971 -0.01815988
000130 49 53 0c bd d8 e9 11 3d 41 35 e5 3b b4 ee 12 bb
       -0.034259114 0.0356234 0.0069948738 -0.002242011
000140 02 15 3a bc 1e 29 80 3c e2 4f 09 bb d4 0f d2 3b
       -0.011357548 0.015644606 -0.0020952155 0.0064105783
000150 91 c5 de bb fd 4f e5 3b 10 47 d7 3c a8 e5 bc b9
       -0.006798454 0.0069980607 0.026279002 -0.00036029262
000160 db 81 b7 bb 71 c8 de 3c cf e0 1a bb 85 7e 61 3c
       -0.005600197 0.027195187 -0.0023632532 0.013763075
000170 fc 0e 3d 3d 36 cf c4 3b ce bf 28 bd 2d cb 0e 3d
       0.04615687 0.006006147 -0.041198544 0.034861732

encoder.block.1.layer.1.layer_norm.weight f4 [6]
000000 cd cc 4c 3d cd cc 4c 3d cd cc 4c 3d cd cc 4c 3d
       0.05 0.05 0.05 0.05
000010 cd cc 4c 3d cd cc 4c 3d
       0.05 0.05

encoder.block.1.layer.1.self_attention.k.weight f4 [16, 6]
000000 28 49 d1 3c f0 f4 7b 3c ca dc 90 3c d9 43 9b 3b
       0.025547579 0.015378222 0.017683405 0.0047383127
000010 a5 d7 cd ba 08 7a 67 3c a5 98 16 3d 8e 48 8b 3c
       -0.0015704526 0.014128216 0.036766667 0.01700237
000020 a3 b6 f0 bc 17 3e 94 bc f0 62 b0 3c db 34 dd 3b
       -0.029383963 -0.018096013 0.021531552 0.0067506856
000030 fb 52 85 3c 12 44 93 b9 6f ff 9e 3c 57 40 c9 3c
       0.01627492 -0.0002808874 0.01940891 0.024566812
000040 18 47 61 bb b7 27 51 bc 96 e4 61 3c 5c 2e 33 3c
       -0.003437465 -0.012765816 0.013787409 0.010936346
000050 83 77 9e bb b0 31 e6 ba 42 6e 01 bc 4d 9a bb bb
       -0.0048360243 -0.0017562415 -0.007899823 -0.005725181
000060 85 d4 88 bc ad d5 9c 3c 20 66 3a 3d 58 89 be 3c
       -0.0167029 0.019144857 0.04550755 0.02325885
000070 c7 32 ec bc cc 35 6b 3c af 3f e1 bb 84 2e e9 bb
       -0.028832806 0.014356088 -0.0068740468 -0.007116141
000080 33 60 54 bb f8 81 e7 bc d1 5b e5 bc b9 e4 12 3d
       -0.0032405972 -0.028260216 -0.027997883 0.03586266
000090 84 38 06 bd e2 34 e4 bc 5a a4 6f 3a 1e e4 33 3c
       -0.03276874 -0.027857248 0.0009141617 0.01097968
0000a0 88 ca 24 3d df e7 64 3c 4d 5a 1b bd a1 a3 61 bc
       0.04023221 0.013971298 -0.037927914 -0.013771922
0000b0 a9 0f c2 bc ea d1 0a bc 6e 09 d9 bb 70 8b 09 3d
       -0.023689108 -0.008472899 -0.0066234386 0.033580244
0000c0 0f d0 68 bc 83 0e ae bb 31 b1 86 3a 83 a7 8b bc
       -0.014209761 -0.0053117885 0.0010276196 -0.01704765
0000d0 bc 5b 1d 3d 5f 80 a0 3c ef e8 fb 3b 84 1c 00 bd
       0.038417563 0.019592462 0.00768768 -0.031277195
0000e0 9b 81 fd bc e9 3f 05 bd 39 9f ce bb 37 2e b1 3a
       -0.03094559 -0.032531653 -0.006305602 0.0013517801
0000f0 77 bc 9a bc 49 f6 2d bc f9 05 d1 3c f1 3c 95 3c
       -0.018888695 -0.010617801 0.025515543 0.018217536
000100 c3 05 ed bb c1 3a 38 3c 80 c9 8e 3c b3 f2 e4 3c
       -0.007233353 0.011244477 0.017430067 0.02794776
000110 7d ad 01 bd c6 58 97 3c c3 bd aa bb 15 93 5d bb
       -0.031659592 0.018474948 -0.0052106096 -0.0033809592
000120 60 a0 16 3d ef a5 24 bc d5 f1 de 3c 9e 82 b2 bb
       0.03677404 -0.010049327 0.027214924 -0.0054476997
000130 b4 c5 92 bc 7a cc b6 3b 73 51 1a bd b0 c3 ae bb
       -0.017916538 0.0055785747 -0.037675332 -0.0053333864
000140 56 41 33 3c de e6 61 bb f1 7e c8 3c 8d b1 b4 3c
       0.01094087 -0.0034469883 0.024474593 0.022057319
000150 72 12 ab 3c bd b3 c5 bb 85 8f 8c 3c cd a4 ed 3a
       0.020882819 -0.0060333894 0.01715828 0.001813078
000160 14 99 b8 bb 59 e1 97 bc ca a0 a1 bc d4 6b 78 3c
       -0.0056334827 -0.018540071 -0.01972999 0.015162427
000170 c1 1b 9f 3c 6e fd 55 3b e6 f9 36 bb 35 80 8e 3c
       0.019422414 0.0032652277 -0.0027919947 0.017395118

encoder.block.1.layer.1.self_attention.o.weight f4 [6, 16]
000000 45 c3 88 3c 82 34 91 bc 16 e9 b9 ba 91 8b be bb
       0.016694674 -0.017725233 -0.0014183845 -0.0058149775
000010 9d b7 f0 3b 0d c5 c7 3b 83 e3 36 bc 97 07 d3 bb
       0.007346107 0.0060964883 -0.011162641 -0.0064401138
000020 cf b3 09 3c 67 41 5f 3b 15 ea 0f bc 1d ff cf 3b
       0.008404686 0.0034066082 -0.008783837 0.0063475505
000030 df 62 c6 3b 1e 71 ad 3c ec 5b bd 3b 7e 98 b5 bc
       0.006054267 0.021172103 0.00577878 -0.02216744
000040 bf 14 52 ba 37 8c dc 38 dd 18 e9 3b c7 1c 0a 3d
       -0.00080139557 0.000105165345 0.0071135596 0.03371885
000050 33 c7 03 bc 82 29 6a bc 25 1a 95 3c 2f 32 dd 3b
       -0.008043098 -0.014292123 0.018200943 0.006750367
000060 44 5d c6 bb 63 f3 03 bb d2 4e 73 bc 3b d3 00 3c
       -0.0060535986 -0.0020134083 -0.014850335 0.007862861
000070 57 14 71 3c ea 07 a8 bb f3 50 b8 bc 6f 55 5b bc
       0.014714322 -0.0051278966 -0.022499537 -0.013387068
000080 9d 5f 70 bc 23 2d 1b 3c e3 0d 27 3b ff c6 40 3b
       -0.0146712335 0.009471211 0.0025490455 0.0029415486
000090 2f 93 b0 3b 1d 7f 72 3a 25 5f b8 3c 45 2b 4f ba
       0.0053886394 0.0009250509 0.022506306 -0.0007902871
0000a0 3f 4a 98 3b d0 74 56 3b 94 a8 2d bc fe 94 05 3c
       0.0046475227 0.0032723434 -0.010599274 0.008153198
0000b0 35 55 15 bc c8 a7 d7 3a ba 5b c0 3c e7 27 85 3b
       -0.009114553 0.0016453201 0.023481239 0.0040635946
0000c0 fb 4f e9 ba e2 a2 51 3a 08 48 17 3b ef 12 37 3c
       -0.0017800325 0.0007996989 0.0023083705 0.011173948
0000d0 18 93 cf 3c a4 a3 a6 bb 01 5c 8a bb 4c 17 cb bc
       0.025338694 -0.0050854255 -0.0042223935 -0.024791382
0000e0 d3 48 44 bc 77 8f 0e bb 89 3f 09 3b b7 85 39 3c
       -0.011980253 -0.0021752992 0.002094241 0.011323384
0000f0 ea 1b 26 bc 7b 6d 46 3c 95 2d f2 bb 28 6a a2 bb
       -0.010138491 0.012111063 -0.0073906877 -0.0049565025
000100 c8 38 d8 bc 45 aa a5 ba 3b f1 b4 3c eb 4c 40 ba
       -0.026394263 -0.0012639245 0.022087684 -0.00073356804
000110 3b 34 85 bc e9 1a 9b 3c 48 13 0e 3a 00 bd 9e 3c
       -0.016260257 0.01893373 0.0005419743 0.019377232
000120 30 02 cd 3b 6d 6c 6e bc 2b ef a6 bb b8 6b 1a 3b
       0.0062563643 -0.014552218 -0.005094429 0.002356274
000130 7f 1e 1d bc 7b ae 44 3c c2 f2 5f bc 22 8c e2 3b
       -0.00958979 0.01200449 -0.013668718 0.006913678
000140 3d 10 db b8 62 de 0f bc ed a3 f7 3c ed 79 6b 3c
       -0.000104457584 -0.008781048 0.030229533 0.014372331
000150 7f 20 8c bc 6a 2f fc 3a 2c f9 bb bb 50 9e 03 bd
       -0.01710534 0.0019240205 -0.0057364907 -0.0321334
000160 68 9d 62 ba 42 c1 0e bb a8 b1 12 bc 10 5c f5 ba
       -0.0008644671 -0.002178267 -0.008953489 -0.0018719453
000170 e0 5a fd bc e7 f0 e2 3b a4 aa 00 bc ae 90 48 3c
       -0.030927122 0.0069256905 -0.007853184 0.012241526

encoder.block.1.layer.1.self_attention.q.weight f4 [16, 6]
000000 e0 49 4a bc ad 4f 9e 3c a7 93 fe 3b a8 4f bb bb
       -0.012346715 0.019325102 0.0077690664 -0.005716283
000010 70 60 35 bc 6d 8d 54 bc b9 70 98 3b 40 71 57 ba
       -0.011070356 -0.012973172 0.0046521095 -0.00082184747
000020 26 95 ec 3b e2 af 88 3a 8f ce dc 3a ba 53 11 bb
       0.0072199283 0.0010428394 0.0016846227 -0.002217515
000030 17 9a 1c 3a 6c f7 8d 3c 48 82 2c 3c 1c 12 7a 3b
       0.0005973889 0.017329894 0.010529108 0.0038157767
000040 fc 9e cb 3b b7 62 ac bb 95 89 da 3b 6f a5 11 bc
       0.006214021 -0.005260791 0.006669233 -0.00888954
000050 0b be 52 3b 5a 3d 76 bc 7f 3a 46 ba 89 0e db 3b
       0.0032156731 -0.015029276 -0.0007561817 0.0066850823
000060 e8 71 1a 3a d5 ec 0a bc 72 19 0f bc b7 3e 06 39
       0.0005891607 -0.008479317 -0.008734094 0.00012802599
000070 92 4f 5f bb e9 8f 35 bb f7 89 4d 3b f8 c9 8d bc
       -0.0034074527 -0.0027704185 0.003136275 -0.01730822
000080 07 da 44 3c 04 ac 14 3b eb cf 37 bc 07 a3 3b bb
       0.012014872 0.0022685537 -0.011219005 -0.0028631107
000090 b1 60 c0 bb e5 61 0f 3b fe 0a 8b 3b 97 f5 93 bb
       -0.0058709015 0.0021878418 0.0042432537 -0.0045153606
0000a0 c9 a4 3f bc bd 5e e1 ba a3 43 73 3a be 4a a1 bc
       -0.011697003 -0.0017194372 0.0009279793 -0.01968896
0000b0 13 97 95 3a af 19 6f bc 1b 11 98 bb a7 50 e7 3c
       0.0011412821 -0.014593526 -0.004640711 0.0282367
0000c0 7f 36 4c 3c 86 85 17 3b 23 ad c2 bb 3d 4a 40 bb
       0.012464165 0.0023120358 -0.0059410497 -0.0029341124
0000d0 a7 b6 e7 3b cd e9 9d bb 1a 9d 36 3c 43 14 95 3c
       0.0070713344 -0.004819131 0.011145854 0.018198138
0000e0 1c e0 86 bb 19 9a 1e 3c 91 00 aa 3c 8d 0d 17 3c
       -0.0041160714 0.009680294 0.020752223 0.009219539
0000f0 12 e0 a4 3b 6a ab 1b ba 17 75 2e 3b 03 0f 1b ba
       0.005031594 -0.00059383234 0.0026620084 -0.00059150177
000100 5f cb 6d 3b 42 02 2d bb 87 33 06 3c f3 58 2d 3c
       0.0036284549 -0.002639905 0.008190996 0.010580289
000110 49 09 63 3b 18 d8 fe bb 94 84 d5 3a 8a f6 61 3c
       0.0034642986 -0.007777225 0.0016290122 0.01379169
000120 23 ff 18 3b f6 4d 16 3c b3 62 0b ba 07 54 35 bc
       0.0023345433 0.009173861 -0.00053171365 -0.011067397
000130 44 e5 5e 3c 8a b0 0a bc 35 5c d2 bb a1 39 06 3c
       0.013604466 -0.008464942 -0.0064196833 0.008192451
000140 4d 85 61 3a ab 3d 37 39 bb da 8f bc 9a fa a0 bb
       0.0008602932 0.00017475213 -0.017560354 -0.0049126865
000150 a8 68 4d bb 02 a6 ea ba 4b d1 fe 3b d9 c9 43 3c
       -0.0031342898 -0.0017902257 0.0077764145 0.01194998
000160 e1 5b 8d bb cc be 2e 3a 74 e4 39 3a ce fa 30 bc
       -0.0043139313 0.0006666004 0.0007091232 -0.010801984
000170 90 bd ca bb 77 8f 24 3b b7 53 6a 3b 12 60 da bb
       -0.0061871484 0.0025109926 0.0035755464 -0.0066642845

encoder.block.1.layer.1.self_attention.v.weight f4 [16, 6]
000000 f2 0b 0d bc 9b d4 2a bd d0 fd f3 3b 68 be d4 bb
       -0.008608805 -0.041706663 0.0074460283 -0.0064924248
000010 3c ce 92 3c 1c b5 82 bc 51 16 35 bd b5 25 c0 3c
       0.017920606 -0.0159555 -0.044210736 0.02345548
000020 90 05 47 bc ff 84 1c bc 72 55 88 b9 b0 0c 34 bd
       -0.012147322 -0.009553193 -0.00026003603 -0.043957412
000030 f7 95 d4 ba ea e8 28 bb 59 6c b5 3b ec f3 7e 3c
       -0.0016219009 -0.0025773593 0.0055365977 0.015561085
000040 fd 81 16 bd 67 9a 26 bc 11 11 90 b8 d1 cc 0c 3d
       -0.03674506 -0.010168648 -6.869634e-05 0.034375016
000050 cc 1a 99 bc c8 b0 36 3c 5e 83 7b 3c 36 69 ef 3c
       -0.018689536 0.011150546 0.015351145 0.029224973
000060 42 4f ce bc 4e 7f 00 3d 12 25 11 bc 54 f9 be bc
       -0.025184277 0.031371407 -0.008858936 -0.023312248
000070 f3 31 b6 bb 14 b9 82 bc f4 04 8d 3b 9b 8a 0b ba
       -0.0055601536 -0.015957393 0.004303569 -0.0005323083
000080 76 99 b1 bc 4e 60 0b bc 6a 9f d8 3c f6 bd 4f bc
       -0.021679621 -0.008506848 0.026443202 -0.012679568
000090 9a 2d 7c bc 40 82 2e bd f0 a1 3b bc ce 26 21 bd
       -0.015391732 -0.042604685 -0.011452183 -0.039343648
0000a0 32 cc 9f 3c 86 72 47 bc b4 db cc 3b 55 f5 ba 3c
       0.019506548 -0.012173301 0.0062517766 0.022822062
0000b0 08 5f d9 3c f7 8b 32 bc ed dd 42 3c e4 d4 02 bd
       0.026534572 -0.010897628 0.011893732 -0.03194131
0000c0 bc 6e 17 bc 29 b4 95 bc d9 3c 16 3d d2 9c bd bc
       -0.00924271 -0.018274384 0.036679123 -0.023146067
0000d0 52 0a 9e bb 10 ae 73 bc 97 42 b1 bc a3 75 28 3c
       -0.0048230076 -0.014873043 -0.021638198 0.010281953
0000e0 95 ad ef bc 69 fd 8c bc f5 8c 49 bb ca 35 2f bd
       -0.029257575 -0.01721068 -0.0030754183 -0.042775907
0000f0 df 9c 04 3c 19 e7 48 bc b8 88 a6 3c a1 89 0d bc
       0.008094042 -0.012262129 0.020328864 -0.00863877
000100 32 0a a0 bb 30 80 a3 3b a2 26 94 bc 10 32 8d bc
       -0.004884028 0.0049896464 -0.018084828 -0.017235786
000110 ce 96 13 bc ba 8c 49 3c a4 30 12 bc 5c 93 62 3c
       -0.009008123 0.012301618 -0.00892273 0.0138290785
000120 e1 57 50 bc 67 99 12 3d da fe 05 3d 77 2a 7d bc
       -0.012716264 0.035790827 0.03271375 -0.015452019
000130 a8 db d8 3b a4 fc da 3b ae 13 ad 3c 2d 61 6e 3c
       0.006617982 0.006682949 0.021127548 0.014549536
000140 37 29 1e bb a7 ec 4a 3c 2b 80 65 bb a0 cf 23 bd
       -0.0024133453 0.012385524 -0.003501902 -0.03999293
000150 a6 53 4f 3c c1 13 4e bc 13 50 9c 3a 0f db d4 bc
       0.012654221 -0.012577952 0.001192572 -0.025983362
000160 ff 4f 41 3d f5 42 d9 bc 30 19 81 3c ce 21 92 3c
       0.04719543 -0.026521185 0.01575908 0.017838385
000170 01 08 1d 3c a4 39 41 3c 49 1e 3b 3c 7b 6c 7a bc
       0.009584428 0.011793528 0.011420795 -0.015284653

encoder.block.1.layer.2.layer_norm.weight f4 [6]
000000 cd cc 4c 3d cd cc 4c 3d cd cc 4c 3d cd cc 4c 3d
       0.05 0.05 0.05 0.05
000010 cd cc 4c 3d cd cc 4c 3d
       0.05 0.05

encoder.block.1.layer.2.mlp.wi.weight f4 [8, 6]
000000 a1 21 90 bc ea 91 cc bc 5f c1 38 bb c9 9f ae bc
       -0.01759416 -0.024971921 -0.002819143 -0.021316426
000010 a2 b4 27 bc 3d 62 e5 3b 4f bd 2a 3d 4d 50 35 bc
       -0.010235937 0.0070002363 0.041684445 -0.0110665085
000020 12 b7 b0 bb ca 8d 11 bd 87 07 38 3c 0a e0 f2 bb
       -0.0053929174 -0.03553561 0.011232263 -0.0074119614
000030 26 d9 5e 3c 7c db df 3c 60 69 c8 3c 48 c8 03 3c
       0.013601577 0.027326338 0.02446431 0.008043356
000040 92 16 a8 bb b1 9b dd bb 45 6d 82 3d 4e ec e7 bc
       -0.0051296437 -0.0067629446 0.06368498 -0.028310921
000050 f0 c1 8d 3c 40 fc 09 3c 88 a0 7c 3b 43 db ca 3b
       0.01730439 0.0084219575 0.0038547833 0.006190689
000060 16 78 83 3c 00 91 ba bc 17 6d e5 bc 71 a4 92 bc
       0.016048472 -0.02277422 -0.02800612 -0.017900677
000070 41 c1 8e bc 35 f4 9f 3c 42 7f b2 bc 95 63 20 3c
       -0.017426135 0.019525627 -0.021789197 0.009789367
000080 b9 60 a1 3c 56 4e 16 3c db 94 14 3d c2 17 9d 3c
       0.019699441 0.00917395 0.036274772 0.019176368
000090 e4 66 22 3c 65 7e ef bc b9 b4 9c 3b 50 fe d8 3c
       0.009912226 -0.029235074 0.004782286 0.026488453
0000a0 23 fb 0c bd 45 0a 4d 3b 48 23 79 3c 49 12 bb 3b
       -0.03441919 0.0031286639 0.015206166 0.005708967
0000b0 a2 25 00 3d e3 4c 87 bc ed 7b ce 3c 9c c1 9f bc
       0.03128589 -0.016516155 0.025205577 -0.0195015

encoder.block.1.layer.2.mlp.wo.weight f4 [6, 8]
000000 56 e6 4a bb fb 60 6d bc ee ab d0 bb 20 16 cb bc
       -0.0030960045 -0.014488454 -0.006368152 -0.024790823
000010 35 86 c6 bc ea 40 c6 3b fe 86 67 bb 81 7b f4 3c
       -0.024233917 0.006050219 -0.0035328264 0.029844048
000020 6d d9 57 bc 8f 5c 49 bc ce 40 12 3a d4 03 86 38
       -0.013174397 -0.012290134 0.00055791147 6.390331e-05
000030 56 b5 03 3d 60 2a ee bc 22 f7 bd 3b ce 19 a3 bb
       0.032155357 -0.02907294 0.005797283 -0.0049774414
000040 cf bb 26 bc a1 78 60 3c d5 12 dd 3c 2d b2 a9 3c
       -0.010176613 0.013700635 0.026986519 0.020714844
000050 dd fb 82 3c f1 cd 73 bc 99 d0 f0 bb 75 8e 37 bc
       0.015989238 -0.014880643 -0.0073490855 -0.011203398
000060 60 f9 03 bd cf 4b 17 3c d0 44 ec bc c7 7c 4e bb
       -0.032220244 0.009234383 -0.028841406 -0.0031507479
000070 8c 36 be 3c 06 5f 45 bb df ba a2 3c e5 11 78 bc
       0.02321937 -0.0030116453 0.019864498 -0.015140985
000080 d1 d9 a1 3c 4e 1c 05 3c 33 de 80 b8 45 95 1e bc
       0.019757183 0.008124424 -6.1449035e-05 -0.009679143
000090 24 24 1b bb 1f be 0d bc 66 dc b3 3c 02 37 84 bc
       -0.0023672665 -0.008651285 0.02195568 -0.016139511
0000a0 28 43 e9 3c 4f 7b 25 3c d9 8f c2 3b 83 a7 e0 ba
       0.028474405 0.0101002 0.005937558 -0.0017139766
0000b0 3c 1e 0f 3c 06 99 bb bb 3e f6 53 3c 59 38 82 bc
       0.008735236 -0.005725029 0.012937127 -0.01589601

encoder.final_layer_norm.weight f4 [6]
000000 cd cc 4c 3d cd cc 4c 3d cd cc 4c 3d cd cc 4c 3d
       0.05 0.05 0.05 0.05
000010 cd cc 4c 3d cd cc 4c 3d
       0.05 0.05

input_patch_embedding.hidden_layer.bias f4 [8]
000000 00 00 00 00 00 00 00 00 00 00 00 00 00 00 00 00
       0.0 0.0 0.0 0.0
000010 00 00 00 00 00 00 00 00 00 00 00 00 00 00 00 00
       0.0 0.0 0.0 0.0
