test/dummy-chronos-bolt-model/model.safetensors (safetensors, 85408 bytes, 101 tensors)

decoder.block.0.layer.0.SelfAttention.k.weight f4 [16, 8]
0	0xbbce299a	-0.0062915804
1	0x3cc0d33e	0.023538228
2	0x3c3bfc1a	0.01147368
3	0x3c07adef	0.008281215
4	0xbc4a07ab	-0.01233093
5	0x3c017e4a	0.007903645
6	0x3cca2cbe	0.024679538
7	0xbc2eca68	-0.010668375
8	0xbc1ab5aa	-0.009442726
9	0xbb916f07	-0.0044382843
10	0x3c36b60a	0.0111518
11	0xbc180888	-0.009279378
12	0x3cc2db4a	0.023786206
13	0xbd293c65	-0.041317362
14	0x3b8d2a7d	0.0043080435
15	0xbb1415ff	-0.0022596119
16	0x3ab169f1	0.0013535601
17	0xbca24ff4	-0.019813515
18	0xbb6901a9	-0.0035553968
19	0xbcf230c9	-0.029564278
20	0xbc7fe463	-0.0156184165
21	0xbc2e571e	-0.010640888
22	0xbbb6b235	-0.005575443
23	0xbc537d0b	-0.012908231
24	0xbc15ae51	-0.009135799
25	0x3c597fe8	0.013275124
26	0xbd0be3b8	-0.034152716
27	0x3c0002ec	0.007813197
28	0x3c1d374e	0.009595705
29	0xbafbfb37	-0.0019224648
30	0xbb8170c6	-0.003950211
31	0xbb87bf30	-0.0041426644
32	0x3c7dc188	0.015488036
33	0x3b39100b	0.0028238322
34	0x3cf211de	0.029549535
35	0x3cce090b	0.025150796
36	0xbc0bcfb3	-0.008533406
37	0xbcc5ed82	-0.024161104
38	0xbbd89373	-0.006609374
39	0xbc5fefc8	-0.013668008
40	0x3cecfc2d	0.02892884
41	0x3c928a22	0.017888132
42	0xbc1d5d32	-0.009604739
43	0x3cd72f4d	0.026267672
44	0xbb0f41ed	-0.0021859363
45	0x3ca301f7	0.019898398
46	0x3d30237f	0.0430026
47	0x3c5bb1f6	0.013409128
48	0xba91ab3e	-0.0011113656
49	0x3d05ca2f	0.03266352
50	0xbbc2a5c8	-0.005940173
51	0xbb428776	-0.0029682792
52	0x3cad4610	0.021151572
53	0x3ba606af	0.0050667147
54	0xbb17aa43	-0.0023142255
55	0xbc8b17c8	-0.016979113
56	0xbc0c76a8	-0.008573212
57	0x3bf42636	0.007450844
58	0xbab1513f	-0.0013528242
59	0x3c4be16b	0.012443881
60	0xbcd21d38	-0.025648698
61	0x3aa1a9b0	0.0012333896
62	0x3b597646	0.0033182069
63	0xbd00d37c	-0.031451687
64	0xbc88bf47	-0.01669277
65	0x3c25e47b	0.010125275
66	0x39c95908	0.0003840404
67	0x3cb1e2e9	0.021714645
68	0x3d31f722	0.043448575
69	0xbc3256ed	-0.0108849825
70	0xbc5e1c98	-0.013556622
71	0xbce908da	-0.028446604
72	0x3d11ec95	0.035626013
73	0xbb45f5a1	-0.003020622
74	0x3a0951c6	0.00052383204
75	0xbc958496	-0.018251698
76	0x3c1634dd	0.009167877
77	0xbca7d1d0	-0.020485789
78	0x3bb62cba	0.005559531
79	0xb9a9168b	-0.00032250988
80	0xbb89ebed	-0.0042090327
81	0xbcd06fa6	-0.025443863
82	0x3d0dd996	0.034631334
83	0xbbfcfaa6	-0.0077203093
84	0x3c1010d3	0.008793074
85	0xbc7cd261	-0.015431018
86	0xbb331952	-0.0027328325
87	0x3caff20f	0.021477727
88	0x3bf7602d	0.007549307
89	0xbc5ba1d9	-0.013405287
90	0xbc9a4e9f	-0.018836318
91	0x3bfe6782	0.007763804
92	0xbb3236c3	-0.0027193285
93	0xbc85e35c	-0.016343765
94	0xbc5346c5	-0.012895291
95	0xbcac005a	-0.020996261
96	0xbd39a4bf	-0.04532313
97	0x3c5f319e	0.0136226695
98	0xbc83e5cd	-0.016100788
99	0x3c806fbc	0.01567828
100	0x3c531705	0.012883906
101	0xbb8b9761	-0.004259989
102	0x3c7109a3	0.01471177
103	0xbd393ab9	-0.045222018
104	0xbce5af01	-0.02803755
105	0x3b8c77b6	0.0042867316
106	0xbba2711a	-0.0049573304
107	0x3b6a2bdb	0.0035731706
108	0xbc48d48b	-0.012257705
109	0xbaad46b6	-0.0013219926
110	0xbcaf3e84	-0.021392114
111	0xbcd4d38e	-0.025979783
112	0xbaf0de85	-0.0018376863
113	0xbce3651d	-0.027758176
114	0xbccb69d3	-0.024830734
115	0xbca66b9c	-0.020314984
116	0x3c2c5df4	0.010520447
117	0xbc460853	-0.012086946
118	0x3cdb2760	0.026752174
119	0xbcd8c68c	-0.026461862
120	0xba858683	-0.0010187182
121	0xbc9c09b1	-0.01904759
122	0xbca3dd6a	-0.02000304
123	0xbb76980a	-0.0037627243
124	0xbcee6d1d	-0.029104764
125	0xbc97bd3e	-0.018522855
126	0xbcbdf143	-0.023186332
127	0x3ba3ca77	0.004998501

decoder.block.0.layer.0.SelfAttention.o.weight f4 [8, 16]
0	0x3cbe6004	0.023239143
1	0x3b37c077	0.0028038302
2	0xbc8fe0c8	-0.017563239
3	0x3d4b7e9f	0.049681302
4	0xbd0c26f9	-0.034216855
5	0xbd480e03	-0.048841488
6	0x3cb4c6fa	0.022067536
7	0xbd26312a	-0.04057423
8	0x3cef1c9b	0.029188445
9	0x3bc13b99	0.005896997
10	0xbd24ccd7	-0.040234413
11	0x3c77f143	0.015133205
12	0x3cdf89f5	0.027287463
13	0x3d28334d	0.04106455
14	0x3cf5e98e	0.030018594
15	0xbcdec64b	-0.027194163
16	0x3cac6388	0.021043554
17	0x3cc2d069	0.023781018
18	0x3ba59b08	0.0050538816
19	0x3d18e4b6	0.03732749
20	0xbd18e636	-0.03732892
21	0xbcd4a70f	-0.025958566
22	0x3ccf7fad	0.025329435
23	0xbc5b4f34	-0.013385583
24	0x3d189bf8	0.03725812
25	0x3d19fae3	0.03759278
26	0xbd02c9a6	-0.03193059
27	0x3c873919	0.016506718
28	0x3ced60c0	0.028976798
29	0x3d460239	0.048341963
30	0x3cb815ea	0.022471387
31	0xbd450089	-0.048096213
32	0xbc124a84	-0.008928899
33	0xbd1bf10e	-0.038071685
34	0xbd1308c5	-0.035897035
35	0xbc4c834f	-0.012482478
36	0x3ce78c0f	0.028265027
37	0x3cab7b89	0.02093293
38	0xbd8bc40a	-0.06824501
39	0x3b24c6eb	0.0025142978
40	0xba96e1b4	-0.0011511357
41	0xbc99f404	-0.018793114
42	0x3bd34d04	0.00644839
43	0xbda7d310	-0.08194554
44	0xbcf08589	-0.02936055
45	0xbd073ebd	-0.033018816
46	0xbcee528d	-0.029092098
47	0x3cdef0ec	0.02721449
48	0xbcf743dd	-0.030183727
49	0xbc318378	-0.010834567
50	0xbc7b4c2c	-0.015337985
51	0xbd4796f3	-0.04872794
52	0x3d6ec712	0.058295317
53	0x3d66a8de	0.056313388
54	0x3c034cc6	0.00801391
55	0x3d6a738a	0.057239093
56	0xbd11b90c	-0.035576865
57	0xbd81c6be	-0.06336735
58	0x3d26f79b	0.04076348
59	0xbc83e39c	-0.016099744
60	0xbd347c73	-0.044063997
61	0xbd3a9d9c	-0.045560464
62	0xbcc34afe	-0.02383947
63	0x3cfeb380	0.031091452
64	0x3cd537a8	0.026027516
65	0x3d076f44	0.033065096
66	0xbb5bb6f4	-0.0033525797
67	0x3cba037e	0.022706743
68	0xbd594d88	-0.053052455
69	0xbd6137a9	-0.054984722
70	0x3cef782c	0.029232107
71	0xbc9271c2	-0.01787651
72	0x3d38cdcc	0.04511814
73	0x3d1abe8c	0.037779376
74	0xbc43ac4e	-0.011942936
75	0xbc8aecf2	-0.016958687
76	0x3d277256	0.040880524
77	0x3d01d7e1	0.03170002
78	0x3d4d8355	0.050174076
79	0xbc4eebdb	-0.0126294745
80	0x3c1a55df	0.009419887
81	0xbd6e32f2	-0.058154054
82	0x3d688892	0.05677087
83	0x3cad0050	0.021118313
84	0xbcce9491	-0.025217326
85	0xbcb9fb0d	-0.022702718
86	0x3d53080d	0.05152135
87	0xbc727abb	-0.014799769
88	0x3c9b6043	0.0189668
89	0x3cb99ee8	0.02265878
90	0xbbd35158	-0.006448906
91	0xbc23eefc	-0.010005709
92	0x3c938b56	0.018010776
93	0xbb046ad6	-0.002020528
94	0x3d1217b3	0.035667133
95	0xbce8bb47	-0.028409613
96	0xbd12327f	-0.035692688
97	0xbd2d76a8	-0.042349488
98	0x3ca15ce2	0.01969761
99	0xbd4f5688	-0.050619632
100	0x3d2092b3	0.039202403
101	0x3d257761	0.04039705
102	0xba017b00	-0.0004939288
103	0x3d46c5be	0.048528425
104	0xbca160c8	-0.01969947
105	0xbd242aaf	-0.04007977
106	0x3c9dff7b	0.019286862
107	0x3c399a2a	0.0113282595
108	0xbcaba396	-0.020952027
109	0xbccc16dc	-0.024913244
110	0xbd23c0e8	-0.03997889
111	0x3cdbc1d5	0.026825825
112	0x3d18e07a	0.037323453
113	0x3cad4b23	0.021153992
114	0xbcd4fdde	-0.02599996
115	0x3cc188bd	0.023624772
116	0xbd53f115	-0.051743586
117	0xbd2ff6ea	-0.042960085
118	0x3c37f0d9	0.011226856
119	0xbd48ef9f	-0.049056645
120	0x3d50f32c	0.051013157
121	0x3d19ab23	0.037516724
122	0xbcb0e323	-0.021592682
123	0x3cf2d5ef	0.029643027
124	0x3d801c06	0.06255345
125	0x3d12d7d9	0.03585038
126	0x3ca9a380	0.020707846
127	0xbd67fcd5	-0.056637604

decoder.block.0.layer.0.SelfAttention.q.weight f4 [16, 8]
0	0xbb229378	-0.0024807137
1	0x3c5ce54b	0.013482402
2	0xbbaf1b6b	-0.0053438446
3	0xbc6728c3	-0.014108839
4	0x3b4c12c8	0.0031139124
5	0x3b9d7a14	0.0048058126
6	0x3ba817a5	0.005129772
7	0x3b9569a0	0.0045597106
8	0xbc0f7d2d	-0.008757872
9	0x3b3f78c3	0.0029216267
10	0x3ab9dfae	0.0014181042
11	0xbc2940e2	-0.010330411
12	0x39455bd8	0.00018821598
13	0x3b94478c	0.0045251306
14	0x3c1aaf69	0.009441235
15	0xbc365599	-0.0111288065
16	0xbb89078d	-0.0041818083
17	0x3c325fee	0.010887129
18	0x3b06679a	0.0020508529
19	0xbb8a7242	-0.0042250464
20	0xbc52ee0d	-0.012874139
21	0x3b9593b7	0.004564728
22	0x3bc6b625	0.006064194
23	0xbb453146	-0.0030089184
24	0x3b95d29f	0.004572227
25	0x3c084a88	0.008318551
26	0x3b8a2d2f	0.004216812
27	0x3c024ba9	0.007952609
28	0x3b254b86	0.0025222017
29	0x3b9a9ad5	0.0047181644
30	0xbb35873e	-0.0027699019
31	0xbbaae18c	-0.0052148756
32	0x3a79e617	0.0009532882
33	0xbc7f8d5d	-0.0155976685
34	0xbc9ba291	-0.018998416
35	0x3bf8fd50	0.0075985566
36	0x3adc456d	0.0016805358
37	0x3c5c068c	0.013429295
38	0x3b4fba29	0.0031696653
39	0xbb03ff58	-0.002014121
40	0xba120043	-0.0005569497
41	0x3ba4e660	0.0050323457
42	0x3c38d7ff	0.011281966
43	0xbc6f5cf1	-0.014609561
44	0x3a56d518	0.00081952056
45	0xbbc5808c	-0.006027287
46	0x3b7d56b6	0.003865642
47	0x3c10390f	0.008802666
48	0xbc5beb99	-0.01342287
49	0x3c2205f8	0.009889118
50	0xba8b9373	-0.0010648802
51	0x3c1037aa	0.008802334
52	0x3b1a1cd3	0.0023515716
53	0xbc07b801	-0.008283616
54	0xbc05eb5b	-0.008173789
55	0xbc41261c	-0.011788871
56	0x3b99e286	0.004696193
57	0x3b9931eb	0.00467514
58	0xbca10429	-0.019655304
59	0x3ba97592	0.005171486
60	0x3b30b36e	0.0026962417
61	0xbbb0332f	-0.0053771953
62	0x3a57221a	0.00082066806
63	0x39759c78	0.0002342331
64	0x3c43491a	0.011919284
65	0x3c05fc1b	0.008177782
66	0xbbc01693	-0.005862066
67	0xbba97c87	-0.0051723155
68	0xbba29339	-0.004961398
69	0xbbc30432	-0.005951428
70	0x3b992ac0	0.0046742857
71	0xbbd9b575	-0.006643946
72	0x3c076346	0.008263415
73	0x3bf209b1	0.007386409
74	0x3b82efd3	0.0039958744
75	0x3b5c2073	0.0033588677
76	0xb7d29de5	-2.5107476e-05
77	0xbc160ad3	-0.009157854
78	0xbc9e66ea	-0.019336183
79	0x3c0ee6e8	0.0087220445
80	0xbc28ea42	-0.010309758
81	0x3c03915b	0.008030261
82	0x3bcf5b6c	0.006328037
83	0x3becd943	0.007228048
84	0xbb1d9876	-0.0024047173
85	0x3bb292e6	0.0054496406
86	0xbc0ba578	-0.008523338
87	0x3c0456bb	0.008077319
88	0xbb11d580	-0.00222525
89	0x3b84c18e	0.004051394
90	0xbb58c5e9	-0.0033076948
91	0x3c1087a9	0.008821406
92	0xbbe9feb3	-0.007140958
93	0x3ba045a1	0.004891113
94	0xbc833c26	-0.016019892
95	0x3b48d8c3	0.0030646778
96	0xbc55bcd1	-0.013045506
97	0xbb6bb8ae	-0.0035968232
98	0xbaa09076	-0.0012250084
99	0x3c8be885	0.017078647
100	0xbc54d092	-0.01298918
101	0xba9ff119	-0.001220259
102	0x3c31c1c8	0.010849424
103	0x3b0b8e9c	0.0021294719
104	0xbbb42d54	-0.0054985676
105	0x3c61b58d	0.013776195
106	0x3a2ff874	0.00067127426
107	0xbc5a5ea8	-0.013328232
108	0x3b4b1f9b	0.003099418
109	0x3c2c26da	0.01050731
110	0xbb08be82	-0.0020865505
111	0xbbaf41ea	-0.0053484337
112	0xbbaa576c	-0.00519841
113	0xbabec9b0	-0.0014555957
114	0xbb13f7cf	-0.0022578125
115	0x3b8bb595	0.0042635896
116	0x3ae5f9f3	0.0017545804
117	0x3b80fa95	0.0039361217
118	0xba42c7d2	-0.0007430288
119	0xbab04abf	-0.001345001
120	0xba02025e	-0.0004959459
121	0x3c1e0179	0.009643906
122	0x3ad992e0	0.0016599558
123	0xbba52d14	-0.005040774
124	0x3c9b4235	0.018952468
125	0x3cd73e88	0.026274934
126	0x3c0381d5	0.00802656
127	0xbc46a6f6	-0.0121247675

decoder.block.0.layer.0.SelfAttention.relative_attention_bias.weight f4 [32, 4]
0	0xbc0afe4c	-0.008483481
1	0xbba02ef2	-0.004888409
2	0x3b0ddeed	0.0021647767
3	0x3bf9bb9a	0.007621241
4	0xbc013ad6	-0.007887563
5	0x3c3ee805	0.011651997
6	0xbc1bc71f	-0.009507923
7	0x3cadb355	0.021203676
8	0x3b8e2b04	0.004338624
9	0xbbf833c1	-0.007574529
10	0x3c93dcff	0.018049715
11	0xbd006400	-0.031345367
12	0xbc159044	-0.009128634
13	0xbc3cb012	-0.011516588
14	0x3c3b1eaa	0.011420885
15	0x3c4420ba	0.011970693
16	0xbcc4cf80	-0.024024725
17	0x3cac7558	0.021052048
18	0xbbfdae9a	-0.0077417614
19	0xbc4d0c8e	-0.0125152
20	0x3c46d82f	0.012136503
21	0xbc72cd9d	-0.01481953
22	0x3c90bbfb	0.017667761
23	0xbc2760f8	-0.01021599
24	0x3cff7d72	0.031187747
25	0x3d00f4ce	0.031483464
26	0x3c88a34d	0.01667943
27	0x3c5039a6	0.012709057
28	0x3b92ab82	0.0044760117
29	0xbc20d9ab	-0.009817521
30	0xbcdd3f00	-0.02700758
31	0x3bae12df	0.005312308
32	0xbc89407c	-0.016754381
33	0xbce9f7ee	-0.028560605
34	0xbc38f6f4	-0.011289347
35	0x3ba89737	0.0051449793
36	0xbab0f33f	-0.0013500227
37	0x3b16a1a8	0.0022984538
38	0xbca14d8b	-0.019690296
39	0x3bbdc2d6	0.0057910485
40	0xbbf1eaee	-0.007382742
41	0xbcf6f4b9	-0.03014599
42	0x3b7a64f3	0.0038207143
43	0xbaada077	-0.0013246675
44	0xbce1d5ae	-0.02756771
45	0xbba08969	-0.004899193
46	0xbc3f3a9a	-0.011671687
47	0x3b53f167	0.0032339932
48	0x3c526cef	0.012843355
49	0xbb51d4c9	-0.00320177
50	0xbc175300	-0.009236097
51	0x3d0e4647	0.03473499
52	0xbc58f205	-0.013241296
53	0xbc5fab8b	-0.013651739
54	0xba831e52	-0.0010003543
55	0x3ad38d64	0.001614016
56	0x3cca20e1	0.024673881
57	0xba641e42	-0.00087020185
58	0xbbb493dd	-0.0055107907
59	0x3d01ccc7	0.03168943
60	0xbbcc3e81	-0.006233037
61	0x3be29810	0.0069151
62	0xba01030c	-0.00049214135
63	0xbc166482	-0.009179236
64	0x3bdce13c	0.006740717
65	0x3c444365	0.011978959
66	0xba4715e4	-0.00075945095
67	0x3bc4c1d1	0.00600455
68	0xb9d2afcb	-0.00040185297
69	0xbbcaa98c	-0.0061847623
70	0xbcd11a7a	-0.02552532
71	0x3cda3750	0.026637703
72	0x3d0579ea	0.03258697
73	0x3c76e713	0.015069741
74	0x3c2e8db4	0.010653902
75	0x3c0ae46e	0.008477313
76	0x3bb01f7e	0.005374848
77	0xbbae4f8c	-0.0053195413
78	0x3c1e1f03	0.009650948
79	0xbb84856e	-0.0040442264
80	0xbc14a161	-0.009071679
81	0xbc02cdc2	-0.007983627
82	0xbb73f242	-0.0037223254
83	0xbcb1979c	-0.021678738
84	0x39286b11	0.00016061614
85	0xbc5cbf29	-0.0134733105
86	0x3b86683c	0.004101781
87	0xbd16960a	-0.036764182
88	0x3c083fb1	0.008315966
89	0xbc7e3bc8	-0.015517183
90	0xbc0262b1	-0.0079581
91	0x3cbd5757	0.023112936
92	0x3a26731c	0.000634955
93	0xbc703dbb	-0.014663155
94	0xbc101043	-0.00879294
95	0xbcf053ed	-0.029336894
96	0xbb8125ff	-0.003941297
97	0xbb8f0a12	-0.004365214
98	0x3b84db36	0.0040544523
99	0xbbc5ee74	-0.0060403887
100	0x3d075367	0.033038523
101	0x3bdd83ef	0.0067601125
102	0x3cd870d2	0.026420984
103	0x3ce8b0d1	0.028404625
104	0xbc075d14	-0.008261938
105	0xba3b1bc0	-0.0007137619
106	0x3c802936	0.01564465
107	0x3c9ad007	0.018898023
108	0x3ce5876e	0.02801868
109	0x3be7612d	0.007061145
110	0xbbc2c2e6	-0.005943644
111	0xbcaa30fe	-0.020775314
112	0x3c0facca	0.0087692235
113	0xbcb7c3b4	-0.022432186
114	0xbb99396e	-0.0046760356
115	0x3cb0cc8d	0.021581912
116	0x3c43745d	0.011929599
117	0xbbad79b4	-0.005294049
118	0xbc08d4ac	-0.008351486
119	0x3cd693d0	0.02619353
120	0x3ca4e055	0.020126501
121	0x3ae6dfc9	0.0017614301
122	0x3c5efac5	0.013609593
123	0x3cb9075a	0.022586513
124	0x3c4e4fcb	0.012592266
125	0x3b1c380d	0.002383712
126	0x3d299ef3	0.04141135
127	0x3c77d0a4	0.015125427

decoder.block.0.layer.0.SelfAttention.v.weight f4 [16, 8]
0	0x3cab7497	0.020929618
1	0x3da023da	0.07819338
2	0xbd58c1d2	-0.052919216
3	0xbc138954	-0.00900491
4	0x3cbcb5b8	0.023035869
5	0x3d5133bc	0.05107473
6	0xbb991d39	-0.004672673
7	0x3d1b3aea	0.03789798
8	0x3c37c289	0.011215814
9	0xbbcbd26c	-0.0062201526
10	0x3c87251c	0.016497187
11	0xbc94410e	-0.018097427
12	0xba5ad2f6	-0.00083474757
13	0x3d5dd3bb	0.054157
14	0x3ccad53e	0.024759885
15	0x3c37f041	0.011226715
16	0x3cfa47a5	0.03055174
17	0x3d052ed8	0.032515377
18	0xbc4b6dc2	-0.012416305
19	0xbbe3387e	-0.0069342246
20	0x3d14f7ec	0.03636925
21	0xbd10bdee	-0.03533738
22	0xbd53e414	-0.051731184
23	0x3d347900	0.044060707
24	0x3d550360	0.05200517
25	0x3d210496	0.039311014
26	0xbd01bf3d	-0.03167652
27	0xbd2e5b6d	-0.04256766
28	0x3db1c254	0.08679643
29	0x3d08a3f5	0.033359487
30	0xbcafa363	-0.021440214
31	0x3d2c3a8d	0.042048026
32	0xbd220c85	-0.03956272
33	0xbce28056	-0.027649086
34	0x3d23d1bc	0.03999494
35	0x3d221134	0.039567187
36	0xbd3c2c88	-0.045940906
37	0xbd3e1232	-0.04640407
38	0x3d92306b	0.07138141
39	0xbd251930	-0.040307224
40	0xbd168a83	-0.03675319
41	0xbd1d0881	-0.038338188
42	0x3d6a4a32	0.057199664
43	0x3d1ce7a3	0.038306843
44	0xbd3ae134	-0.045624927
45	0xbd3fd06d	-0.04682963
46	0x3d449a72	0.047998853
47	0xbd622c44	-0.055217996
48	0x3d29176f	0.041282114
49	0x3d7305a2	0.059331544
50	0x3b820a9a	0.003968549
51	0xbd83d233	-0.06436577
52	0x3d54de5e	0.05196988
53	0x3cd068a6	0.025440525
54	0xbd20f411	-0.03929526
55	0x3d1809e8	0.037118822
56	0xbccb65cd	-0.024828816
57	0xbd4680bb	-0.04846261
58	0x3d9f779e	0.07786487
59	0x3c1fedae	0.009761257
60	0xbd690418	-0.05688867
61	0xbd74c52a	-0.059758343
62	0xbc86bb8c	-0.016446851
63	0xbc3e5243	-0.011616292
64	0x3c8a58cf	0.01688805
65	0x3d98b428	0.07456237
66	0xbd62db91	-0.055385176
67	0xbcf6bad5	-0.030118385
68	0x3cb47ce0	0.022032201
69	0x3d04c972	0.032418676
70	0xbd70efc7	-0.05882242
71	0x3cebbad5	0.028775612
72	0x3d7aee0c	0.061262175
73	0x3d6157f1	0.055015508
74	0xbd8424a4	-0.06452301
75	0x3c29f2b6	0.010372808
76	0x3d2bed56	0.041974388
77	0x3d4ff2cf	0.05076867
78	0xbd1e62a0	-0.038668275
79	0x3d31b50d	0.043385554
80	0xbbdfd6e8	-0.0068310387
81	0xbbeae09d	-0.0071678893
82	0x3d8b2429	0.067940064
83	0xbc844064	-0.016143985
84	0xbd4bc6bd	-0.04975008
85	0xbd0fcd4b	-0.035107892
86	0x3d1ed28f	0.038775023
87	0xbd4b9659	-0.04970393
88	0x3cedc851	0.029026182
89	0x3d272a28	0.040811688
90	0x3d62a679	0.055334542
91	0xbd2365d8	-0.039892048
92	0x3d5e3d47	0.054257657
93	0x3d71285c	0.05887638
94	0xbd124087	-0.03570607
95	0x3c8758c5	0.01652182
96	0x3d482200	0.04886055
97	0x3d2495c0	0.040181875
98	0xbd3fcc7f	-0.046825882
99	0xbd732152	-0.05935795
100	0x3d3946ba	0.045233466
101	0x3d91abfe	0.07112883
102	0xbd486694	-0.04892595
103	0x3d2dbcc2	0.04241634
104	0x3d540953	0.051766705
105	0x3d27098f	0.0407806
106	0xbd259061	-0.040420894
107	0xbd81cb29	-0.06337578
108	0x3d4b9770	0.04970497
109	0x3cd311a9	0.025765257
110	0xbd668d41	-0.056287054
111	0x3d842173	0.064516924
112	0x3d8ccabc	0.06874606
113	0x3d9217c4	0.07133439
114	0xbd603d9d	-0.05474626
115	0xbd368fbd	-0.044570673
116	0x3cd90be2	0.026494924
117	0x3d4ff03b	0.05076621
118	0xbc9bf4ba	-0.019037593
119	0x3cad5e4a	0.021163125
120	0xbd43132f	-0.047625717
121	0xbd798a9b	-0.0609232
122	0x3d36cd28	0.044629246
123	0x3da1e1f1	0.07904423
124	0xbd79e3ce	-0.061008267
125	0xbca6349f	-0.020288764
126	0x3d68caf6	0.056834184
127	0xbcf2b806	-0.029628765

decoder.block.0.layer.0.layer_norm.weight f4 [8]
0	0x3dcecdb6	0.1009783
1	0x3dc5fa97	0.09666937
2	0x3dcc5443	0.09977009
3	0x3db877cb	0.09007224
4	0x3dc82d1d	0.0977423
5	0x3dc69a0a	0.09697349
6	0x3dc2b9a6	0.09508066
7	0x3db63e37	0.08898585

decoder.block.0.layer.1.EncDecAttention.k.weight f4 [16, 8]
0	0x3bacf5bf	0.0052783187
1	0xbcd835e5	-0.026392886
2	0x3cb6e737	0.022327049
3	0xbce787fe	-0.028263088
4	0x3b9e083f	0.0048227604
5	0xbc9161d5	-0.017746845
6	0xbc6cc8df	-0.014452188
7	0x3c5ba174	0.013405193
8	0xbbaabc5d	-0.005210443
9	0xbcc456a1	-0.02396709
10	0xbd193056	-0.037399612
11	0xbc2a3503	-0.010388616
12	0x3c4beb00	0.012446165
13	0xbbbd1c80	-0.0057712197
14	0xbd00f5ba	-0.031484343
15	0xbbe24b88	-0.0069059767
16	0xbc61a721	-0.013772757
17	0xbc5728cf	-0.013132288
18	0x3c21443f	0.009842931
19	0xbc9870f9	-0.018608557
20	0x3c9e0ce3	0.019293254
21	0x3aa8a208	0.0012865672
22	0x3c2e2ef0	0.010631308
23	0x3c0142bd	0.007889447
24	0x3be435b4	0.0069644097
25	0xbb1e168d	-0.0024122328
26	0xbaf0c093	-0.0018367938
27	0xbca0c1a8	-0.019623592
28	0xbbe00290	-0.006836243
29	0x3d0f15f4	0.034933046
30	0x3d0e52ce	0.034746937
31	0xbb375c27	-0.002797851
32	0xba756ec5	-0.0009362514
33	0xbc38e0b7	-0.011284045
34	0xbcd5d409	-0.026102083
35	0xbcc5e575	-0.024157265
36	0xb8c52fad	-9.402572e-05
37	0x3bd7a50c	0.0065809544
38	0xbb03fa3c	-0.0020138165
39	0xbc95d323	-0.018289154
40	0x3c63c85c	0.01390275
41	0xbc85be72	-0.016326163
42	0xbca49aaf	-0.02009329
43	0x3cd3f11c	0.025871806
44	0xbcc3de80	-0.023909807
45	0x3c6c648a	0.014428267
46	0x3bfc593c	0.0077010673
47	0xbbe69086	-0.0070362715
48	0x3bc5bf1f	0.0060347463
49	0xbb85d9c1	-0.004084796
50	0x3d412902	0.04715825
51	0x3bbfef88	0.005857412
52	0x3c0a1450	0.008427694
53	0x3d15d0f3	0.036576223
54	0xbbe0f839	-0.006865528
55	0x3c6649f5	0.014055719
56	0x3c4c4dea	0.012469748
57	0x3c54a79b	0.012979413
58	0x3c102391	0.008797542
59	0x3c1afdec	0.009459954
60	0x3ca96ddf	0.020682273
61	0xbb28ad50	-0.0025738068
62	0x3b75de3e	0.00375165
63	0xbc14405b	-0.009048547
64	0x3c962741	0.018329265
65	0xbca96ee7	-0.020682765
66	0xbc7d5163	-0.015461299
67	0xbc449ea0	-0.01200071
68	0x3b1fcbff	0.0024383066
69	0x3c5836db	0.013196672
70	0xbcca3184	-0.024681814
71	0xbbec075d	-0.007203026
72	0x3c5d2531	0.013497637
73	0xbca63f4a	-0.02029385
74	0x3ac7b047	0.001523503
75	0x3b91d2ee	0.0044501936
76	0xbae47c4d	-0.0017432064
77	0xb9e3b1ea	-0.0004342937
78	0x3cffcc50	0.031225353
79	0xbbf9834a	-0.007614528
80	0x3c49656b	0.012292246
81	0x3acd2dc3	0.0015653897
82	0xbbf82d11	-0.0075737317
83	0x3c78d85b	0.015188302
84	0x3ce291ea	0.027657468
85	0x3c03a008	0.00803376
86	0xbcc50b76	-0.024053317
87	0xbbbc1439	-0.0057397154
88	0x3b723f32	0.0036963937
89	0xbcb71e49	-0.022353308
90	0xbc67b634	-0.014142562
91	0x3bf24b88	0.007394258
92	0xbc276f5e	-0.010219423
93	0xbca756b0	-0.020427078
94	0xbcd6adf1	-0.026205989
95	0xbc648134	-0.01394682
96	0xbc9fc573	-0.01950333
97	0x3b458330	0.0030138008
98	0xbcee47b0	-0.029086918
99	0x3acc63ff	0.0015593766
100	0x3d0b142b	0.03395478
101	0x3c171abb	0.009222682
102	0x3c097d3e	0.0083916765
103	0x3c69c8aa	0.014269033
104	0xba5da16c	-0.00084545347
105	0xbc0b2761	-0.008493275
106	0x3c77cdfa	0.015124792
107	0xbb35a620	-0.0027717426
108	0xbcdbc4fc	-0.026827328
109	0xbc9a325d	-0.018822843
110	0xbb980f14	-0.0046404693
111	0xbc7a9462	-0.015294166
112	0x3d0778cf	0.033074196
113	0x3d103d18	0.035214514
114	0x3af7eaa8	0.0018914538
115	0x3c4fa292	0.012673037
116	0x3c0631f1	0.008190618
117	0x3cb651e4	0.022255845
118	0xbc660c04	-0.014040951
119	0x3c1cd529	0.009572306
120	0x3c00a778	0.007852428
121	0x3c53728f	0.012905731
122	0xbc283f27	-0.010268963
123	0xbc442ed6	-0.011974057
124	0xbb3980fa	-0.0028305636
125	0xbcbb1999	-0.022839354
126	0x3c3456f3	0.011007058
127	0xbb5f7c1a	-0.003410107

decoder.block.0.layer.1.EncDecAttention.o.weight f4 [8, 16]
0	0xbcd8c771	-0.026462289
1	0xbd009e7a	-0.031401135
2	0xbd60d3e6	-0.054889582
3	0xbc319150	-0.010837868
4	0x3ca5c9ec	0.020237885
5	0xbd1e469f	-0.03864157
6	0xbc410fd1	-0.011783556
7	0xbbc55448	-0.00602201
8	0x3d5a0ce7	0.05323496
9	0x3d03c443	0.03216959
10	0x3d218a33	0.039438438
11	0xbca2913d	-0.019844646
12	0xbcdcef88	-0.026969686
13	0xbd4c51bc	-0.049882635
14	0x3d3bd910	0.045861304
15	0x3d00092e	0.031258754
16	0xbcf347bf	-0.029697297
17	0xbd531d2f	-0.051541504
18	0xbcc2d6bc	-0.023784034
19	0xbd3a807b	-0.045532685
20	0x3d34481d	0.044014085
21	0xbd4a7362	-0.049426444
22	0x3c8692f4	0.016427495
23	0x3c586c2a	0.013209382
24	0x3d0242fc	0.031802163
25	0x3d344b53	0.044017147
26	0x3d1cb680	0.038259983
27	0xbcf50183	-0.029907947
28	0xbd233b4c	-0.03985147
29	0xbd009f4e	-0.031401925
30	0x3d0807e0	0.033210635
31	0x3d8102b9	0.062993474
32	0x3c7057c1	0.01466936
33	0x3d21b212	0.03947646
34	0x3d06e10d	0.03292947
35	0x3d07b4aa	0.03313128
36	0xbcf8a7bc	-0.03035342
37	0xba01aa3f	-0.0004946328
38	0x3d212951	0.039346043
39	0x3cbfe54d	0.023424769
40	0xbc5df4ac	-0.013547104
41	0xbc707927	-0.0146773225
42	0xbd21d502	-0.03950978
43	0x3ca87c15	0.02056698
44	0x3c8b9744	0.017039903
45	0x3c12c1ed	0.008957368
46	0xbcd29388	-0.025705114
47	0xbbf13463	-0.0073609813
48	0x3c419d4a	0.011817286
49	0x3d14fb53	0.036372494
50	0x3d15c774	0.036567166
51	0x3cd8f999	0.026486205
52	0xbcc97877	-0.024593575
53	0x3d0832db	0.033251625
54	0xbc27344f	-0.010205342
55	0xbb02a718	-0.0019936021
56	0xbd23832b	-0.039920013
57	0xbd3654b0	-0.044514358
58	0xbd4d43c4	-0.050113454
59	0x3cccb373	0.024987912
60	0x3d42c325	0.047549386
61	0x3d5136b4	0.05107756
62	0xbd27f015	-0.041000444
63	0xbd0ec030	-0.034851253
64	0xbd2a2661	-0.041540507
65	0xbd4647a3	-0.04840816
66	0xbced24a0	-0.028948128
67	0xbd4668dd	-0.04843985
68	0x3d1b1acb	0.03786735
69	0xbd12e389	-0.035861526
70	0x3c9febfb	0.019521704
71	0xba6967b0	-0.0008903695
72	0x3cf45177	0.029824002
73	0x3ce66cc4	0.028128035
74	0x3d020c1e	0.031749837
75	0xbd2f8985	-0.04285576
76	0xbd13a635	-0.03604718
77	0xbcc722ec	-0.024308644
78	0x3cc769f1	0.024342509
79	0x3d1a9f46	0.03774955
80	0xbca9ea8d	-0.020741725
81	0xbcff465b	-0.031161478
82	0xbbe82962	-0.0070850113
83	0xbcd8499d	-0.026402289
84	0x3d040817	0.032234278
85	0xbc451334	-0.012028504
86	0xbbbc2b0d	-0.0057424367
87	0xbd290cce	-0.041271977
88	0x3d060035	0.03271504
89	0x3d0c9d91	0.034329955
90	0x3c8e4468	0.017366603
91	0xbcc0d4e7	-0.02353902
92	0xbbeb44ea	-0.007179846
93	0xbc8c677b	-0.017139187
94	0x3c5b8668	0.013398744
95	0x3c6ec4dd	0.014573303
96	0x3d5b1306	0.05348494
97	0x3d5004fa	0.050785996
98	0x3d270336	0.040774547
99	0x3d1f8227	0.038942482
100	0xbd0bf889	-0.03417257
101	0x3cc9be5d	0.024626905
102	0xbc95295a	-0.018208195
103	0xbc97f6cb	-0.018550297
104	0xbce1d360	-0.027566612
105	0xbcfdb1c0	-0.030968547
106	0xbd386c98	-0.045025438
107	0x3d040134	0.03222771
108	0x3d0165b6	0.03159114
109	0x3cdaf052	0.026725922
110	0xbd4ce879	-0.05002639
111	0xbcda7c61	-0.026670637
112	0xbd4f6786	-0.050635837
113	0xbccd357b	-0.025049916
114	0xbcfb0c2f	-0.030645458
115	0xbcf1902c	-0.029487692
116	0x3cb57d57	0.022154493
117	0xbcc55485	-0.024088154
118	0x3cd39bb8	0.025831088
119	0x3a71819d	0.00092127343
120	0x3d155958	0.036462158
121	0x3c961365	0.018319795
122	0x3cbd6c78	0.023123011
123	0xbd6d8413	-0.057987284
124	0xbd0233c1	-0.031787638
125	0xbcc2bec8	-0.023772612
126	0x3d2ec5cc	0.042669103
127	0x3d84165c	0.06449577

decoder.block.0.layer.1.EncDecAttention.q.weight f4 [16, 8]
0	0xbc5bd57c	-0.013417598
1	0xbc230e1b	-0.0099520935
2	0x3b0f2f20	0.0021848157
3	0xbbf50d99	-0.0074784276
4	0x3ba51eac	0.0050390568
5	0xbc06a4c8	-0.008217998
6	0x3b9024d1	0.00439892
7	0x3b8c6d11	0.0042854627
8	0xbb4a1f8c	-0.0030841557
9	0x3c80166e	0.015635695
10	0xba5fa40b	-0.0008531219
11	0xbc20528c	-0.009785306
12	0x3c20e07c	0.009819146
13	0x3aa1ff7b	0.0012359464
14	0xbc5fa946	-0.013651198
15	0x3bcd4847	0.0062647196
16	0x3c1bd189	0.009510406
17	0xbc65eaee	-0.014033062
18	0x39fff4e1	0.0004881984
19	0x3c917648	0.017756596
20	0x3b841c3c	0.004031686
21	0xbbf2bc50	-0.0074077025
22	0xba045ea0	-0.00050495006
23	0xbbefb102	-0.007314802
24	0x3c068377	0.008210055
25	0x3c0bc6c2	0.008531274
26	0x3bfac8e8	0.0076533444
27	0xbafee089	-0.0019445579
28	0x3c835f91	0.01603678
29	0xbc171aa3	-0.009222659
30	0xbc1017de	-0.008794753
31	0x3bd445c6	0.006478044
32	0x3c27655d	0.010217038
33	0xbb80cad1	-0.0039304276
34	0xbc17a1cd	-0.009254885
35	0xbc325e93	-0.010886806
36	0xba6afca5	-0.00089640386
37	0x3c1225cb	0.008920143
38	0xbc82ac27	-0.01595123
39	0x3b354992	0.002766226
40	0xbb07abd1	-0.0020701776
41	0x3af1fb84	0.0018461798
42	0xbb1a15b0	-0.0023511462
43	0x3b97cd7f	0.0046326513
44	0xbc7bbfe0	-0.015365571
45	0x3b8d982e	0.0043211197
46	0x3b886460	0.0041623563
47	0xbbc2ca79	-0.005944547
48	0xbc551945	-0.013006513
49	0xbc17e2a9	-0.009270349
50	0xb9dea9e8	-0.0004246973
51	0xbc45487c	-0.012041207
52	0x3b5d5f29	0.0033778644
53	0xbba68ddc	-0.005082829
54	0x3b33244c	0.0027334867
55	0x3bdbc18c	0.006706422
56	0xbc09b900	-0.008405924
57	0x3ac899fa	0.0015304678
58	0x3c62362d	0.013806862
59	0x3c803dab	0.015654406
60	0xbbacaf6c	-0.0052699354
61	0xbba09d4b	-0.0049015633
62	0x3b2e3556	0.0026582084
63	0x3afb63be	0.0019179506
64	0x3c430e68	0.01190529
65	0xbb8c8b2e	-0.0042890524
66	0xbb43f817	-0.0029902512
67	0x3ae72924	0.0017636162
68	0x3abbdee0	0.001433339
69	0xbbe0cf4a	-0.0068606483
70	0xbc45cc04	-0.012072567
71	0x3ae4e2bf	0.0017462595
72	0x3c3dcc18	0.011584304
73	0x3bb4a43e	0.0055127433
74	0x3cb361ad	0.021897161
75	0xbb756599	-0.003744459
76	0x3ba65edd	0.0050772266
77	0x3baf9585	0.0053584003
78	0xbb58c4ad	-0.0033076212
79	0x3c8d7277	0.017266495
80	0xb9daeecc	-0.00041758118
81	0x3ae655cd	0.0017573178
82	0x3a04c02d	0.0005064037
83	0xbbd4e2ee	-0.0064967787
84	0x3c16ddd0	0.009208158
85	0x3aeaee11	0.0017923733
86	0x3bff20aa	0.0077858763
87	0xba7bea08	-0.00096097635
88	0x3baa3d11	0.005195268
89	0xbc79397c	-0.015211459
90	0x3b52b273	0.003214982
91	0xbc76972f	-0.015050693
92	0x3b40d817	0.0029425675
93	0x3bbdcb10	0.005792029
94	0x3c2220ac	0.009895485
95	0xbbc4cd17	-0.006005894
96	0xbc168f4c	-0.009189438
97	0xbb2e80e6	-0.0026627122
98	0xba0ba062	-0.0005326328
99	0xbcd8e50a	-0.026476402
100	0x3911c1e1	0.00013900503
101	0x3b1a7928	0.002357075
102	0x3ba14d55	0.004922549
103	0x3afeff8c	0.0019454821
104	0xbc5b4770	-0.013383731
105	0x39f5b64e	0.0004686587
106	0xbc7c8b6d	-0.015414101
107	0x3bc2b5d5	0.005942086
108	0xbc82983c	-0.015941732
109	0xbb856f4d	-0.004072106
110	0x39e652b2	0.0004393063
111	0xbb8f2861	-0.004368827
112	0xbc88c6ed	-0.016696418
113	0xbba546d2	-0.005043843
114	0xbc11630e	-0.008873714
115	0xbc0b3727	-0.008497036
116	0x3a979d91	0.0011567344
117	0xbcc46e39	-0.02397834
118	0x3a592b77	0.000828437
119	0x39aaf388	0.00032606372
120	0xbbb08a31	-0.0053875674
121	0x3ca3adcb	0.019980332
122	0xbb68b33f	-0.003550723
123	0xbc132715	-0.008981486
124	0xbc9e6f36	-0.019340139
125	0xbb7d9d96	-0.0038698665
126	0x3bc9a9ec	0.0061542895
127	0xbb95e5f5	-0.004574532

decoder.block.0.layer.1.EncDecAttention.v.weight f4 [16, 8]
0	0x3ccb2127	0.024796082
1	0xbd610bcc	-0.05494289
2	0x3cb2d804	0.02183152
3	0x3d0eb93c	0.034844622
4	0x3d444f59	0.047927234
5	0xbcbd16eb	-0.023082217
6	0x3d8ee1d6	0.069766685
7	0xbd416bcb	-0.04722194
8	0x3d8cc3ff	0.06873321
9	0xbd17a8b5	-0.037026126
10	0x3d928d04	0.07155803
11	0x3d618ee7	0.055067923
12	0x3c88afd2	0.0166854
13	0xbd4d08ca	-0.05005721
14	0x3ccca9b6	0.024983268
15	0xbcfa29e9	-0.030537562
16	0x3d643b3e	0.05572056
17	0xbd1c1061	-0.038101558
18	0x3c039695	0.008031507
19	0x3c85cf14	0.016334094
20	0x3d63561e	0.05550205
21	0xbd4ab829	-0.049492035
22	0x3d84807b	0.06469818
23	0xbd15e4c7	-0.036595132
24	0x3d1ea2bc	0.038729414
25	0xbd323dbf	-0.043515917
26	0x3d401d46	0.046902917
27	0x3c577ada	0.013151849
28	0x3d1d002c	0.038330242
29	0xbd4f76ef	-0.050650533
30	0x3d607d0a	0.054806747
31	0xbd358dc1	-0.04432464
32	0xbd32c9c8	-0.043649465
33	0x3c907800	0.017635345
34	0xbd66c910	-0.056344092
35	0xbcfa645d	-0.030565435
36	0xbd6700a2	-0.056397088
37	0x3ca973c6	0.020685088
38	0xbc408acc	-0.011751842
39	0x3d56a76e	0.052405767
40	0x3d215326	0.039385937
41	0xbd1a39c3	-0.037652742
42	0x3d102341	0.03518987
43	0x3d2a7d78	0.041623563
44	0x3d2eac18	0.04264459
45	0xbd28fcfc	-0.04125689
46	0x3d951afd	0.07280538
47	0xbcaf3c0e	-0.021390941
48	0x3c9d301e	0.019187983
49	0xbc4e30e0	-0.012584895
50	0x3b1c062f	0.0023807397
51	0x3d33dd10	0.043911994
52	0x3cac735c	0.021051101
53	0xbb824f96	-0.0039767725
54	0xbb1f5d38	-0.0024317037
55	0x3c81655c	0.015795402
56	0x3c1d21b5	0.009590556
57	0xbd2a20f8	-0.041535348
58	0x3ca4ef6a	0.020133693
59	0xbc2bfbe3	-0.010497066
60	0xbc5cdc01	-0.013480187
61	0xbd1b9341	-0.03798223
62	0x3cdab001	0.026695253
63	0xbcfda0b7	-0.030960424
64	0xbd0fe98a	-0.03513483
65	0x3da75335	0.08170167
66	0xbd24069f	-0.040045377
67	0xbd866dab	-0.06563886
68	0xbd0f5398	-0.03499183
69	0x3d91abd0	0.07112849
70	0xbd817ee7	-0.06323033
71	0x3d8306ab	0.06397756
72	0xbce37025	-0.027763436
73	0x3d6f35d2	0.058400936
74	0xbd5bb899	-0.053642843
75	0xbd7976fb	-0.060904484
76	0xbd3549b3	-0.04425974
77	0x3cd3a2bc	0.025834434
78	0xbd881239	-0.06644101
79	0x3d65e05f	0.05612218
80	0xbd198752	-0.037482567
81	0x3c45bb14	0.012068529
82	0xbd902ba8	-0.07039577
83	0xbd4445e8	-0.04791823
84	0xbd5e56ec	-0.054282114
85	0x3d226c49	0.03965405
86	0xbd0776dd	-0.03307234
87	0x3d8f4d2d	0.06997142
88	0x3d53dd20	0.051724553
89	0xbd7a4706	-0.06110289
90	0x3d4ca76c	0.049964353
91	0x3d5e4d81	0.054273132
92	0x3d65fde3	0.05615033
93	0xbd163f93	-0.036681723
94	0x3d6a13c8	0.05714777
95	0xbd4f9aff	-0.050684925
96	0x3cff81fc	0.031189911
97	0xbcc91f1c	-0.024550967
98	0x3d8176b9	0.06321473
99	0x3cf3ff40	0.029784799
100	0x3d75bf66	0.059996985
101	0xbca03077	-0.01955436
102	0x3d27d9c9	0.04097918
103	0xbd54cc51	-0.051952664
104	0x3d733a6f	0.0593819
105	0xbd11ae83	-0.035566818
106	0x3d4dc95c	0.05024086
107	0x3c050cd6	0.008120736
108	0x3d6edaf9	0.058314297
109	0xbd113b49	-0.03545693
110	0x3c1f9260	0.009739488
111	0xbb57bbe9	-0.00329184
112	0xbd924dcd	-0.071437456
113	0x3d5c8e43	0.05384661
114	0xbd7b4949	-0.061349187
115	0xbd0d9b1f	-0.034571763
116	0xbd7c4660	-0.061590552
117	0x3da3d693	0.07999911
118	0xbd7d87be	-0.061897032
119	0x3d18de4b	0.03732137
120	0xbd4f3696	-0.050589167
121	0x3d1aad32	0.03776283
122	0xbdc239d3	-0.09483685
123	0xbccb1625	-0.024790833
124	0xbd4e673e	-0.05039143
125	0x3cf3b0d6	0.029747408
126	0xbd55a1b8	-0.05215618
127	0x3d4b52f9	0.049639676

decoder.block.0.layer.1.layer_norm.weight f4 [8]
0	0x3d4d6d2a	0.050152935
1	0x3d4d6822	0.050148137
2	0x3d4edf6f	0.05050605
3	0x3d4dd356	0.050250374
4	0x3d4c5ab9	0.049891207
5	0x3d4f36d4	0.050589398
6	0x3d4da6c6	0.050207876
7	0x3d4bcb2e	0.049754314

decoder.block.0.layer.2.DenseReluDense.wi.weight f4 [8, 8]
0	0xbd34703e	-0.044052355
1	0x3cc73483	0.024317032
2	0x3c7f98d9	0.015600407
3	0x3cbf53b8	0.02335535
4	0x3c7f7bb6	0.01559346
5	0x3bd6685c	0.0065432023
6	0x3b92c3af	0.0044788937
7	0xbd78e93d	-0.06076931
8	0x3ce97023	0.028495854
9	0x3bcc90f0	0.006242864
10	0x3cf21a84	0.02955366
11	0xbd05d9c5	-0.032678384
12	0x3c4b588d	0.012411249
13	0xbb3c3e72	-0.0028723744
14	0xbc4513fb	-0.0120286895
15	0x3bdc52a8	0.0067237206
16	0x3d58feba	0.0529773
17	0x3d4785e1	0.04871166
18	0xbd7d4465	-0.061832804
19	0xbdac04ec	-0.08399376
20	0x3d704866	0.058662795
21	0x3d62d90c	0.055382773
22	0xbd212d84	-0.039350048
23	0x3d4bf922	0.04979814
24	0xbd61abff	-0.05509567
25	0xbd001471	-0.031269494
26	0x3c83deb6	0.016097408
27	0xbca6712c	-0.020317636
28	0x3c0fd143	0.008777919
29	0xba869f66	-0.0010270893
30	0x3d2091c3	0.03920151
31	0xbd0a7728	-0.033805043
32	0x3d032109	0.032013927
33	0x3cb7bb08	0.02242805
34	0xbc8b83c3	-0.017030602
35	0xbcae3bf0	-0.021268815
36	0x3bde60de	0.00678645
37	0x3d6ed1fc	0.058305725
38	0xbd560719	-0.052252863
39	0x3d0a6afb	0.03379343
40	0x3d0bb594	0.034108713
41	0x3c82f02d	0.015983665
42	0xbba3382e	-0.0049810624
43	0xbd5e4ead	-0.05427425
44	0x3d5e2e8e	0.054243617
45	0xbd1ef5cc	-0.03880863
46	0xbd221433	-0.039570045
47	0x3ca30f1a	0.019904662
48	0x3d2c1870	0.042015493
49	0x3d5e4cc2	0.05427242
50	0xbd4e9374	-0.05043359
51	0xbc941c9e	-0.018080052
52	0x3db2d695	0.087323345
53	0x3d11dbfb	0.03561018
54	0xbd7a1111	-0.061051432
55	0x3d2127a3	0.03934444
56	0xbabc4b7e	-0.001436576
57	0x3cab406c	0.020904742
58	0xbd00f375	-0.03148218
59	0xbc91cf0e	-0.017798927
60	0x3c3ef118	0.011654161
61	0x3cb0826c	0.021546565
62	0x3c5799ab	0.013159196
63	0xbd1cf8a7	-0.03832307

decoder.block.0.layer.2.DenseReluDense.wo.weight f4 [8, 8]
0	0x3bb76c34	0.0055976156
1	0x3bffa891	0.007802077
2	0x3d180063	0.037109744
3	0x3c2f2cd1	0.010691837
4	0x3d4be174	0.049775556
5	0x3b2cb056	0.0026350222
6	0x3d3b537a	0.045733906
7	0x3c6afd14	0.014342565
8	0x3ca9cb2c	0.020726763
9	0x3bd8da04	0.0066177864
10	0x3d43d0bb	0.047806483
11	0x3c4f0f21	0.012637884
12	0x3d1dc372	0.03851647
13	0x3cd7c62e	0.026339617
14	0x3d159e9d	0.03652822
15	0xbb973339	-0.0046142605
16	0x3ce99dcf	0.028517632
17	0xbd8232fa	-0.06357379
18	0xbc90bcf4	-0.017668225
19	0xbc2b8da8	-0.010470785
20	0xbc891f52	-0.016738568
21	0xbd0f10a4	-0.03492798
22	0xbcf41652	-0.0297958
23	0x3caffaa8	0.021481827
24	0xbca6b04d	-0.020347739
25	0xbc806ea1	-0.015677752
26	0xbd318353	-0.04333813
27	0xbc6cd082	-0.014454009
28	0xbd85253f	-0.06501245
29	0x3bc4b25c	0.0060027074
30	0xbd6e2224	-0.058138028
31	0xbcbeb677	-0.023280365
32	0x3c4ff49d	0.012692598
33	0xbc65bc5c	-0.014021959
34	0x3cbef8d7	0.023312015
35	0xbbd5408f	-0.00650794
36	0x3d310fc3	0.043227922
37	0xbd1bbe1e	-0.038023107
38	0x3d463698	0.04839191
39	0x3c913b92	0.0177286
40	0x3b7c57e3	0.0038504533
41	0xba9399d8	-0.0011261059
42	0x3d123f33	0.035704803
43	0xbd0f4707	-0.034979846
44	0xbcc3a6d5	-0.023883263
45	0x3d8866a9	0.06660206
46	0x3cf8deac	0.030379616
47	0xbb1a84f7	-0.0023577788
48	0x3bbc6eb7	0.005750503
49	0x3a2e4275	0.0006647476
50	0xbd6c7851	-0.05773193
51	0x3cd33c65	0.025785634
52	0xbd4eefaa	-0.05052153
53	0xbd72d477	-0.059284654
54	0xbd1c23a0	-0.038119912
55	0xbcf525d0	-0.029925257
56	0xbafb0293	-0.0019150547
57	0x3bd05bd8	0.006358605
58	0x3d688df9	0.05677602
59	0xbd0275ea	-0.031850733
60	0x3cfff6f4	0.031245686
61	0x3ce5a312	0.02803186
62	0x3ca29054	0.019844212
63	0x3cdaf6bc	0.02672898

decoder.block.0.layer.2.layer_norm.weight f4 [8]
0	0x3dcfb06f	0.10141074
1	0x3db079a8	0.08616954
2	0x3db07353	0.08615746
3	0x3dd1f22d	0.102512695
4	0x3db6c1c5	0.08923677
5	0x3dc6a862	0.09700085
6	0x3dbf9d06	0.09356122
7	0x3dce3779	0.10069174

decoder.block.1.layer.0.SelfAttention.k.weight f4 [16, 8]
0	0x3c10d04a	0.0088387225
1	0xbc87741f	-0.016534863
2	0x3c5650c4	0.013080779
3	0x3ca686c7	0.020327939
4	0xbbe0ee16	-0.0068643196
5	0xbcc300ee	-0.023804154
6	0xbcb8fdee	-0.02258202
7	0xbcc45402	-0.02396584
8	0x3c209315	0.009800692
9	0x3c83947f	0.01606202
10	0xbc319f07	-0.010841138
11	0x3cb13207	0.0216303
12	0x3c56c2a0	0.013107926
13	0xbd054059	-0.03253207
14	0x39d92642	0.0004141797
15	0xbc91229e	-0.017716702
16	0x3b6dd9e0	0.0036293194
17	0x3c06c8de	0.008226601
18	0x3b968bd3	0.004594305
19	0x3c69ac3c	0.014262255
20	0xba831979	-0.0010002098
21	0x3bd6d09e	0.006555631
22	0x3b31d6a3	0.002713599
23	0xbc31936d	-0.010838372
24	0x3b0886f5	0.0020832394
25	0x3a8c83de	0.0010720452
26	0xb9017ac5	-0.00012348134
27	0xbc9f34c8	-0.019434348
28	0x3c861f55	0.016372362
29	0x39a1e345	0.00030877642
30	0xbbf26639	-0.00739744
31	0xba9d641d	-0.0012007985
32	0x3caa1ee5	0.020766685
33	0xbceac49f	-0.02865821
34	0x3c9d886d	0.019230092
35	0xbcdca8db	-0.026935985
36	0x3c585023	0.0132027
37	0x3c66eb19	0.014094138
38	0xbd140fb7	-0.0361478
39	0xbb7f6a78	-0.0038973372
40	0x3b8c7292	0.004286119
41	0x3b4aa563	0.0030921332
42	0x3a93e9a3	0.0011284839
43	0xbbfdd19a	-0.0077459337
44	0xbc99f5af	-0.018793909
45	0x3c8c1d9f	0.017103968
46	0xbc87ee12	-0.016593013
47	0xbc1f052d	-0.009705824
48	0x3caa2114	0.020767726
49	0xbc3ade98	-0.01140561
50	0xbd6ce440	-0.057834864
51	0xbcbecc00	-0.023290634
52	0xbc37577d	-0.011190292
53	0xbc1f6e8f	-0.009730949
54	0x3b75b9e8	0.0037494842
55	0x3be563d1	0.0070004244
56	0x3cb5e8ba	0.0222057
57	0xba3f630d	-0.00073008315
58	0xbc10b902	-0.008833172
59	0x3ce697a4	0.02814848
60	0x3c923d99	0.017851638
61	0x3ac92035	0.0015344681
62	0xbcac34f4	-0.021021344
63	0x3cddeb02	0.0270896
64	0xbc3b67a3	-0.011438283
65	0x3c7152d7	0.014729223
66	0xbd22af75	-0.03971811
67	0xbc23258c	-0.009957682
68	0x3ba2b6a4	0.00496562
69	0x3c89f1b0	0.016838878
70	0xbd09b1cd	-0.03361683
71	0xbb17050c	-0.002304378
72	0x3cdb70cc	0.026787184
73	0x3c873f25	0.016509602
74	0xbca15be9	-0.019697146
75	0x3ceead11	0.029135259
76	0x3c2805b5	0.010255267
77	0xbc4c859e	-0.012483029
78	0x3bb38835	0.0054788836
79	0xbd1ca544	-0.038243547
80	0xbc38dd12	-0.011283176
81	0x3cc7be77	0.024382813
82	0x3b9e6c65	0.004834699
83	0x3c27c195	0.010239025
84	0x3d05a8ef	0.03263181
85	0x3ca4883f	0.020084498
86	0xbcc38c18	-0.023870513
87	0x3ca048aa	0.019565899
88	0xbcf5b2bc	-0.029992454
89	0xbbef5246	-0.007303509
90	0xbcfcc1df	-0.030854164
91	0xbc9ec465	-0.019380758
92	0x3ceae9e1	0.028675975
93	0xbbe75a0d	-0.0070602954
94	0xbcd4e65d	-0.025988752
95	0xbb7ab673	-0.003825572
96	0xbd106e8c	-0.035261676
97	0x3c7fb558	0.015607201
98	0x3d17c69b	0.03705464
99	0xbbfee374	-0.0077785794
100	0xbced2e03	-0.028952604
101	0x3a215cdf	0.00061555015
102	0xbbd1180a	-0.0063810395
103	0x3c8efba4	0.017453976
104	0x3ca783ea	0.020448644
105	0x3a2a5b6a	0.0006498607
106	0x39e792cd	0.00044169129
107	0x3c8b11eb	0.016976317
108	0x3c5c8c79	0.013461226
109	0xbb91a639	-0.004444864
110	0x3b642c11	0.0034816305
111	0xbb0f1b4d	-0.002183634
112	0xbaa1ba56	-0.0012338858
113	0x3bc7c321	0.006096259
114	0x3c964961	0.018345537
115	0x3c8c4852	0.017124329
116	0x3b2e243d	0.0026571893
117	0xbc3b31ba	-0.01142543
118	0x3b4a926c	0.0030910028
119	0x3cbeb177	0.023277981
120	0xbae4d0f4	-0.0017457292
121	0xbca45c60	-0.02006358
122	0x3bc87113	0.006116995
123	0xbb0cd051	-0.002148647
124	0x3bd58bf2	0.006516927
125	0x3cc0d1a3	0.023537463
126	0xbb927c9a	-0.00447042
127	0x3c2d21fe	0.010567186

decoder.block.1.layer.0.SelfAttention.o.weight f4 [8, 16]
0	0xbd10a7ec	-0.035316393
1	0x3d137b48	0.036006242
2	0x3d5d2484	0.053989902
3	0x3c31c331	0.01084976
4	0xba74b69c	-0.0009335072
5	0x3d05b378	0.032641858
6	0x3d434d61	0.047681216
7	0x3d282811	0.041053835
8	0x3cdef3f3	0.027215933
9	0x3d302c91	0.04301125
10	0xbd0effa1	-0.034911755
11	0xbd173c87	-0.036922958
12	0xbd3a360c	-0.0454617
13	0xbcf61056	-0.030037086
14	0x3d1ebf84	0.038756862
15	0x3cc54373	0.024080014
16	0xbc57e538	-0.013177209
17	0x3c9aff2d	0.018920505
18	0x3b1e4fdd	0.002415649
19	0x3cf61aef	0.03004214
20	0x3d1bd4b2	0.03804464
21	0x3d092398	0.03348121
22	0x3d1f8888	0.038948566
23	0x3cd0a33c	0.025468461
24	0x3d24ade6	0.040204905
25	0x3cde7433	0.027155017
26	0xbd2ea03c	-0.04263328
27	0xbcd26b73	-0.025686001
28	0xbd0f2b90	-0.034953654
29	0xbd419159	-0.047257755
30	0x3cfbd597	0.030741496
31	0x3d70e8ee	0.05881589
32	0x3a9e4e4f	0.0012077781
33	0xba31be32	-0.00067803555
34	0xbd0ad7f9	-0.033897374
35	0xbd64115e	-0.055680625
36	0xbd1351ba	-0.035966612
37	0xbd174dac	-0.036939308
38	0xbd3c2a3d	-0.04593872
39	0xbcbfeec1	-0.023429276
40	0xbbbfd545	-0.005854281
41	0xbd17b349	-0.037036214
42	0x3c45b9ec	0.012068253
43	0x3ba11616	0.004915963
44	0xbb06a268	-0.002054358
45	0x3c51e075	0.012809862
46	0xbb1bd4af	-0.0023777892
47	0xbcb7839a	-0.02240162
48	0x3d386bdd	0.04502474
49	0xbd45f232	-0.04832668
50	0xbd7d0540	-0.061772585
51	0xbc372392	-0.011177914
52	0xbcf1a7be	-0.029498931
53	0xbd6c7402	-0.05772782
54	0xbcdd3c5a	-0.027006317
55	0xbcd8f863	-0.026485628
56	0xbd32c3db	-0.043643814
57	0xbbeb182f	-0.007174514
58	0x3b785298	0.0037891027
59	0x3d282867	0.041054156
60	0x3d32a896	0.043617807
61	0x3d2d9261	0.042375926
62	0xbc8c00f3	-0.017090296
63	0xbd078915	-0.033089716
64	0xbd153436	-0.036426745
65	0x3d053e18	0.03252992
66	0xbca2147f	-0.019785164
67	0x391f28b2	0.00015178582
68	0x3cfebf64	0.031097122
69	0x3d1395ba	0.036031462
70	0x3cf59f20	0.029983103
71	0x3d0d0446	0.034427904
72	0x3d3ac416	0.04559716
73	0x3caabac1	0.020841004
74	0xbd0e288b	-0.034706634
75	0xbd1f5e2f	-0.03890818
76	0xbc74a3e8	-0.014931656
77	0xbd3adb8c	-0.045619532
78	0x3cba363e	0.022730943
79	0x3d0ccf0e	0.03437715
80	0xbcb1ac8b	-0.02168872
81	0xbc18d986	-0.009329205
82	0xbd040a99	-0.03223667
83	0x3d20a96b	0.03922407
84	0xba80baf1	-0.0009821338
85	0x3c2ddfbf	0.010612427
86	0x3cf7b347	0.030236853
87	0x3d1c026b	0.038088243
88	0x3c40c4a4	0.011765633
89	0x3ce4f343	0.027948027
90	0xbcb19beb	-0.021680793
91	0xbc96c753	-0.018405592
92	0xbc862054	-0.016372837
93	0x3b09f897	0.0021052712
94	0x3cda0c5a	0.026617218
95	0xbc023fe7	-0.007949806
96	0x3d3eccb7	0.04658195
97	0xbc57b248	-0.013165064
98	0xbcb42a4d	-0.021992827
99	0xbca466ac	-0.020068489
100	0xbd5d2b11	-0.05399615
101	0xbd07bca3	-0.033138882
102	0xbd53589e	-0.051598184
103	0xbcc20890	-0.023685724
104	0xbbc280f1	-0.005935781
105	0xbca1e820	-0.019764006
106	0x3d22fc60	0.039791465
107	0x3ce38ef7	0.027778132
108	0x3cf55103	0.029945856
109	0x3cba868c	0.022769235
110	0xbd58d2e3	-0.052935492
111	0xbd26c6b0	-0.040716827
112	0xbd29834c	-0.04138498
113	0x3cd23100	0.02565813
114	0xbd45266e	-0.048132353
115	0xbcb314dc	-0.021860532
116	0x3d3b62f8	0.04574868
117	0x3cfa8297	0.030579848
118	0x3d0951ae	0.03352516
119	0x3d2fd0b3	0.04292364
120	0x3d2ba547	0.041905668
121	0x3cde0184	0.027100332
122	0xbd628ab5	-0.055308063
123	0xbd402ff3	-0.046920728
124	0xbcdf0af3	-0.0272269
125	0xbd420e2a	-0.04737679
126	0x3cc06221	0.023484292
127	0x3d8582cf	0.065190904

decoder.block.1.layer.0.SelfAttention.q.weight f4 [16, 8]
0	0xbc00ec24	-0.0078688
1	0x3b822813	0.0039720624
2	0x3bb3ab32	0.0054830546
3	0xbb83cafa	-0.0040219994
4	0xbbc17ffb	-0.005905149
5	0xbb91ce52	-0.004449644
6	0x3c498a26	0.012301004
7	0xbb0fe7b1	-0.0021958167
8	0xbc6871f5	-0.014187326
9	0xbadc2890	-0.0016796757
10	0xbb2c737b	-0.002631395
11	0xbc447c6b	-0.011992554
12	0x3b665869	0.0035147911
13	0xbb9d5b43	-0.004802139
14	0xba1ab337	-0.0005901339
15	0xbc17b432	-0.0092592705
16	0x3ae1607c	0.0017194892
17	0xbb84c9ef	-0.0040523927
18	0xbbd05cde	-0.006358727
19	0x3b83200b	0.0040016226
20	0xbba86798	-0.0051393025
21	0xbc8c836c	-0.01715251
22	0xbc69fc6a	-0.014281372
23	0xbcb0e394	-0.021592893
24	0x3b342b52	0.0027491641
25	0x3c350048	0.01104743
26	0x3b2faf9a	0.0026807548
27	0xbb633b90	-0.0034672953
28	0xbc317307	-0.010830647
29	0x3b0bd742	0.002133802
30	0x3b31a8ee	0.0027108747
31	0xbb0490a9	-0.0020227826
32	0xbbf40bd4	-0.007447699
33	0xbc1c8cb1	-0.009555028
34	0x3b8b52b9	0.0042518047
35	0xbb1c97a9	-0.0023894107
36	0xbb5dcf77	-0.0033845583
37	0xbb34e5d1	-0.0027602802
38	0x3c03eac8	0.008051582
39	0x3c07fcad	0.008299989
40	0x3ab0ccd8	0.0013488783
41	0xb8a9c3e5	-8.095036e-05
42	0x39975e07	0.0002887102
43	0x3c325326	0.010884082
44	0xbc0e4051	-0.008682326
45	0x3bcaf032	0.0061931843
46	0xbbc4ea72	-0.0060093934
47	0x3c3ab467	0.01139555
48	0x3c1d55c0	0.009602964
49	0x3c10fcfb	0.008849378
50	0xba2e0f42	-0.0006639847
51	0x39b8b516	0.00035230134
52	0xbbc1a0e6	-0.005909073
53	0x3a636c82	0.0008675532
54	0x3c3316d5	0.010930737
55	0x3b72e657	0.0037063563
56	0x3c9ce161	0.019150438
57	0xba1d2d81	-0.00059958553
58	0xbc09baf0	-0.008406386
59	0x39a71f01	0.00031875822
60	0xbbc34122	-0.005958692
61	0x3ba9fd5a	0.0051876726
62	0x3b701a4a	0.0036636763
63	0x3c2070c7	0.009792513
64	0x3b2ef932	0.0026698825
65	0xbbaf3058	-0.005346339
66	0x3bf757de	0.0075483164
67	0xbb9d5b0a	-0.0048021125
68	0x3b098b0c	0.002098742
69	0xbbec9f27	-0.007221121
70	0xbc297590	-0.0103429705
71	0xbc196df2	-0.009364592
72	0x3c6c6fe0	0.01443097
73	0x3c211d0c	0.0098335855
74	0xbbef6eb4	-0.007306898
75	0xbbcf6242	-0.006328852
76	0x3c4006b7	0.011720351
77	0xbbd507d2	-0.0065011764
78	0xb9987dff	-0.00029085574
79	0x3c2eebed	0.010676366
80	0xbc0290c3	-0.007969084
81	0x3aeda3b4	0.0018130452
82	0xbc4d74ed	-0.012540084
83	0x3be80e60	0.0070817918
84	0x3b8eb772	0.0043553645
85	0xbbb66e6a	-0.0055673616
86	0xbc5045f7	-0.012711993
87	0x3bfe3f6a	0.0077590244
88	0x3b9c5238	0.0047705434
89	0xbbc418d0	-0.005984403
90	0x3babeec6	0.00524697
91	0xbc17b0d4	-0.009258468
92	0x3c8894db	0.016672542
93	0xbc210814	-0.009828586
94	0xb90c453b	-0.00013377231
95	0xbb0b2a35	-0.0021234874
96	0x3bdfd94e	0.0068313247
97	0x3bace32d	0.005276105
98	0x3b83b628	0.0040195175
99	0x3bbc29bc	0.00574228
100	0xbc83fd9f	-0.016112147
101	0xb9d74c30	-0.0004106476
102	0xbc6b14ee	-0.014348252
103	0xbc146027	-0.009056128
104	0xbc0ebd03	-0.008712056
105	0x3a0217bc	0.0004962643
106	0xbc4dcee9	-0.012561538
107	0xbb956d97	-0.0045601833
108	0x3aab7532	0.0013081192
109	0x3bd3d539	0.006464627
110	0x3c4c2113	0.012459057
111	0x3ba977b8	0.0051717423
112	0x3ba8828c	0.0051425155
113	0x3c18fee9	0.009338119
114	0xbcb45c5b	-0.022016695
115	0x3bb2f739	0.0054616
116	0xbba0b59c	-0.004904462
117	0xbb8a8c2c	-0.0042281356
118	0xbc3e544f	-0.01161678
119	0xbc3a8d97	-0.011386297
120	0xbbf25927	-0.0073958817
121	0x3befa07b	0.007312832
122	0x38613ebe	5.3702614e-05
123	0x3afda8e4	0.0019352701
124	0x3c00bac5	0.007857029
125	0xbca01f14	-0.01954607
126	0x3c3f61e4	0.011681054
127	0x3c11ace8	0.008891322

decoder.block.1.layer.0.SelfAttention.v.weight f4 [16, 8]
0	0xbcfee114	-0.031113185
1	0xbd8cb632	-0.068706885
2	0x3d928030	0.07153356
3	0x3d254b84	0.04035522
4	0xbcfc6e64	-0.030814357
5	0xbd326202	-0.0435505
6	0x3d08da2b	0.033411186
7	0xbd13edc3	-0.03611542
8	0x3a0fc42d	0.00054842496
9	0x3c6f6b5e	0.014613001
10	0xbd2095e5	-0.03920545
11	0xbc6da015	-0.014503499
12	0x3c6f51b0	0.014606878
13	0x3d184a75	0.037180383
14	0xbc824616	-0.01590256
15	0xbcce7d06	-0.0252061
16	0xbc5dc6e9	-0.013536193
17	0x3ae21fa6	0.0017251864
18	0x3c94509f	0.01810485
19	0x3d18cf94	0.037307337
20	0x3cfba09a	0.03071623
21	0x3cf4ca7c	0.029881708
22	0x3b97f1ad	0.0046369643
23	0x3d50625a	0.050875045
24	0x3d09d90c	0.033654258
25	0x3cdec951	0.027195605
26	0xbd01a544	-0.03165175
27	0xbcfa7a67	-0.030575944
28	0x3d82eebf	0.063931935
29	0x3c271254	0.010197241
30	0xbcf4776d	-0.029842103
31	0x3d666bf4	0.056255296
32	0x3d90a694	0.07063022
33	0x3d86094a	0.065447405
34	0xbc3f7c0e	-0.011687292
35	0xbd4c0428	-0.04980865
36	0x3cac9dd1	0.021071346
37	0x3d879246	0.06619696
38	0xbd06355a	-0.032765724
39	0x3cb93f9d	0.022613341
40	0x3d94da36	0.07268183
41	0x3d358d68	0.04432431
42	0xbcc07f46	-0.023498189
43	0xbd3f7fbd	-0.04675268
44	0x3d4c1d8e	0.049832873
45	0x3d8c7868	0.06858903
46	0xbd10d7a5	-0.035361905
47	0x3d45e482	0.048313625
48	0x3d5870bb	0.052841883
49	0x3d05b947	0.032647397
50	0xbd6045db	-0.05475412
51	0xbd41cf54	-0.047316864
52	0x3d81f3ff	0.06345367
53	0x3d880be8	0.06642896
54	0xbd245a58	-0.04012522
55	0x3d2c9cbc	0.04214166
56	0x3d64f678	0.055899113
57	0x3d7cdb23	0.061732423
58	0xbd855a16	-0.06511323
59	0xbd92f8ee	-0.07176386
60	0x3d0201da	0.031740047
61	0x3cd7a2fd	0.026322836
62	0xbca7660e	-0.020434406
63	0x3d78ea48	0.060770303
64	0x3d459588	0.048238307
65	0x3c9204a0	0.017824471
66	0xbd0fdf6c	-0.03512518
67	0xbcb8109c	-0.022468857
68	0x3d1eda99	0.03878269
69	0x3cdfaf4a	0.027305264
70	0xbd81f824	-0.06346157
71	0x3d2114df	0.039326545
72	0x3ca90c28	0.02063568
73	0x3ced9de1	0.029005947
74	0xbd0a9ce8	-0.033841044
75	0xbd70ab1d	-0.058756936
76	0x3d7360f9	0.059418652
77	0x3d0d2303	0.034457218
78	0xbd42328a	-0.04741148
79	0x3cfb4db2	0.030676696
80	0xbd375bb8	-0.044765204
81	0xbc714f32	-0.014728354
82	0x3d9cc6a6	0.07655077
83	0x3d30d3db	0.04317079
84	0xbd1f3f5a	-0.038878776
85	0xbd353199	-0.044236753
86	0x3d321d8e	0.043485217
87	0xbcbf7c94	-0.023374833
88	0xbd2d34a7	-0.04228654
89	0xbd61289c	-0.05497037
90	0x3d8fb99d	0.07017825
91	0x3d043afc	0.032282814
92	0xbd204c2d	-0.039135147
93	0xbd9366ce	-0.07197343
94	0x3d4a0df9	0.04932973
95	0xbd1238f0	-0.03569883
96	0xbb834fea	-0.0040073292
97	0xbc96ec05	-0.01842309
98	0x3d3bb3a4	0.045825616
99	0x3b0ab38d	0.002116415
100	0xbd4bab62	-0.04972399
101	0xbd3807b1	-0.04492921
102	0x3ccb730a	0.024835128
103	0xbcd7e343	-0.026353484
104	0xbd6c1a6b	-0.05764238
105	0xbce44c49	-0.027868407
106	0x3d270b5c	0.040782318
107	0x3cfdf5db	0.031001022
108	0xbd5bafc4	-0.05363442
109	0xbd7f9596	-0.062398516
110	0x3d391f88	0.045196086
111	0xbce37f74	-0.027770735
112	0x3c86c19d	0.016449744
113	0x3bb87017	0.0056285965
114	0xbd604286	-0.05475094
115	0xbd89973e	-0.067183
116	0x3d3ba4db	0.045811515
117	0x3d7ba1fd	0.06143378
118	0xbcec8aa0	-0.028874695
119	0x3cd1f373	0.025628781
120	0x3c892a74	0.016743876
121	0x3b0f1728	0.002183387
122	0xbcf7c839	-0.03024684
123	0xbd881de3	-0.066463254
124	0x3d5722bb	0.052523356
125	0x3d57dc04	0.052700058
126	0xbcd34821	-0.02579123
127	0x3ce5fb5e	0.028073963

decoder.block.1.layer.0.layer_norm.weight f4 [8]
0	0x3dc42a3c	0.09578368
1	0x3da94e67	0.08266907
2	0x3dc903cc	0.09815177
3	0x3dc2400b	0.094848715
4	0x3dc02e05	0.093837775
5	0x3dc4c801	0.0960846
6	0x3db51a95	0.08842961
7	0x3dcb636d	0.09931073
